model/keypoint_classifier/keypoint_classifier.tflite (tflite, 6588 bytes, 6 tensors)

sequential/dense/BiasAdd/ReadVariableOp f4 [20]
000000 e3 f0 82 bf a5 a0 42 bf 37 35 d3 be 8f cc c7 be
       -1.0229763 -0.76026374 -0.41251537 -0.39023253
000010 18 c9 43 bf 73 37 d9 be ad 7f f5 bd 47 91 d3 be
       -0.7647872 -0.42425117 -0.11987243 -0.41321775
000020 4a bd 81 bf a0 94 7b be c3 90 27 bf c4 5a 19 bf
       -1.0135891 -0.24568415 -0.65455264 -0.5990412
000030 8a a4 50 bf 23 b7 4e bf 45 50 7c bf 07 24 de be
       -0.81501067 -0.80748194 -0.9855998 -0.43386862
000040 59 cd 7a bf 17 d5 0c bf 46 fc 4a bf 6a fe 84 be
       -0.97969586 -0.5501265 -0.7929119 -0.25975353

sequential/dense_2/BiasAdd/ReadVariableOp f4 [5]
000000 01 10 d0 3d e7 bf 08 3d 74 3f b5 3d 01 d9 79 be
       0.101593025 0.033386137 0.08849993 -0.24399187
000010 31 0f eb 3c
       0.028693767

sequential/dense_1/BiasAdd/ReadVariableOp f4 [10]
000000 b4 15 85 bf 6e af 26 be c9 7f 99 3e 94 2d e7 be
       -1.0397248 -0.16277859 0.29980305 -0.4515196
000010 b0 b8 22 3f 1b 8d fb bd 9e 5b 3b 3d 5f ec 57 3e
       0.6356306 -0.12282773 0.04574167 0.21086262
000020 23 9e 0f bf c2 6a 9c 3e
       -0.5610067 0.305502

sequential/dense/MatMul f4 [20, 42]
000000 e8 6a a5 bd 54 86 8a 3e 0a d6 39 3c 1b 20 51 bf
       -0.080770314 0.2705561 0.011342535 -0.81689614
000010 3d 04 39 bd 33 d5 6a be 79 03 b2 bc 44 89 50 be
       -0.045170058 -0.22932892 -0.021730172 -0.20364863
000020 f1 67 7e 3d 16 98 8a bd c5 32 3e be f0 55 e5 bd
       0.062110845 -0.06767289 -0.18574055 -0.11198032
000030 65 e5 1b be ba 9e 38 bd ab ed 7a ba 89 6a 67 3d
       -0.15224226 -0.04507325 -0.00095721585 0.056498084
000040 10 d8 ac 3d b7 7c b2 3d 65 52 a0 be bc 7b f7 bd
       0.08439648 0.08715194 -0.31312862 -0.12084147
000050 bc 8a 26 be ec ef 03 be 8d f7 54 bd 46 53 8b 3d
       -0.1626386 -0.12884492 -0.051993895 0.068029925
000060 02 86 45 3e fb 78 72 3d 07 36 98 be 32 b5 13 be
       0.19289401 0.059197407 -0.2972872 -0.1442459
000070 37 67 87 bd 9a d8 4a be fb e5 a4 3d f1 52 34 bc
       -0.066114835 -0.1980919 0.08051678 -0.011006103
000080 0c 5e b3 3e ee b2 04 3d 6c d8 0f 3e 06 a6 53 be
       0.3503269 0.032397203 0.14047402 -0.20668802
000090 ba ed 56 3d 66 77 87 be 00 20 52 3d 10 d0 f1 bd
       0.052472807 -0.2645828 0.05130005 -0.11807263
0000a0 1e 34 98 3e b6 47 99 bc 9c b7 d8 3d c4 c6 49 3e
       0.29727262 -0.018710952 0.10581896 0.1970473
0000b0 0a 0c c7 bd 08 3b ab be 4c 88 5d 3d 1c ed 4c be
       -0.09719093 -0.33443475 0.05408506 -0.20012325
0000c0 00 5f 89 bc 1b bd 17 3b 9e 79 36 bc 1d fd 08 be
       -0.016768932 0.0023153487 -0.011137394 -0.13377805
0000d0 57 51 ce 3e 92 8d f6 3d 10 a6 2b 3e f4 2f e3 3d
       0.40296432 0.12038721 0.16762567 0.11093131
0000e0 46 09 c4 3d f0 5c 9e 3d d8 0d dd 3a eb f1 e2 3c
       0.09572081 0.0773257 0.0016865088 0.027703246
0000f0 90 d0 2f 3f ae a6 0b 3e 8c 19 03 3e 6f 33 2a 3d
       0.68677616 0.13637802 0.12802714 0.041552957
000100 30 78 04 3d 17 4a 64 be 0f af 51 be 0f 50 cb be
       0.032341182 -0.22293888 -0.20476936 -0.39709517
000110 10 31 e8 3e fa 1b 01 3e b4 5b cc 3d e0 81 2a bc
       0.45349932 0.12608328 0.099784285 -0.010406941
000120 30 e3 54 be ea 33 9f be c6 b5 ad be 64 6b 0f bf
       -0.2078979 -0.31094295 -0.33927745 -0.5602324
000130 7c 34 06 bd 94 e5 bc 3d 84 17 78 bd 31 dd 03 bc
       -0.032764897 0.09223476 -0.0605693 -0.008048342
000140 26 cc 70 be f7 f7 78 be 52 1e 2f bf 36 60 37 bf
       -0.23515376 -0.24313341 -0.6840564 -0.7163118
000150 00 4b 73 bc 56 e6 3f 3e 80 6e f1 be d6 74 c2 3f
       -0.014849424 0.1874021 -0.47154617 1.5191905
000160 6b 2e 4b be 41 46 27 3f 0e ca 0e be d1 98 ad 3e
       -0.19841926 0.65341574 -0.13944265 0.33905652
000170 ad 58 0a be f2 ba 7c 3e da 7e f5 3d 44 44 f5 3d
       -0.1351039 0.24680689 0.11987086 0.11975911
000180 ed 9f a7 3d 1d 37 ab 3d 71 9c ea ba 81 a3 80 3d
       0.081848 0.083601214 -0.0017899406 0.06281186
000190 c8 00 6c ba 93 0b 85 3b 78 c8 80 3e 52 42 86 3d
       -0.0009002802 0.0040602176 0.25152946 0.06555618
0001a0 ba 00 a7 bc ed 9f 96 bc 4a 13 d8 bd e5 01 1a be
       -0.020386089 -0.018386805 -0.10550554 -0.15039785
0001b0 e0 06 2c be c8 50 8a be 16 da a3 3e d2 f0 dd bc
       -0.16799498 -0.27014756 0.32002324 -0.027092371
0001c0 93 70 f9 bd 22 d9 5e be b5 aa 36 be 7f a0 bf be
       -0.12179675 -0.21762517 -0.17838557 -0.37427136
0001d0 d2 94 38 be d3 05 da be c0 d2 8e bc d6 19 09 be
       -0.1802552 -0.4258257 -0.017434478 -0.13388762
0001e0 a7 90 75 be 7a fd a3 be a7 4e 94 be 1e f0 fe be
       -0.23980962 -0.32029325 -0.28966257 -0.4979257
0001f0 c0 ec 3b be 05 af 0f bf e0 be 5a bc ee 6f c0 bd
       -0.18352032 -0.56126434 -0.013351172 -0.09396349
000200 4d 25 5c 3c be e6 ed 3c 65 ce e6 3c ba 87 f2 bc
       0.013436628 0.02904069 0.028174588 -0.029605735
000210 27 2d c8 3c 31 e4 f6 bd ae 64 45 3d 4a 7f d1 bf
       0.024435593 -0.12055243 0.04819172 -1.636697
000220 b6 53 f5 bb 30 23 1a 3e 39 8d 11 3b 97 8f 07 3e
       -0.0074867858 0.15052485 0.002220942 0.13238369
000230 d5 a3 c9 3b 9a 4d 3a 3e aa 0e 34 3b f3 f3 16 3e
       0.0061535635 0.18193665 0.002747456 0.14741497
000240 6a 51 2a bd 38 cf e5 3d 40 a3 6d 38 dc 92 7f 3d
       -0.04158155 0.112211645 5.665724e-05 0.062395915
000250 3b ed 1d bc ea 41 ed 3d 31 22 a7 bb 7d 8b a8 3d
       -0.00963908 0.11584838 -0.0051005115 0.0822973
000260 5b bc 19 bd de 3c 8f 3d b6 d6 5e 3c 0d 3e 40 3d
       -0.037533145 0.06994031 0.013600996 0.046934176
000270 68 29 90 bc ca 71 a3 3d ef dc fd bc e5 d4 61 3d
       -0.017597869 0.07980688 -0.030989138 0.055134673
000280 12 21 89 3c c3 05 fc 3c 17 3b dc 3c 7d f3 1f 3c
       0.016739402 0.030764466 0.026883645 0.009762642
000290 eb 8e 6d 3c 20 b4 32 3d fd 1b 89 bc 2f 91 e7 3c
       0.014499406 0.04362881 -0.016736979 0.028267471
0002a0 18 a1 58 3e 30 b0 da 3d f3 45 28 bf 01 57 a8 3e
       0.21155202 0.10678136 -0.65731734 0.3287888
0002b0 b3 80 86 be ef 7a 51 bc 4a 69 2e be 53 bc 0c be
       -0.26270065 -0.012785657 -0.17032352 -0.13743715
0002c0 f6 ea 06 be 20 e9 10 be 52 8d f4 bd fd b8 b5 bd
       -0.13175568 -0.1415143 -0.11941017 -0.08873174
0002d0 5e ff 1f 3d 80 9f 62 bc aa 6f c2 bc 81 e6 ab 3d
       0.039061897 -0.013831973 -0.023734886 0.083935745
0002e0 16 6d 62 bc ed 37 d3 3d 71 7a f2 bd bd f5 5b bd
       -0.013819953 0.10313401 -0.1183976 -0.05370115
0002f0 12 c6 8c be 95 e8 7f bd 0d 53 61 be ac 3b dc 3c
       -0.27494866 -0.062477667 -0.22004338 0.026883923
000300 b2 14 df bb 8c 4d f0 3d f8 13 03 3e c6 52 d5 bd
       -0.006807887 0.11733541 0.12800586 -0.104161784
000310 65 1a a1 be 0e 0f d3 bd 60 1e 05 be 8c 65 17 3d
       -0.3146545 -0.10305606 -0.12999868 0.036962077
000320 8b 2d 01 3e 7a 13 80 3d fe b6 4d 3f 02 bf 26 be
       0.1261503 0.06253715 0.8035735 -0.16283801
000330 83 8c f4 be 87 52 e3 bd 5f 8a 15 bf a4 99 d4 ba
       -0.47763452 -0.11099725 -0.5841426 -0.0016220105
000340 f5 3b 18 be 50 11 2a 3d e2 81 10 be 58 56 06 bd
       -0.14866622 0.041520417 -0.14112046 -0.032797188
000350 22 6f ea 3e c5 5f e4 be da 8e 9f 3d 00 9c e4 bd
       0.45787913 -0.44604316 0.07790919 -0.11162567
000360 34 06 21 bc b9 4f 3e be 6e 60 84 bd 4b 87 4f bd
       -0.009828139 -0.185851 -0.06463705 -0.050666135
000370 fb a5 05 3e 0f 30 99 3d 82 78 0c 3e 91 88 05 3d
       0.13051598 0.074798696 0.13717845 0.032600943
000380 23 56 19 3d d5 bb 7e bc be 81 ac bc d1 56 bd bd
       0.037435662 -0.015547712 -0.02105796 -0.092450745
000390 79 e2 65 3c 59 d3 e9 3d f1 ed d5 bd 01 85 87 3d
       0.014031046 0.114172645 -0.10445774 0.06617165
0003a0 c4 a8 c9 3a e3 02 ee bc 45 aa f6 3d ea 95 5f be
       0.0015385379 -0.02905411 0.12044195 -0.21834531
0003b0 13 34 f1 be 61 d6 fc 3d a1 38 52 be 17 d8 f9 3d
       -0.47110042 0.12345577 -0.20529415 0.12199419
0003c0 71 8b 2d bd b5 c6 bf bd 27 66 64 3e a0 c6 83 bf
       -0.04236931 -0.09364072 0.22304593 -1.029499
0003d0 34 61 23 bf 63 cb 39 3e f9 d1 d4 be 8e 2f 05 3e
       -0.63820195 0.18143992 -0.41566446 0.13006422
0003e0 0f 5b ca bd 63 d2 51 3d b0 a0 1b 3e 66 21 9d bd
       -0.09880649 0.05122603 0.15198016 -0.07672386
0003f0 3f bd 8c be 34 f8 95 be cf f5 dd 3d 4d b2 2d 3f
       -0.27488133 -0.29290926 0.108379 0.6785019

sequential/dense_1/MatMul f4 [10, 20]
000000 b7 67 80 3f 16 f7 56 be 29 a9 70 bf da ea ad be
       1.0031651 -0.20992693 -0.9400812 -0.3396824
000010 56 b9 28 bf 2a c4 a7 3e 73 d1 11 3e e2 aa 03 3f
       -0.659078 0.3276685 0.14240055 0.5143262
000020 7b 49 8a 3e d9 97 e6 be 48 c3 fe be f7 f6 99 3d
       0.27009186 -0.45037726 -0.49758363 0.07517808
000030 b6 e4 d1 3e 3a a8 3d 3e 8e 56 f4 be 38 8b 24 bd
       0.40994805 0.18521205 -0.47722286 -0.04017183
000040 a0 0c 2d 3f d1 4d 94 3e 76 5a 52 be 54 55 34 3d
       0.6759739 0.2896562 -0.2054232 0.044026688
000050 2d 8b e0 be 51 92 bd be 50 d9 ad 3d dc 64 5e 3f
       -0.43856183 -0.37025693 0.08488715 0.8687265
000060 69 aa 79 3e af ef e6 3e 69 64 92 3c 57 bd 13 be
       0.24381413 0.4510474 0.017870145 -0.14427696
000070 ae 27 e5 bd 44 37 28 bf 0a 5c be 3e d6 ff 10 3e
       -0.11189209 -0.6570933 0.37179595 0.14160094
000080 ac 69 5c be de a6 0c bd 5e 7c 04 bd a7 3c e5 bc
       -0.21524686 -0.034338824 -0.03234517 -0.027983023
000090 dc 98 06 3c 62 aa 5c 3d 9b 10 6d be 93 67 cb bd
       0.008215155 0.053873427 -0.23150866 -0.099318646
0000a0 51 16 78 3d a2 8c 82 be a2 7a cd bd ec b4 bc bd
       0.060568158 -0.2549792 -0.10033156 -0.092141956
0000b0 73 b0 0a be 5f e0 e5 3e 31 df 37 3d 8a 4a a9 3d
       -0.13543873 0.44897744 0.044890586 0.0826617
0000c0 55 5d d7 be 70 ef 6e 3e c0 61 a4 bd 0e c1 b4 3e
       -0.42063394 0.23333526 -0.08026457 0.3530354
0000d0 81 c4 b6 be cd 17 49 bf b4 94 3f bf 0b e5 ee 3d
       -0.35696796 -0.7855194 -0.7483628 0.1166478
0000e0 99 6f fd be 4f 5d 75 bf 16 2e 43 3f b4 35 dd be
       -0.49499205 -0.958455 0.76242197 -0.43205035
0000f0 02 ee f7 bc 03 59 02 3f 20 7e dc 3e 10 dc c9 be
       -0.030264858 0.5091707 0.43064976 -0.39425707
000100 90 bb a9 3e 0f 2a a1 3e 34 05 85 bd 17 ce d9 bd
       0.3315091 0.314774 -0.06495133 -0.10635012
000110 e1 7c a5 3e cf aa 26 3f fa 3d 4d 3f 66 2f b2 3e
       0.32321838 0.65104383 0.80172694 0.34801787
000120 55 65 4a be 5c a5 71 bf 30 ee 1e 3f f5 8a a7 3d
       -0.19765218 -0.94392943 0.62082195 0.08180801
000130 c0 4e e7 3e d6 98 ad bf 1f c7 c9 be 2a c7 f7 be
       0.4517727 -1.3562267 -0.3940973 -0.48394138
000140 37 87 41 bf 20 33 8c be 17 88 fb be 78 b1 3b bf
       -0.75596946 -0.27382755 -0.49127266 -0.7331767
000150 f0 ff c3 bd 59 14 0c 3e 20 e9 6e bf ef 92 0f bc
       -0.095703006 0.13679637 -0.9332447 -0.008763059
000160 7f 9f 1f bf 75 00 61 3d 91 db 27 be a8 56 ea 3d
       -0.62352747 0.054932076 -0.16392352 0.114423096
000170 29 d3 8d be 73 a2 95 bd 83 b8 10 bf 0e 7d 3a be
       -0.27700165 -0.07306375 -0.5653154 -0.18211767
000180 6d c6 ab be 2d 22 74 be c0 9e b8 3f f6 0b 6a be
       -0.33549824 -0.23841162 1.4423447 -0.22856125
000190 47 5b 3c 3f 56 e6 4a 3f 6f 82 ab 3e 18 e5 16 3f
       0.7357678 0.79257715 0.3349795 0.5894332
0001a0 64 b1 92 bc a5 44 5b 3f f2 53 59 bc 96 28 ab 3e
       -0.017906852 0.8565162 -0.013264643 0.33429402
0001b0 77 47 e3 3e 72 4b c9 be 79 a0 f9 3d 28 78 3e 3e
       0.4439046 -0.39315373 0.12188811 0.18600523
0001c0 0c 35 38 3f 60 d7 37 be 0e dc c1 3e 0c 15 88 3e
       0.71955943 -0.17953253 0.378632 0.26578557
0001d0 88 9c 61 3d 74 f4 d9 3d f3 2b 28 bf 45 59 96 be
       0.05508092 0.10642329 -0.6569206 -0.29364982
0001e0 82 ac ea be f5 ba 8d be 63 6a 0a 3f c7 eb 47 bf
       -0.45834738 -0.276817 0.54068583 -0.7809414
0001f0 06 f1 07 3e 95 24 14 bf a1 80 89 bf d4 2a 58 3f
       0.13275537 -0.5786832 -1.074238 0.8444035
000200 be ef 87 be 2e 83 b5 bf ef 94 35 3f 10 16 98 3e
       -0.26550096 -1.4180658 0.7093038 0.29704332
000210 f3 57 5b bf 8e f4 32 bd 82 c4 57 be df 73 72 3f
       -0.85681075 -0.043690257 -0.21071056 0.94708055
000220 66 cf db be f1 7a db 3e 55 75 35 3f 7d 3a 9e bf
       -0.4293167 0.42867234 0.7088216 -1.2361599
000230 1a 8e 50 bf 82 da cd 3e e2 94 ae 3e 1c 73 cb bf
       -0.8146683 0.4020577 0.34097964 -1.5894504
000240 e9 75 af bf f5 9f d6 3e e7 57 24 bd 83 5a 27 3f
       -1.3707858 0.41918913 -0.040122893 0.65372485
000250 86 1a be 3e d6 8f 07 3e 3b 3a 8c bf 04 5e 6d bf
       0.3712961 0.13238463 -1.095527 -0.9272158
000260 9d 2a 8c 3e 8b 37 a8 bf 01 82 a7 3e c9 d3 1a 3f
       0.2737626 -1.314195 0.32716373 0.6047941
000270 59 be 20 bf f2 d9 d1 3b 4f d0 44 3f 8d 07 7d be
       -0.6279045 0.006404155 0.76880354 -0.24709912
000280 ea 55 b5 bd 85 0c 1d 3d e4 8b 62 3e 0b 02 78 be
       -0.088542774 0.038342018 0.22123677 -0.2421953
000290 9d 9b 0f bd 8c 3a 09 be bf cf 37 3e 35 53 e0 3e
       -0.035060514 -0.1340124 0.17950343 0.43813482
0002a0 83 55 aa 3c 2e c2 7f be 42 6f 65 3e 05 bf cc 3c
       0.020792728 -0.24976417 0.22405723 0.024993429
0002b0 4d bd 5c 3c 72 07 b8 3b 5a 65 cb be 69 4c d4 3e
       0.013472867 0.005616122 -0.39725763 0.41464546
0002c0 70 0d 7d bc 38 b2 82 3e 70 e8 1f bf b7 9c 66 3e
       -0.015445098 0.25526595 -0.62464046 0.2252072
0002d0 fc 7e 68 3f 9c 5c 20 be aa 43 49 3e f7 29 2d 3d
       0.9081876 -0.15660328 0.19654718 0.04227635
0002e0 d7 72 3e 3e 4d 6a 12 bf 52 52 8f be 95 1e 03 3f
       0.18598495 -0.5719345 -0.27992493 0.5121854
0002f0 d7 65 ae 3e bc 99 7c 3f d4 19 29 bd 35 0e 43 3f
       0.34062073 0.9867208 -0.041284397 0.76193553
000300 5f a7 36 3d b3 e6 f1 bc 0d 30 8b bf bf af 9d 3d
       0.04459321 -0.029528951 -1.0874039 0.076995365
000310 4b 7a a8 bf 31 5a bf 3c 6c 07 30 be 16 13 d5 bd
       -1.3162321 0.023358436 -0.17190331 -0.10404031

sequential/dense_2/MatMul f4 [5, 10]
000000 d2 1c 84 bf 89 c0 c0 bc 35 87 47 be 12 89 46 bf
       -1.0321295 -0.023529308 -0.19485171 -0.775529
000010 82 82 9f bf 79 2c 61 3f 6d ba 3d bf a0 cc c4 be
       -1.2461703 0.87958485 -0.7411259 -0.38437366
000020 ba 2c 1d 3d 84 ba 2d 3f 4e c6 45 bf c6 37 f7 3e
       0.038372733 0.67862725 -0.77255714 0.4828474
000030 a5 e2 9b be 4c 3f 28 bf c1 f0 83 bf 5e 3f 02 3f
       -0.30446354 -0.65721583 -1.0307847 0.5087794
000040 ff 2a c2 be fc a9 ac 3f 05 60 66 bf a1 7b df be
       -0.37923428 1.3489375 -0.89990264 -0.4364901
000050 55 cd 5b bf 8c e9 66 bf 09 63 a0 3e 5f 46 49 3d
       -0.85860187 -0.90200114 0.31325558 0.049139377
000060 d2 ee a4 bd cb fa 3a bf 52 97 99 3f c2 f6 a7 be
       -0.08053364 -0.7303893 1.1999304 -0.3280545
000070 b2 32 6d bf 42 53 92 be b5 b8 91 be a7 64 3f be
       -0.9265548 -0.28579146 -0.28461233 -0.1869074
000080 6f a4 5a 3f b1 56 18 3f b6 48 9e 3f b9 bb f0 3e
       0.85407156 0.5950728 1.236594 0.4701822
000090 4a 38 83 bf 3b 71 6b 3e 94 35 d9 3e 74 7e 3b bf
       -1.0251553 0.22992413 0.4242369 -0.7323983
0000a0 f4 68 ca 3f fa 4a a2 be b5 2f 04 bf 10 01 8d 3f
       1.5813279 -0.31697828 -0.51635295 1.1015949
0000b0 60 d6 ea bd 3c 6a 62 3e a8 87 1b bf 0d c3 e6 3c
       -0.1146667 0.22110838 -0.6075387 0.02816918
0000c0 c7 65 1e be d7 88 13 bf
       -0.15468512 -0.57630676
