GRU-main/model/keypoint_classifier/FF_model_both_aug.tflite (tflite, 50664 bytes, 6 tensors)

sequential_3/dense_5/BiasAdd/ReadVariableOp f4 [25]
-0.04139054 -0.031294532 -0.06275394 0.07337925 -0.07405263 0.08919456 -0.03823775 -0.048877113
0.0069508287 -0.032759808 0.050124258 -0.07824534 0.038919266 -0.049505454 -0.08610438 0.0074097617
0.012505071 -0.04335585 0.033085756 -0.024017151 0.087970816 0.010359616 -0.014660903 0.04855062
0.05863457
00000000: 2089 29bd b22e 00bd 2385 80bd dc47 963d
00000010: e8a8 97bd a3ab b63d 309f 1cbd 5e33 48bd
00000020: c7c3 e33b 262f 06bd 184f 4d3d 183f a0bd
00000030: cf69 1f3d 3bc6 4abd 7e57 b0bd 96cd f23b
00000040: 12e2 4c3c e795 31bd ee84 073d 9ebf c4bc
00000050: 0b2a b43d 61bb 293c 4934 70bc 04dd 463d
00000060: ce2a 703d

sequential_3/dense_4/BiasAdd/ReadVariableOp f4 [128]
-0.041852742 -0.030868825 -0.008722961 0.106998675 -0.091026016 -0.050981358 -0.07351983 0.029658202
-0.009609981 0.084255874 -0.013652993 0.06286509 0.057935435 0.102377206 0.025643608 0.029887725
0.010002307 0.040612448 -0.028065499 -0.008758719 -0.06831304 0.088568725 0.012798387 0.049059704
0.06488265 0.1289171 0.16820885 0.1555922 -0.006048936 0.026351087 0.021790592 0.07461355
-0.029096108 -0.043773532 0.03340668 0.101542756 0.022778772 -0.009386839 0.119384974 -0.0057043848
-0.01700516 -0.067011096 0.09088461 0.10535191 0.08458938 0.004396303 -0.077225864 -0.062153865
-0.007337256 0.03977774 -0.007235979 0.02526832 0.101243064 0.088159524 -0.0061301137 0.011515113
-0.007654229 0.065377 -0.042460456 -0.012653754 -0.08016143 -0.114651956 0.18226571 -0.0033738627
-0.016076747 -0.016664192 -0.02383991 0.015476644 0.12074456 -0.020688556 -0.04734553 0.124195
0.048997954 0.034480125 0.0652546 -0.04235464 0.06392972 -0.03913138 0.058327325 -0.06441623
0.015088859 0.07843705 0.05149545 -0.02133844 -0.002218879 0.060438227 -0.026408589 -0.0416275
0.09321911 -0.010692924 0.03132542 0.055621468 -0.038742892 -0.0027942029 -0.043146458 -0.01288486
-0.043504577 0.12749572 0.055915646 -0.037183188 0.07908069 0.053056292 0.040032536 -0.050780483
-0.027457317 -0.03466277 0.094117455 0.04924574 -0.010061879 0.078500636 0.06881459 0.054445375
0.09250607 0.13979548 -0.029028738 -0.007325859 -0.054000583 -0.038477447 0.07511949 0.063870825
-0.016226908 0.050223544 0.0045932173 -0.00873098 0.038853433 0.0456951 -0.02844673 -0.0005252183
00000000: c86d 2bbd 9ee0 fcbc c0ea 0ebc 1f22 db3d
00000010: d96b babd d4d1 50bd 9191 96bd c2f5 f23c
00000020: 2f73 1dbc 588e ac3d ceb0 5fbc 6abf 803d
00000030: b54d 6d3d 24ab d13d 8b12 d23c 1ad7 f43c
00000040: b7e0 233c 3d59 263d 9ee9 e5bc bb80 0fbc
00000050: b5e7 8bbd 8563 b53d 53b0 513c d4f2 483d
00000060: 32e1 843d d802 043e f13e 2c3e 9053 1f3e
00000070: 2736 c6bb 3cde d73c 2f82 b23c fdce 983d
00000080: f65a eebc e04b 33bd 71d5 083d a6f5 cf3d
00000090: 8c9a ba3c 42cb 19bc 1c80 f43d d9eb babb
000000a0: 684e 8bbc 1d3d 89bd b621 ba3d bec2 d73d
000000b0: 323d ad3d dd0e 903b 9828 9ebd 0d95 7ebd
000000c0: 5d6d f0bb fced 223d cb1b edbb 82ff ce3c
000000d0: 8658 cf3d fb8c b43d 1fdf c8bb e2a9 3c3c
000000e0: 54d0 fabb 60e4 853d 04eb 2dbd b151 4fbc
000000f0: ad2b a4bd a5ce eabd dda3 3a3e 061c 5dbb
00000100: 62b3 83bc 5883 88bc ea4b c3bc c091 7d3c
00000110: ed48 f73d 0c7b a9bc 63ed 41bd f359 fe3d
00000120: 14b2 483d 083b 0d3d 34a4 853d 0f7c 2dbd
00000130: 96ed 823d 3a48 20bd a2e8 6e3d a8ec 83bd
00000140: 4337 773c 9ba3 a03d e5ec 523d f4cd aebc
00000150: 9d6a 11bb 138e 773d d356 d8bc 9981 2abd
00000160: a9e9 be3d 6031 2fbc 154f 003d 56d3 633d
00000170: deb0 1ebd f21e 37bb 57ba 30bd 051b 53bc
00000180: db31 32bd 3d8e 023e ce07 653d 664d 18bd
00000190: 0ff5 a13d 8e51 593d 28f9 233d 32ff 4fbd
000001a0: 2bee e0bc 8cfa 0dbd a7c0 c03d e7b5 493d
000001b0: 94da 24bc f1c4 a03d aaee 8c3d 1d02 5f3d
000001c0: d373 bd3d 8c26 0f3e adcd edbc c20d f0bb
000001d0: b72f 5dbd 879a 1dbd 3fd8 993d b5ce 823d
000001e0: 4bee 84bc 34b7 4d3d b382 963b 620c 0fbc
000001f0: c724 1f3d c92a 3b3d 1e09 e9bc ceae 09ba

sequential_3/dense_3/BiasAdd/ReadVariableOp f4 [256]
0.037223693 0.0015213861 -0.048121653 0.07154357 0.09136684 0.038091406 0.11883108 -0.06508218
0.19009693 0.03555185 0.06069745 -0.13116987 0.16982514 0.018710472 -0.10292131 0.02793306
-0.11053708 0.16736476 0.08793131 -0.015241704 0.12505692 -0.07120703 0.111307435 0.10517254
0.15967675 0.03205112 0.049931515 0.06993904 -0.1455952 -0.11921134 -0.039731912 0.09234162
-0.03682328 0.10152333 -0.07312148 0.046302933 0.057161063 0.1343329 -0.023936803 0.0025843363
-0.03248785 0.08327402 0.14637956 0.12474333 0.081984445 -0.06270341 -0.0902519 0.07142081
0.014096935 0.19426943 -0.13417386 0.03422954 0.14623597 -0.049851015 0.11681802 0.0882337
0.058860622 -0.05542966 -0.0076757655 0.0859119 -0.008581265 -0.040517427 0.07293035 -0.018421954
0.19160432 -0.06860061 -0.0077397698 -0.18378726 0.092828184 -0.03217816 0.05391765 -0.08301277
0.066136256 0.05498429 0.030635238 -0.025961824 0.060215145 -0.05669899 0.010485255 0.13083841
0.18210141 -0.16421273 0.0065835794 0.12809409 0.14945361 -0.06512347 -0.051219143 0.0912597
0.12153396 -0.103917226 0.05916298 0.007807332 0.0278273 -0.033224624 0.1175497 0.057124924
0.033306148 -0.047450736 0.01960501 0.00035103402 0.06811044 -0.0107599255 -0.037866436 -0.04843957
0.15999751 0.030606776 0.15230048 0.104838625 0.14151148 0.069203496 0.21346638 -0.15028158
0.20606582 -0.02077052 0.007019711 -0.012671058 -0.04594055 0.018021189 0.32599375 -0.04374179
0.04806148 -0.13723198 -0.0035272264 0.07715455 0.14835177 -0.07214182 -0.026455656 -0.08718777
0.037089184 0.08845029 0.15115042 0.112977125 -0.000554353 0.07721992 0.08873028 -0.047608502
0.034750212 0.03690192 -0.021145323 0.02335069 0.079923384 -0.080164425 0.13312115 0.03219666
0.15548997 -0.024961542 -0.0049170717 -0.12894532 0.09200078 0.1422375 -0.03337911 0.15515158
0.06883335 -0.07574935 0.16127533 0.22845812 0.17416115 0.039595988 0.02634162 0.03235715
-0.07424796 0.13959435 0.0009200331 0.0035345068 0.13401878 0.018105607 0.14475296 0.05655822
0.1599437 0.027267167 -0.1065268 -0.015332733 0.0686406 0.11294367 -0.086360246 0.05018589
0.04769906 -0.028845673 0.003431362 0.0913064 -0.09007812 -0.045294777 0.03568228 0.112214856
-0.00034834427 -0.1277746 0.15799326 -0.0962511 -0.0023256862 0.15130477 0.044759877 0.09889404
-0.032439966 -0.068771146 -0.06141575 0.05732812 -0.07323547 -0.02828315 -0.0714839 -0.08604115
0.15548825 0.105327845 0.07350663 -0.050362825 0.21639493 0.23328884 0.03872104 0.14631175
0.046833426 0.14909062 -0.059383858 -0.06941306 -0.12623574 0.10847552 -0.031834695 -0.0069764894
0.12822571 0.078204386 0.027672041 0.08540711 -0.0067910897 -0.04606077 -0.029785952 0.007003221
0.0611462 0.063307226 0.04633053 -0.07591017 0.18551822 0.09647499 0.123611055 -0.07129329
0.07290346 0.029962808 0.19114065 -0.07143702 0.032994226 -0.0059709568 0.025927259 0.091075845
-0.012636009 0.06988144 -0.03310644 0.20990098 -0.06508376 0.046201892 0.19633095 0.091774076
0.034103613 0.21288478 0.13341795 0.1544488 0.1584061 0.1400051 0.014371783 0.08709733
00000000: df77 183d 3f69 c73a 361b 45bd 6f85 923d
00000010: 8a1e bb3d bc05 1c3d b65d f33d ce49 85bd
00000020: c5a8 423e d19e 113d e49d 783d 6551 06be
00000030: a4e6 2d3e b446 993c 68c8 d2bd dfd3 e43c
00000040: 4461 e2bd ab61 2b3e 5515 b43d 57b8 79bc
00000050: ec0e 003e fed4 91bd 27f5 e33d b364 d73d
00000060: 4d82 233e 0948 033d fd84 4c3d 333c 8f3d
00000070: e816 15be 1325 f4bd eebd 22bd 9a1d bd3d
00000080: 02d4 16bd 77eb cf3d b7c0 95bd 25a8 3d3d
00000090: b821 6a3d 908e 093e 1d17 c4bc f85d 293b
000000a0: fb11 05bd 928b aa3d 86e4 153e 6e79 ff3d
000000b0: 76e7 a73d a56a 80bd fdd5 b8bd 1345 923d
000000c0: d5f6 663c 91ee 463e df64 09be 4634 0c3d
000000d0: e2be 153e 9430 4cbd 493e ef3d dfb3 b43d
000000e0: d617 713d 360a 63bd fd84 fbbb 94f2 af3d
000000f0: 6f98 0cbc 9af5 25bd 825c 953d a3e9 96bc
00000100: ec33 443e 7a7e 8cbd e59d fdbb ba32 3cbe
00000110: b41c be3d 3fcd 03bd c1d8 5c3d 9902 aabd
00000120: 7272 873d 3537 613d c0f6 fa3c e4ad d4bc
00000130: 28a4 763d 333d 68bd 59ca 2b3c 81fa 053e
00000140: cb78 3a3e 6227 28be 11bb d73b 192b 033e
00000150: 5e0a 193e 745f 85bd 2acb 51bd 5ee6 ba3d
00000160: cce6 f83d 8ed2 d4bd e254 723d a6d4 ff3b
00000170: 14f6 e33c 8b16 08bd e6bd f03d d3fb 693d
00000180: 076c 083d b45b 42bd b09a a03c fd0a b839
00000190: 7d7d 8b3d 664a 30bc d619 1bbd 9268 46bd
000001a0: 63d6 233e 10bb fa3c a8f4 1b3e a2b5 d63d
000001b0: 63e8 103e 90ba 8d3d ee96 5a3e 6ae3 19be
000001c0: eb02 533e f026 aabc 9b05 e63b 459a 4fbc
000001d0: 282c 3cbd 2ca1 933c a7e8 a63e 972a 33bd
000001e0: 1ddc 443d 8a86 0cbe 0a29 67bb 3403 9e3d
000001f0: 87e9 173e 17bf 93bd 88b9 d8bc 808f b2bd
00000200: d4ea 173d 6d25 b53d 2dc7 1a3e 8d60 e73d
00000210: 0052 11ba 7a25 9e3d 39b8 b53d 2201 43bd
00000220: 3d56 0e3d 7826 173d f538 adbc f249 bf3c
00000230: dfae a33d 3f2d a4bd e950 083e a5e0 033d
00000240: c338 1f3e 267c ccbc 631f a1bb 3e0a 04be
00000250: e86a bc3d b5a6 113e 89b8 08bd 0ee0 1e3e
00000260: 80f8 8c3d 7a22 9bbd 5c25 253e edf0 693e
00000270: 4d57 323e 672f 223d 62ca d73c ee88 043d
00000280: 500f 98bd d2f1 0e3e 602e 713a 2fa3 673b
00000290: 383c 093e 3652 943c 1f3a 143e 98a9 673d
000002a0: 48c8 233e 655f df3c b92a dabd 2536 7bbc
000002b0: 7193 8c3d 034f e73d a4dd b0bd b88f 4d3d
000002c0: 1760 433d c34d ecbc b4e0 603b dafe ba3d
000002d0: e17a b8bd 0487 39bd 9527 123d e7d0 e53d
000002e0: faa1 b6b9 58d7 02be fcc8 213e 4c1f c5bd
000002f0: 8a6a 18bb a3ef 1a3e 2256 373d f588 ca3d
00000300: c5df 04bd e3d7 8cbd 158f 7bbd e4d0 6a3d
00000310: 7afc 95bd 11b2 e7bc 2766 92bd 5836 b0bd
00000320: 5038 1f3e 20b6 d73d a58a 963d 4049 4ebd
00000330: a296 5d3e 45e3 6e3e f499 1e3d bfd2 153e
00000340: 68d4 3f3d 36ab 183e 7d3c 73bd 6f28 8ebd
00000350: f143 01be 6a28 de3d 1965 02bd 099b e4bb
00000360: 9a4d 033e 9f29 a03d 7ab0 e23c ece9 ae3d
00000370: ca87 debb 38aa 3cbd ab01 f4bc 477b e53b
00000380: 7074 7a3d 38a7 813d 15c5 3d3d cb76 9bbd
00000390: 7df8 3d3e ae94 c53d cb27 fd3d 3702 92bd
000003a0: 694e 953d 9074 f53c 60ba 433e 934d 92bd
000003b0: f424 073d 04a8 c3bb 6765 d43c f985 ba3d
000003c0: 4307 4fbc 001e 8f3d 9e9a 07bd 48f0 563e
000003d0: a24a 85bd 323e 3d3d fb0a 493e 0cf4 bb3d
000003e0: 3bb0 0b3d 78fe 593e b79e 083e d427 1e3e
000003f0: 3535 223e 7f5d 0f3e a077 6b3c 1660 b23d

sequential_3/dense_3/MatMul i1 [256, 42] scale=0.007160839 zero_point=0
0.13605595 0.08593007 -0.10025175 -0.007160839 0.07876923 0.36520278 0.071608394 0.35088113
0.24346854 0.17902099 -0.050125875 -0.06444755 -0.19334266 -0.19334266 -0.07876923 -0.18618181
0.0 -0.06444755 0.06444755 -0.15037762 -0.08593007 -0.18618181 0.10025175 0.014321678
0.06444755 -0.07876923 0.13605595 0.08593007 -0.09309091 -0.09309091 0.0 -0.24346854
0.107412584 -0.33655944 0.21482517 0.107412584 0.07876923 -0.042965036 -0.06444755 0.2363077
0.17902099 0.15753846 -0.13605595 0.10025175 0.042965036 -0.09309091 -0.035804197 0.15753846
-0.028643357 0.20766434 0.057286713 0.15753846 -0.050125875 0.0 -0.071608394 -0.09309091
-0.021482518 -0.3437203 0.07876923 -0.2577902 -0.021482518 -0.050125875 0.11457343 -0.07876923
-0.021482518 -0.28643358 0.13605595 -0.33655944 0.0 0.06444755 0.014321678 0.071608394
-0.14321679 0.1646993 -0.08593007 0.27927274 0.057286713 0.014321678 0.007160839 0.15753846
0.028643357 0.007160839 0.028643357 0.021482518 0.014321678 -0.14321679 -0.13605595 0.028643357
-0.14321679 0.3293986 -0.25062937 0.28643358 -0.107412584 0.09309091 -0.021482518 -0.09309091
0.15753846 0.021482518 0.12173427 0.11457343 0.22914685 0.15753846 -0.028643357 -0.071608394
-0.042965036 -0.22914685 -0.09309091 -0.042965036 -0.06444755 0.0 -0.14321679 -0.10025175
-0.071608394 -0.12173427 -0.2577902 -0.20766434 -0.14321679 -0.26495105 0.007160839 0.07876923
-0.042965036 -0.30075523 -0.19334266 -0.26495105 -0.26495105 -0.035804197 0.021482518 0.107412584
0.30075523 0.107412584 0.3437203 -0.021482518 0.48693708 0.18618181 0.57286716 0.042965036
0.42248952 0.107412584 0.48693708 0.10025175 0.24346854 0.11457343 -0.035804197 -0.057286713
0.44397202 -0.035804197 0.32223776 0.19334266 0.32223776 0.19334266 0.10025175 0.15037762
0.2721119 0.028643357 0.107412584 0.17902099 0.014321678 0.10025175 -0.09309091 0.24346854
0.20766434 -0.014321678 0.08593007 0.007160839 0.028643357 0.057286713 0.035804197 0.0
0.050125875 -0.042965036 0.17902099 0.1288951 0.1646993 -0.13605595 0.07876923 -0.19334266
-0.17902099 -0.17186014 0.26495105 -0.15037762 0.2363077 0.07876923 0.071608394 -0.014321678
0.20766434 -0.1288951 0.17186014 -0.107412584 0.33655944 0.11457343 0.580028 0.11457343
0.63015383 0.14321679 -0.08593007 0.107412584 0.2577902 0.1288951 0.22914685 -0.035804197
0.39384615 -0.10025175 -0.28643358 0.09309091 -0.107412584 0.12173427 -0.028643357 -0.007160839
0.1646993 0.0 -0.035804197 0.050125875 -0.10025175 0.028643357 0.035804197 -0.15037762
-0.13605595 0.007160839 -0.028643357 -0.11457343 -0.050125875 0.17902099 0.057286713 0.09309091
0.057286713 0.007160839 -0.1288951 -0.2005035 0.050125875 0.028643357 0.071608394 -0.15037762
-0.1646993 -0.30075523 -0.18618181 -0.35088113 0.15037762 0.107412584 0.22198601 -0.1646993
0.2005035 -0.18618181 0.042965036 -0.24346854 0.11457343 -0.09309091 0.1288951 0.042965036
0.028643357 0.25062937 0.06444755 0.30075523 -0.021482518 -0.021482518 0.0 -0.014321678
00000000: 130c f2ff 0b33 0a31 2219 f9f7 e5e5 f5e6
00000010: 00f7 09eb f4e6 0e02 09f5 130c f3f3 00de
00000020: 0fd1 1e0f 0bfa f721 1916 ed0e 06f3 fb16
00000030: fc1d 0816 f900 f6f3 fdd0 0bdc fdf9 10f5
00000040: fdd8 13d1 0009 020a ec17 f427 0802 0116
00000050: 0401 0403 02ec ed04 ec2e dd28 f10d fdf3
00000060: 1603 1110 2016 fcf6 fae0 f3fa f700 ecf2
00000070: f6ef dce3 ecdb 010b fad6 e5db dbfb 030f
00000080: 2a0f 30fd 441a 5006 3b0f 440e 2210 fbf8
00000090: 3efb 2d1b 2d1b 0e15 2604 0f19 020e f322
000000a0: 1dfe 0c01 0408 0500 07fa 1912 17ed 0be5
000000b0: e7e8 25eb 210b 0afe 1dee 18f1 2f10 5110
000000c0: 5814 f40f 2412 20fb 37f2 d80d f111 fcff
000000d0: 1700 fb07 f204 05eb ed01 fcf0 f919 080d
000000e0: 0801 eee4 0704 0aeb e9d6 e6cf 150f 1fe9
000000f0: 1ce6 06de 10f3 1206 0423 092a fdfd 00fe

sequential_3/dense_4/MatMul i1 [128, 256] scale=0.010978263 zero_point=0
-0.09880437 -0.09880437 0.054891314 -0.30739135 -0.03293479 0.0878261 -0.03293479 -0.021956526
-0.1756522 0.10978263 -0.13173915 0.010978263 0.0878261 0.04391305 -0.04391305 0.0
-0.010978263 0.021956526 0.10978263 0.12076089 0.054891314 -0.06586958 -0.07684784 0.0
0.09880437 0.19760874 0.021956526 -0.39521748 0.0878261 -0.13173915 0.010978263 -0.13173915
0.021956526 -0.07684784 0.07684784 0.20858699 -0.14271742 -0.13173915 0.16467394 0.0
-0.03293479 -0.23054352 0.054891314 0.07684784 -0.31836963 0.28543484 0.10978263 -0.1756522
0.0878261 0.0878261 0.021956526 0.37326095 -0.32934788 -0.16467394 0.23054352 -0.09880437
-0.04391305 -0.34032616 -0.021956526 0.19760874 0.32934788 0.1756522 -0.15369567 -0.25250006
0.06586958 0.09880437 0.04391305 0.0878261 0.14271742 0.20858699 -0.09880437 0.06586958
-0.03293479 -0.40619573 -0.19760874 -0.04391305 -0.06586958 0.14271742 -0.14271742 -0.09880437
-0.0878261 0.1756522 -0.010978263 -0.054891314 0.25250006 -0.0878261 0.09880437 0.03293479
0.13173915 0.010978263 -0.18663047 -0.40619573 0.07684784 -0.054891314 -0.14271742 -0.04391305
0.25250006 0.04391305 -0.010978263 0.2964131 -0.13173915 0.10978263 0.1756522 0.14271742
0.021956526 0.10978263 0.15369567 -0.04391305 0.04391305 -0.010978263 0.15369567 0.12076089
-0.021956526 0.2634783 0.054891314 0.32934788 0.14271742 0.10978263 0.37326095 0.0878261
0.09880437 0.054891314 -0.054891314 0.27445656 0.3513044 0.07684784 0.1756522 0.09880437
-0.010978263 0.0878261 -0.27445656 -0.15369567 -0.15369567 -0.04391305 0.03293479 0.14271742
0.03293479 0.10978263 0.13173915 0.21956526 0.0 0.07684784 0.13173915 0.1756522
0.1756522 0.07684784 0.24152178 0.12076089 0.25250006 -0.15369567 0.06586958 -0.07684784
0.0 0.10978263 -0.03293479 0.1756522 0.15369567 0.13173915 0.10978263 -0.010978263
0.03293479 0.07684784 0.07684784 -0.16467394 -0.12076089 0.12076089 0.49402183 0.04391305
0.10978263 -0.32934788 -0.021956526 -0.09880437 0.03293479 -0.13173915 0.09880437 -0.0878261
-0.0878261 0.25250006 0.0 -0.16467394 0.07684784 0.15369567 -0.12076089 -0.2964131
0.16467394 0.13173915 0.010978263 0.04391305 -0.04391305 -0.021956526 0.021956526 0.06586958
0.03293479 -0.021956526 0.054891314 0.13173915 0.10978263 0.45010877 0.04391305 0.010978263
0.1756522 -0.021956526 0.13173915 -0.10978263 -0.07684784 0.021956526 0.09880437 -0.054891314
-0.054891314 -0.13173915 0.18663047 0.03293479 0.09880437 0.054891314 0.20858699 -0.09880437
0.03293479 0.0878261 -0.054891314 0.07684784 0.03293479 -0.054891314 0.45010877 -0.0878261
-0.21956526 -0.0878261 0.06586958 -0.12076089 0.32934788 0.03293479 0.24152178 0.054891314
0.04391305 -0.12076089 -0.3842392 0.16467394 0.07684784 -0.021956526 0.2634783 -0.12076089
-0.04391305 0.07684784 0.010978263 0.06586958 0.054891314 -0.21956526 0.18663047 -0.16467394
-0.010978263 0.0 0.0 0.25250006 0.021956526 -0.054891314 0.18663047 -0.2634783
00000000: f7f7 05e4 fd08 fdfe f00a f401 0804 fc00
00000010: ff02 0a0b 05fa f900 0912 02dc 08f4 01f4
00000020: 02f9 0713 f3f4 0f00 fdeb 0507 e31a 0af0
00000030: 0808 0222 e2f1 15f7 fce1 fe12 1e10 f2e9
00000040: 0609 0408 0d13 f706 fddb eefc fa0d f3f7
00000050: f810 fffb 17f8 0903 0c01 efdb 07fb f3fc
00000060: 1704 ff1b f40a 100d 020a 0efc 04ff 0e0b
00000070: fe18 051e 0d0a 2208 0905 fb19 2007 1009
00000080: ff08 e7f2 f2fc 030d 030a 0c14 0007 0c10
00000090: 1007 160b 17f2 06f9 000a fd10 0e0c 0aff
000000a0: 0307 07f1 f50b 2d04 0ae2 fef7 03f4 09f8
000000b0: f817 00f1 070e f5e5 0f0c 0104 fcfe 0206
000000c0: 03fe 050c 0a29 0401 10fe 0cf6 f902 09fb
000000d0: fbf4 1103 0905 13f7 0308 fb07 03fb 29f8
000000e0: ecf8 06f5 1e03 1605 04f5 dd0f 07fe 18f5
000000f0: fc07 0106 05ec 11f1 ff00 0017 02fb 11e8

sequential_3/dense_5/MatMul i1 [25, 128] scale=0.0138628185 zero_point=0
0.027725637 -0.055451274 -0.20794228 -0.27725637 0.041588455 -0.152491 -0.06931409 0.12476537
0.152491 -0.33270764 0.27725637 0.041588455 0.19407946 0.23566791 -0.3742961 -0.2218051
0.2218051 -0.055451274 0.11090255 -0.55451274 -0.18021664 -0.38815892 0.0 0.055451274
-0.13862818 -0.31884483 0.09703973 -0.5129243 0.23566791 -0.041588455 -0.2218051 -0.4436102
-0.41588455 0.18021664 0.027725637 -0.027725637 0.20794228 0.19407946 -0.23566791 0.3742961
0.08317691 -0.36043328 0.13862818 0.9703973 -0.0138628185 -0.12476537 0.055451274 0.27725637
0.13862818 -0.08317691 -0.13862818 0.16635382 -0.09703973 -0.16635382 -0.26339355 -0.09703973
-0.11090255 -0.40202174 0.2218051 0.13862818 0.16635382 0.09703973 -0.13862818 0.24953073
-0.041588455 -0.13862818 -0.20794228 0.08317691 -0.08317691 0.09703973 0.2218051 0.19407946
-0.0138628185 -0.40202174 -0.55451274 -0.33270764 -0.36043328 0.13862818 0.0138628185 0.12476537
-0.26339355 0.23566791 0.13862818 -0.36043328 -0.027725637 0.041588455 0.12476537 0.152491
-0.152491 0.041588455 -0.08317691 0.09703973 0.0138628185 -0.16635382 0.027725637 -0.11090255
-0.36043328 0.027725637 0.27725637 -0.027725637 -0.19407946 -0.65155244 0.13862818 0.27725637
0.152491 0.041588455 0.027725637 -0.08317691 -0.06931409 0.0 0.152491 -0.027725637
-0.3742961 -0.041588455 -0.23566791 0.16635382 0.2218051 -0.06931409 0.041588455 -0.0138628185
-0.304982 -0.24953073 0.08317691 0.06931409 -0.041588455 -0.36043328 0.23566791 -0.06931409
-0.48519865 0.041588455 -0.7347294 -0.0138628185 0.20794228 -0.027725637 0.18021664 0.4436102
-0.08317691 0.12476537 -0.20794228 -0.8317691 -0.20794228 -0.23566791 0.304982 0.09703973
-0.2911192 -0.23566791 0.08317691 -0.19407946 0.041588455 -0.20794228 -0.0138628185 -0.2911192
-0.23566791 -0.5129243 -0.055451274 0.041588455 -0.27725637 0.027725637 0.19407946 -0.041588455
-0.40202174 0.23566791 -0.08317691 0.27725637 -0.48519865 -0.09703973 0.08317691 -0.5683756
0.055451274 0.2911192 0.2218051 0.09703973 0.027725637 -0.06931409 0.11090255 -0.457473
0.13862818 0.152491 -0.31884483 -0.11090255 -1.2337909 -0.62382686 0.055451274 -0.0138628185
-0.19407946 -0.18021664 0.0 0.0 -0.13862818 -0.27725637 -0.19407946 -0.0138628185
0.18021664 -0.027725637 -0.23566791 -0.16635382 -0.16635382 -0.08317691 0.041588455 0.152491
-0.457473 -0.36043328 -0.08317691 0.304982 0.09703973 0.16635382 -0.7070037 0.055451274
0.19407946 -1.0812998 0.027725637 -0.2218051 0.23566791 0.06931409 0.2218051 -0.42974737
0.027725637 0.055451274 0.18021664 -0.0138628185 0.2218051 0.2218051 -0.2218051 0.13862818
-0.041588455 0.2218051 -0.0138628185 -0.027725637 -0.18021664 -0.08317691 -0.16635382 0.027725637
0.34657046 0.304982 0.23566791 0.33270764 -0.09703973 -0.41588455 -0.09703973 0.2218051
0.31884483 -1.1090255 -0.26339355 0.609964 -0.06931409 0.0138628185 0.06931409 0.041588455
0.152491 0.27725637 0.5267871 -0.6654153 -0.06931409 -1.067437 0.041588455 -0.2218051
00000000: 02fc f1ec 03f5 fb09 0be8 1403 0e11 e5f0
00000010: 10fc 08d8 f3e4 0004 f6e9 07db 11fd f0e0
00000020: e20d 02fe 0f0e ef1b 06e6 0a46 fff7 0414
00000030: 0afa f60c f9f4 edf9 f8e3 100a 0c07 f612
00000040: fdf6 f106 fa07 100e ffe3 d8e8 e60a 0109
00000050: ed11 0ae6 fe03 090b f503 fa07 01f4 02f8
00000060: e602 14fe f2d1 0a14 0b03 02fa fb00 0bfe
00000070: e5fd ef0c 10fb 03ff eaee 0605 fde6 11fb
00000080: dd03 cbff 0ffe 0d20 fa09 f1c4 f1ef 1607
00000090: ebef 06f2 03f1 ffeb efdb fc03 ec02 0efd
000000a0: e311 fa14 ddf9 06d7 0415 1007 02fb 08df
000000b0: 0a0b e9f8 a7d3 04ff f2f3 0000 f6ec f2ff
000000c0: 0dfe eff4 f4fa 030b dfe6 fa16 070c cd04
000000d0: 0eb2 02f0 1105 10e1 0204 0dff 1010 f00a
000000e0: fd10 fffe f3fa f402 1916 1118 f9e2 f910
000000f0: 17b0 ed2c fb01 0503 0b14 26d0 fbb3 03f0
