GRU-main/model/keypoint_classifier/GRU.tflite (tflite, 110272 bytes, 20 tensors)

dense/bias f4 [17]
00000000: 8e76 193e bb10 ae3c ece0 5b3c 0913 063e
00000010: 35b5 1c3e b84d edbe f2f6 5dbe f45d 8bbe
00000020: 35c1 9cbe f0d3 71be cb24 09be 31b4 f1bd
00000030: 76cf 87be 5025 84be 62a5 58be cf66 f9be
00000040: ddde 06bf
0.14986631 0.021248212 0.013420325 0.13093199 0.153035 -0.46348357 -0.21676233 -0.27220118
-0.30616155 -0.23616004 -0.13392942 -0.11801947 -0.26525468 -0.25809717 -0.21156839 -0.4871125
-0.5268381

unstack f4 [150]
00000000: d143 00bf 9839 59be 6530 05bf 427b d5be
00000010: 29f7 72be 7770 a6be 37ae a9be e5cf 0dbf
00000020: 1cdf 1bbf de18 c1be 2161 33bf 6bf5 25bf
00000030: 9a03 53bd 6d8e 42be 2e33 42be b72c c3be
00000040: 2056 babe 453e d5be f472 aabe 4293 07bf
00000050: 7c86 82be 571f 2abf 1c9e d9be d292 a9be
00000060: 342a 8dbe 3d5a bdbe 01f3 e9be fc1d 00bf
00000070: 4fac 01bf 7aed 9cbe 88c4 edbe 9c18 31bf
00000080: a611 10be ad84 73be 1739 f0be f74d 693c
00000090: 01d2 0abf b9f4 f7be 2d58 48bf 88da 26bf
000000a0: 88aa c0be 64d0 e8be 5d60 01bf 3af2 c0be
000000b0: 9860 88be a6ec 8fbe fe65 c1be 2592 eebe
000000c0: 6471 2bbf 6a98 c1be 77ae 14be bd76 a7bd
000000d0: a7e7 fdbd 8d66 57be 9109 03be a004 65be
000000e0: 3b04 20bd 64a3 c7bd fa6c be3d da6c e03c
000000f0: 28ca 83be 8161 c13c 8810 94bd 33ef 62bd
00000100: 2332 783d 3e28 1f3e 7b25 563d c40e f1bd
00000110: 8bd6 113d 2dbc da3d 242b 11be 7492 a4bc
00000120: 0f3c 72bc fd41 113e 650e 72be 8e58 4dbe
00000130: e5af 82be 23ad 533d cf9e a53d 5afb 733d
00000140: 42df 133e d161 01be 438a 49bd cd2f 093e
00000150: b635 fc3c b9de 59bd ecb6 98be 1bd2 ec3d
00000160: c3ae 8fbe 3849 273d 4aed 99bd 9220 38be
00000170: fafe 833d ad78 15bd 7dca 143c 2305 24be
00000180: bc4f 81bc 8a6e 32be 8ff5 cc3d c6ae efbe
00000190: ddca 08be 0c4d 4a3e a6a2 113e aa93 853d
000001a0: 77d5 43be baab 8dbd 01d5 2dbe b6d3 80be
000001b0: a06a 94be 567c 2dbe c612 173d d1b9 463e
000001c0: 7c2f 983e b372 7f3e c88f 94be 66dc 4abe
000001d0: 3a23 3f3e 196a f13d 9243 de3e 8716 d03e
000001e0: 4867 33be 7e86 e43d f283 3fbe 26a6 75be
000001f0: f860 30be 1426 323c 3120 c23d 551c 963e
00000200: cb09 b4be cdff 523e b363 7b3e 0a8d bebd
00000210: 195f b4bd dfe7 6dbe 7d35 25be 7bd4 7cbe
00000220: 9f95 06bd 82ce 9cbe 2014 9ebd c019 27be
00000230: 314e 0c3e e9f9 f83c f25b 923e a817 4b3e
00000240: 7ab3 80be 2241 083e 1097 8bbe 0b76 813d
00000250: 04e2 92be 0d77 f3ba
-0.5010348 -0.21213377 -0.5202697 -0.416956 -0.23727097 -0.3250768 -0.33140728 -0.55395347
-0.6088731 -0.37714285 -0.7007008 -0.64827603 -0.051517107 -0.18999644 -0.18964836 -0.38120052
-0.36393833 -0.4164907 -0.33290827 -0.5295907 -0.25493228 -0.6645407 -0.4250344 -0.33119828
-0.2757126 -0.3698291 -0.4569321 -0.5004575 -0.5065355 -0.3064993 -0.46439004 -0.69178176
-0.14069232 -0.2378108 -0.46918556 0.01423978 -0.5422669 -0.48428896 -0.78259546 -0.651772
-0.37630105 -0.4547149 -0.50537664 -0.37684804 -0.26636195 -0.28110236 -0.37773126 -0.46595874
-0.66969895 -0.37811595 -0.14519678 -0.081769444 -0.123977 -0.21035214 -0.12796618 -0.22365046
-0.039066534 -0.09747961 0.092981294 0.027395654 -0.2574017 0.023606064 -0.072297156 -0.0554039
0.06059469 0.15542695 0.052281838 -0.117703944 0.035604995 0.10680423 -0.14176613 -0.020089366
-0.014784827 0.14185329 -0.23638304 -0.20053312 -0.25524822 0.051678788 0.08086931 0.05956588
0.14440635 -0.1263497 -0.049204122 0.13397141 0.03078733 -0.05319092 -0.29827058 0.11563512
-0.2806302 0.04084131 -0.075159624 -0.17981175 0.06445117 -0.03649204 0.00908148 -0.16017585
-0.01578509 -0.1742498 0.10007774 -0.4681303 -0.13358636 0.19755954 0.14222202 0.06522305
-0.19124399 -0.0691752 -0.16975786 -0.25161523 -0.28987598 -0.16941962 0.036883138 0.19406821
0.29723728 0.24946098 -0.29015946 -0.19810638 0.18665782 0.11787815 0.43410927 0.40642187
-0.17519867 0.11158465 -0.18702677 -0.23989162 -0.1722449 0.010873336 0.09478796 0.2931849
-0.3516372 0.20605393 0.24549751 -0.09304245 -0.08807201 -0.23232983 -0.16133685 -0.2469043
-0.032857534 -0.30626303 -0.07718682 -0.16318417 0.13701703 0.030392604 0.28585774 0.19833243
-0.2513693 0.13306096 -0.2726369 0.06321343 -0.2868806 -0.0018574909

unstack1 f4 [150]
00000000: d143 00bf 9839 59be 6530 05bf 427b d5be
00000010: 29f7 72be 7770 a6be 37ae a9be e5cf 0dbf
00000020: 1cdf 1bbf de18 c1be 2161 33bf 6bf5 25bf
00000030: 9a03 53bd 6d8e 42be 2e33 42be b72c c3be
00000040: 2056 babe 453e d5be f472 aabe 4293 07bf
00000050: 7c86 82be 571f 2abf 1c9e d9be d292 a9be
00000060: 342a 8dbe 3d5a bdbe 01f3 e9be fc1d 00bf
00000070: 4fac 01bf 7aed 9cbe 88c4 edbe 9c18 31bf
00000080: a611 10be ad84 73be 1739 f0be f74d 693c
00000090: 01d2 0abf b9f4 f7be 2d58 48bf 88da 26bf
000000a0: 88aa c0be 64d0 e8be 5d60 01bf 3af2 c0be
000000b0: 9860 88be a6ec 8fbe fe65 c1be 2592 eebe
000000c0: 6471 2bbf 6a98 c1be 77ae 14be bd76 a7bd
000000d0: a7e7 fdbd 8d66 57be 9109 03be a004 65be
000000e0: 3b04 20bd 64a3 c7bd fa6c be3d da6c e03c
000000f0: 28ca 83be 8161 c13c 8810 94bd 33ef 62bd
00000100: 2332 783d 3e28 1f3e 7b25 563d c40e f1bd
00000110: 8bd6 113d 2dbc da3d 242b 11be 7492 a4bc
00000120: 0f3c 72bc fd41 113e 650e 72be 8e58 4dbe
00000130: e5af 82be 23ad 533d cf9e a53d 5afb 733d
00000140: 42df 133e d161 01be 438a 49bd cd2f 093e
00000150: b635 fc3c b9de 59bd ecb6 98be 1bd2 ec3d
00000160: c3ae 8fbe 3849 273d 4aed 99bd 9220 38be
00000170: fafe 833d ad78 15bd 7dca 143c 2305 24be
00000180: bc4f 81bc 8a6e 32be 8ff5 cc3d c6ae efbe
00000190: a147 d13d 5594 12bd 1ff1 ccbd 97d3 b8bd
000001a0: acd5 c63d b628 853d 6018 08bc e114 cfbd
000001b0: b733 0dbe 27e8 c8bd 4f98 8f3d bcfb 313e
000001c0: 8c89 b3bc ad45 493c 7090 98bd e4f5 48be
000001d0: a7dc 123e 544a 123c 4ca7 643d 98ad 953d
000001e0: 4e3e 8c3d c062 563d 09a5 84bc 8aea f3bd
000001f0: 7bfc 053e a755 bebc 0370 94bd 34f3 883d
00000200: bcac 8abd 6886 823d 9c04 563e 6ce9 a2bd
00000210: 17e9 df3b ee03 0fbe 3140 d7bd cdd1 7ebc
00000220: f11e 053e 744c 3fbe 597c b4bd 9a33 4bbd
00000230: 1c7f d43c 412e af3c 7de4 8f3d c706 7d3c
00000240: f5ff 113c 44fc 75bd a70c 26be aa60 adbc
00000250: af69 ebbd 5402 2c3d
-0.5010348 -0.21213377 -0.5202697 -0.416956 -0.23727097 -0.3250768 -0.33140728 -0.55395347
-0.6088731 -0.37714285 -0.7007008 -0.64827603 -0.051517107 -0.18999644 -0.18964836 -0.38120052
-0.36393833 -0.4164907 -0.33290827 -0.5295907 -0.25493228 -0.6645407 -0.4250344 -0.33119828
-0.2757126 -0.3698291 -0.4569321 -0.5004575 -0.5065355 -0.3064993 -0.46439004 -0.69178176
-0.14069232 -0.2378108 -0.46918556 0.01423978 -0.5422669 -0.48428896 -0.78259546 -0.651772
-0.37630105 -0.4547149 -0.50537664 -0.37684804 -0.26636195 -0.28110236 -0.37773126 -0.46595874
-0.66969895 -0.37811595 -0.14519678 -0.081769444 -0.123977 -0.21035214 -0.12796618 -0.22365046
-0.039066534 -0.09747961 0.092981294 0.027395654 -0.2574017 0.023606064 -0.072297156 -0.0554039
0.06059469 0.15542695 0.052281838 -0.117703944 0.035604995 0.10680423 -0.14176613 -0.020089366
-0.014784827 0.14185329 -0.23638304 -0.20053312 -0.25524822 0.051678788 0.08086931 0.05956588
0.14440635 -0.1263497 -0.049204122 0.13397141 0.03078733 -0.05319092 -0.29827058 0.11563512
-0.2806302 0.04084131 -0.075159624 -0.17981175 0.06445117 -0.03649204 0.00908148 -0.16017585
-0.01578509 -0.1742498 0.10007774 -0.4681303 0.1021874 -0.03578599 -0.10006928 -0.090247326
0.097087234 0.065019056 -0.008306593 -0.10111404 -0.13789259 -0.098099045 0.070114724 0.17381185
-0.021916173 0.012284678 -0.07449424 -0.1962505 0.14341985 0.008928854 0.05582361 0.07308501
0.06847821 0.05234027 -0.016191976 -0.11909969 0.13084595 -0.023234202 -0.07247927 0.06687012
-0.06771228 0.06373292 0.20900196 -0.07954678 0.0068332064 -0.13966343 -0.105102904 -0.01555295
0.13000084 -0.18681508 -0.0881278 -0.049609758 0.025939517 0.02138436 0.070260026 0.01544351
0.008911123 -0.060055032 -0.16215764 -0.021164257 -0.11494767 0.041994408

unstack2 f4 [300]
00000000: 401c 92bf ae9c 063e c7b2 9ebd 6772 aebe
00000010: ee65 49be 915d 5ebe 93bb de3c 8565 80be
00000020: 420d e3be dac0 043e b059 7cbf 6a04 17bf
00000030: 6731 693e e958 04be 0c98 6cbf 40d8 733d
00000040: 57ae acbd ce53 a23b f5ac e9bc 33fd 4abf
00000050: 8b0b b7be 2cdd 8cbe fb8c 3bbf 1cb7 97be
00000060: b62b 30bb e300 cebe ba1a 58be bf70 46bd
00000070: 7092 323e 53a5 9f3e 1533 0abf 7ffe 95bf
00000080: 47b0 823e 8239 c53d 6ae4 58bf e4f0 16be
00000090: 964d 56bd 2047 85be 36e6 bf3d 62db e7be
000000a0: 8dfe b5be 0f1d 5f3d 1bc6 fdbe 9899 cb3c
000000b0: 5dc5 54bf cfa6 19be d255 0fbe 3e86 46be
000000c0: bf5c 6ebe 405a 17bf f661 52be feef a2be
000000d0: b9dc a5bd a411 0cbf dde9 d43e d122 89be
000000e0: 2373 e7bd b6fe 45be 69b5 c9be 0c30 0abf
000000f0: ea7f 78bf f1b0 f3be 4c54 10bf 3a34 8d3d
00000100: 00b3 61be 8bca 9cbe ca30 a3be 3174 d73e
00000110: fa06 75be 66d8 133e dd5f a8be e556 2ebe
00000120: f52b aebe 64f1 9cbe 57b6 22bf 13a1 f9be
00000130: d860 9dbd e203 46bf 8427 8abe 5eeb 85bf
00000140: 05c4 23bf 5200 503e a949 66be c690 8f3e
00000150: 8e4b 16be 6587 88be 5028 f5bc 72ac d33d
00000160: 1865 133e 7330 94be 2b68 693c 6311 38be
00000170: a1a4 f3be 1710 9cbe 7ed8 a6bd 2633 a0bd
00000180: 4eca 85be 24ed 86be b0cb 6abe 668e debd
00000190: 1b25 223f e625 2a3d c0fd bebc b6df 943d
000001a0: 5434 853e 4330 2f3e e9f7 10bd 3d4f b73d
000001b0: 4645 313d 47a9 21bc c66f 4f3f 13e7 d73c
000001c0: 570f d73d c455 0b3d bd56 213f dd9b 943e
000001d0: bb3e 93bd 8c43 cd3e cf50 153c 1428 c53e
000001e0: c45e 1bbd bb1f ce3e 1860 603e 0e47 8c3d
000001f0: 8e40 033e 7ea9 b2bd 259d 8b3d f0fa 0bbc
00000200: c1b9 9fbd 7a7a f53c 0b16 b13d 5ed9 4a3f
00000210: 31c3 183e 715e 8d3e 1beb 2d3f 93f4 7c3d
00000220: 768a e7bd b35d a9bc 61f1 d53e 9368 9d3c
00000230: 5ef4 393d 3483 3bbd c8f6 323d 5708 ec3b
00000240: 419f 123f 2bd6 f43c fbe7 0a3b 522b 153e
00000250: 1758 a23d aeed 343f cc8d f63c 5acc 5abe
00000260: 0e08 cd3d a00c f83e f57b a1be e08a 19be
00000270: 232e 223e 8bbc b73e cbab bcbd e998 db3d
00000280: f036 193f 5413 8b3c 9832 0b3d 5327 5dbe
00000290: 574c dd3e 06f8 1abc 3cde 98be 78dc 2ebd
000002a0: 2599 80bd 455a 583d 8de1 073e 664e 1b3d
000002b0: 2a22 75bc bf6c 913e d39a ca3e 3ac7 bf3e
000002c0: a226 973d 106b 263f 6149 d5bb e13e be3e
000002d0: 801e 153e 732d 2a3e c067 f2bd 1b3d ae3d
000002e0: 6ed3 f43d a20b a13e c02f 933e 1dc8 d1bd
000002f0: b45e 273e 18be 333e 05fa 933e 2b7b 7e3e
00000300: b5a5 c13e 2f82 a6bd bebe 55be 71f5 cfbd
00000310: 88ac fabd 9308 6f3c bb3f b93d 02bc 7a3d
00000320: 7083 44bf b77c 2bbe 9b49 46be ebaa 163f
00000330: d6ed 15bf a844 debe ed9a 3abe 117f e3be
00000340: 9fc3 a9be 75e2 05be ce1a 4ebf a8ff 7a3e
00000350: ab04 8fbe 0317 2c3e 76f2 743f cb42 dbbe
00000360: 5f9f d23e ff83 03bf 09c0 713e 3377 3ebf
00000370: 22d9 8f3e 9a28 0b3f 780a 113f d1e8 3f3f
00000380: f8a8 083f 60ed 813e ab0b 05bf 7b90 e03e
00000390: e121 96bd 304e 32be 6774 b43e f6ab 743f
000003a0: 3a1d 213f 4664 f13e fb43 3d3f a770 abbe
000003b0: 3c8a 0fbe 504f 34be 60d4 22bf 32a7 3b3e
000003c0: 0eff a63e b07a 1abe 46ce cf3e 6408 563e
000003d0: a498 643f 6682 6d3e 2597 d7be 8cc3 70be
000003e0: d556 7abe f8cf 463f 4397 a4be 3860 3b3e
000003f0: 7b08 8f3e e295 293f 7bc8 0d3e e80f 7b3e
-1.1414871 0.13145706 -0.07748943 -0.34071657 -0.1966779 -0.2171538 0.027189052 -0.25077453
-0.44346052 0.12964192 -0.9857435 -0.5899111 0.22772752 -0.12924542 -0.92419505 0.059532404
-0.0843169 0.004953838 -0.028524855 -0.792926 -0.35750994 -0.2751249 -0.73261994 -0.2963189
-0.0026881522 -0.40235052 -0.21103945 -0.048447367 0.17438674 0.3118082 -0.53984195 -1.1718291
0.25525114 0.09630109 -0.8472353 -0.1474033 -0.052320085 -0.26030827 0.09370081 -0.45284563
-0.3554577 0.05447107 -0.49565205 0.024853513 -0.8311365 -0.15005039 -0.13997582 -0.19387147
-0.23277567 -0.59122086 -0.20545182 -0.31823725 -0.0809874 -0.5471442 0.41584674 -0.26784375
-0.113012575 -0.19335446 -0.39396217 -0.53979564 -0.9707018 -0.47595933 -0.56378627 0.06894727
-0.2204094 -0.30623278 -0.3187316 0.42080835 -0.23928443 0.14438018 -0.32885638 -0.17025335
-0.34017912 -0.30652916 -0.6355948 -0.48755702 -0.07684487 -0.77349675 -0.26983273 -1.0462453
-0.6397098 0.20312622 -0.22489037 0.2804014 -0.1467726 -0.26665798 -0.029926449 0.10335626
0.14394033 -0.28943214 0.014246027 -0.17975383 -0.4758654 -0.30481026 -0.08146761 -0.07822256
-0.2613091 -0.263528 -0.22929263 -0.10867004 0.6333787 0.04154005 -0.023314357 0.07269232
0.26016486 0.17108254 -0.035392676 0.089506604 0.043278955 -0.009867019 0.8102993 0.026355302
0.10500973 0.03401734 0.6302298 0.29025164 -0.07189699 0.40090597 0.009113505 0.3850714
-0.037932172 0.40258583 0.21911657 0.0684949 0.12817594 -0.08723734 0.06817082 -0.008543715
-0.077991016 0.029965628 0.086467825 0.79237926 0.1491821 0.27611116 0.6793687 0.06175668
-0.11305706 -0.020674562 0.4178572 0.019214904 0.045399062 -0.045779422 0.04369238 0.0072031426
0.5727425 0.02988728 0.00211954 0.14567307 0.07926958 0.7067517 0.03009691 -0.21367016
0.10011302 0.48447132 -0.31539884 -0.14994383 0.15837912 0.35886034 -0.092124544 0.10722525
0.5984945 0.01697699 0.033983797 -0.21597032 0.43222305 -0.009458547 -0.2985705 -0.042690724
-0.0627921 0.052820463 0.13269635 0.037916563 -0.014961759 0.2840328 0.39571247 0.37456685
0.073804155 0.65007114 -0.0065089916 0.37157348 0.14562416 0.166189 -0.11836195 0.08507749
0.119543895 0.31454188 0.28747368 -0.10243247 0.1634472 0.17552984 0.28901687 0.24851672
0.37821737 -0.08130299 -0.20873544 -0.10154236 -0.12239939 0.014589447 0.09045359 0.061214454
-0.7676306 -0.16746794 -0.19364016 0.5885455 -0.58566034 -0.43411756 -0.18223162 -0.4443288
-0.3315706 -0.13074668 -0.8050965 0.24511588 -0.2793325 0.16805653 0.95682466 -0.42824396
0.41137215 -0.51373285 0.23608412 -0.74400634 0.28095347 0.5435883 0.566566 0.74964625
0.53382826 0.25376415 -0.5197093 0.4386023 -0.07330681 -0.17412639 0.35245058 0.9557489
0.6293522 0.47146815 0.73931855 -0.33484384 -0.14017576 -0.1760838 -0.6360531 0.18325499
0.32616466 -0.15085864 0.40587062 0.20901638 0.8929541 0.23194274 -0.42107502 -0.23512095
-0.24447186 0.77661085 -0.32146654 0.18298423 0.27936158 0.6624433 0.13846008 0.24517787

unstack3 f4 [300]
00000000: 401c 92bf ae9c 063e c7b2 9ebd 6772 aebe
00000010: ee65 49be 915d 5ebe 93bb de3c 8565 80be
00000020: 420d e3be dac0 043e b059 7cbf 6a04 17bf
00000030: 6731 693e e958 04be 0c98 6cbf 40d8 733d
00000040: 57ae acbd ce53 a23b f5ac e9bc 33fd 4abf
00000050: 8b0b b7be 2cdd 8cbe fb8c 3bbf 1cb7 97be
00000060: b62b 30bb e300 cebe ba1a 58be bf70 46bd
00000070: 7092 323e 53a5 9f3e 1533 0abf 7ffe 95bf
00000080: 47b0 823e 8239 c53d 6ae4 58bf e4f0 16be
00000090: 964d 56bd 2047 85be 36e6 bf3d 62db e7be
000000a0: 8dfe b5be 0f1d 5f3d 1bc6 fdbe 9899 cb3c
000000b0: 5dc5 54bf cfa6 19be d255 0fbe 3e86 46be
000000c0: bf5c 6ebe 405a 17bf f661 52be feef a2be
000000d0: b9dc a5bd a411 0cbf dde9 d43e d122 89be
000000e0: 2373 e7bd b6fe 45be 69b5 c9be 0c30 0abf
000000f0: ea7f 78bf f1b0 f3be 4c54 10bf 3a34 8d3d
00000100: 00b3 61be 8bca 9cbe ca30 a3be 3174 d73e
00000110: fa06 75be 66d8 133e dd5f a8be e556 2ebe
00000120: f52b aebe 64f1 9cbe 57b6 22bf 13a1 f9be
00000130: d860 9dbd e203 46bf 8427 8abe 5eeb 85bf
00000140: 05c4 23bf 5200 503e a949 66be c690 8f3e
00000150: 8e4b 16be 6587 88be 5028 f5bc 72ac d33d
00000160: 1865 133e 7330 94be 2b68 693c 6311 38be
00000170: a1a4 f3be 1710 9cbe 7ed8 a6bd 2633 a0bd
00000180: 4eca 85be 24ed 86be b0cb 6abe 668e debd
00000190: 1b25 223f e625 2a3d c0fd bebc b6df 943d
000001a0: 5434 853e 4330 2f3e e9f7 10bd 3d4f b73d
000001b0: 4645 313d 47a9 21bc c66f 4f3f 13e7 d73c
000001c0: 570f d73d c455 0b3d bd56 213f dd9b 943e
000001d0: bb3e 93bd 8c43 cd3e cf50 153c 1428 c53e
000001e0: c45e 1bbd bb1f ce3e 1860 603e 0e47 8c3d
000001f0: 8e40 033e 7ea9 b2bd 259d 8b3d f0fa 0bbc
00000200: c1b9 9fbd 7a7a f53c 0b16 b13d 5ed9 4a3f
00000210: 31c3 183e 715e 8d3e 1beb 2d3f 93f4 7c3d
00000220: 768a e7bd b35d a9bc 61f1 d53e 9368 9d3c
00000230: 5ef4 393d 3483 3bbd c8f6 323d 5708 ec3b
00000240: 419f 123f 2bd6 f43c fbe7 0a3b 522b 153e
00000250: 1758 a23d aeed 343f cc8d f63c 5acc 5abe
00000260: 0e08 cd3d a00c f83e f57b a1be e08a 19be
00000270: 232e 223e 8bbc b73e cbab bcbd e998 db3d
00000280: f036 193f 5413 8b3c 9832 0b3d 5327 5dbe
00000290: 574c dd3e 06f8 1abc 3cde 98be 78dc 2ebd
000002a0: 2599 80bd 455a 583d 8de1 073e 664e 1b3d
000002b0: 2a22 75bc bf6c 913e d39a ca3e 3ac7 bf3e
000002c0: a226 973d 106b 263f 6149 d5bb e13e be3e
000002d0: 801e 153e 732d 2a3e c067 f2bd 1b3d ae3d
000002e0: 6ed3 f43d a20b a13e c02f 933e 1dc8 d1bd
000002f0: b45e 273e 18be 333e 05fa 933e 2b7b 7e3e
00000300: b5a5 c13e 2f82 a6bd bebe 55be 71f5 cfbd
00000310: 88ac fabd 9308 6f3c bb3f b93d 02bc 7a3d
00000320: c758 00bf d7ad 96bc 46e3 11bc 78c3 363c
00000330: 79ed 47be 6223 11be 712e b83a 1e85 95bd
00000340: 8aa5 a6bd c17a ee3c 84ef 0ebf ab03 55bd
00000350: c690 06be ca8d 193b 9cd1 0f3f e44c 41be
00000360: 32f6 adbd ae1c 87be 07f2 0bbd c327 8fbe
00000370: e1d7 05bd 75dc 8d3e f151 6e3e bd03 1b3d
00000380: 9ac6 443d 8d97 8bbd 45af 2abd 1775 943c
00000390: e4bf bf3c 056d 56bd a228 7d3d 059f 1f3f
000003a0: da96 163e 82fa 5e3e 0c21 103f 894b e9bc
000003b0: 8710 babc 5e82 da3b 1470 98be f60c ff3c
000003c0: aac3 363d 5952 e13c 84c8 24bd 7a1b 693d
000003d0: e2f1 ce3e 9bb4 83bc 7285 ae3c a697 0bbe
000003e0: 484b fbbd 5fe9 fe3e a2d7 bf3c 2155 1cbe
000003f0: 006b 293d c051 e13e b5e3 3abe a8e4 07be
-1.1414871 0.13145706 -0.07748943 -0.34071657 -0.1966779 -0.2171538 0.027189052 -0.25077453
-0.44346052 0.12964192 -0.9857435 -0.5899111 0.22772752 -0.12924542 -0.92419505 0.059532404
-0.0843169 0.004953838 -0.028524855 -0.792926 -0.35750994 -0.2751249 -0.73261994 -0.2963189
-0.0026881522 -0.40235052 -0.21103945 -0.048447367 0.17438674 0.3118082 -0.53984195 -1.1718291
0.25525114 0.09630109 -0.8472353 -0.1474033 -0.052320085 -0.26030827 0.09370081 -0.45284563
-0.3554577 0.05447107 -0.49565205 0.024853513 -0.8311365 -0.15005039 -0.13997582 -0.19387147
-0.23277567 -0.59122086 -0.20545182 -0.31823725 -0.0809874 -0.5471442 0.41584674 -0.26784375
-0.113012575 -0.19335446 -0.39396217 -0.53979564 -0.9707018 -0.47595933 -0.56378627 0.06894727
-0.2204094 -0.30623278 -0.3187316 0.42080835 -0.23928443 0.14438018 -0.32885638 -0.17025335
-0.34017912 -0.30652916 -0.6355948 -0.48755702 -0.07684487 -0.77349675 -0.26983273 -1.0462453
-0.6397098 0.20312622 -0.22489037 0.2804014 -0.1467726 -0.26665798 -0.029926449 0.10335626
0.14394033 -0.28943214 0.014246027 -0.17975383 -0.4758654 -0.30481026 -0.08146761 -0.07822256
-0.2613091 -0.263528 -0.22929263 -0.10867004 0.6333787 0.04154005 -0.023314357 0.07269232
0.26016486 0.17108254 -0.035392676 0.089506604 0.043278955 -0.009867019 0.8102993 0.026355302
0.10500973 0.03401734 0.6302298 0.29025164 -0.07189699 0.40090597 0.009113505 0.3850714
-0.037932172 0.40258583 0.21911657 0.0684949 0.12817594 -0.08723734 0.06817082 -0.008543715
-0.077991016 0.029965628 0.086467825 0.79237926 0.1491821 0.27611116 0.6793687 0.06175668
-0.11305706 -0.020674562 0.4178572 0.019214904 0.045399062 -0.045779422 0.04369238 0.0072031426
0.5727425 0.02988728 0.00211954 0.14567307 0.07926958 0.7067517 0.03009691 -0.21367016
0.10011302 0.48447132 -0.31539884 -0.14994383 0.15837912 0.35886034 -0.092124544 0.10722525
0.5984945 0.01697699 0.033983797 -0.21597032 0.43222305 -0.009458547 -0.2985705 -0.042690724
-0.0627921 0.052820463 0.13269635 0.037916563 -0.014961759 0.2840328 0.39571247 0.37456685
0.073804155 0.65007114 -0.0065089916 0.37157348 0.14562416 0.166189 -0.11836195 0.08507749
0.119543895 0.31454188 0.28747368 -0.10243247 0.1634472 0.17552984 0.28901687 0.24851672
0.37821737 -0.08130299 -0.20873544 -0.10154236 -0.12239939 0.014589447 0.09045359 0.061214454
-0.50135463 -0.01839344 -0.008904284 0.011155002 -0.19524182 -0.14173654 0.0014051927 -0.07300781
-0.08137043 0.029111268 -0.5583422 -0.05200545 -0.13141164 0.002343046 0.56179214 -0.18876988
-0.08494224 -0.26389068 -0.034166362 -0.27960023 -0.03267658 0.27707258 0.23273446 0.037845362
0.048040964 -0.068160154 -0.041671056 0.018122239 0.02340693 -0.052350063 0.06180633 0.6235202
0.14705983 0.21775249 0.56300426 -0.0284784 -0.022712959 0.006668373 -0.2977301 0.03113411
0.044620194 0.027505087 -0.04023029 0.05691097 0.40418917 -0.01607733 0.021303866 -0.13632068
-0.12270218 0.49787423 0.023418251 -0.15266849 0.04136181 0.44007683 -0.18250926 -0.13270819

unstack4 f4 [150]
00000000: 2438 afbd f11f 3cbf 1e11 6bbe 6b9d 6fbe
00000010: 114c 2fbc 5359 e0bd bb79 d5be 2cee 1ebe
00000020: 548c d8bd 3dd7 afbe 52cd c9be 4644 77be
00000030: 7916 2cbf a685 82be 31c9 ad3e 2dbb 43bf
00000040: 0c45 4ebe 23be 7ebe d27f ecbd 878e 7dbe
00000050: cb86 2f3e 6892 d2be c49c c2be fb45 f9be
00000060: ae13 b0be a325 523d 22c7 c9be d9f1 4abe
00000070: 1484 0dbf e8f4 b7bd 9834 08be 0779 a4be
00000080: ca15 823d 1da1 f6be 10b2 8dbe 3a69 edbd
00000090: 72bc a6be 3561 debe 0070 bcbe 5cc8 1fbe
000000a0: 64ac c2be 0bcb 1ebe 6993 50be 1d03 97bd
000000b0: 42e9 5cbe c326 08bf ec9e 4abe 6bc9 9dbe
000000c0: 8a1e 17bf ca4d b8be bd41 063e 3e03 973e
000000d0: c9a5 3fbe 9259 2a3e b00e 903e 1520 6d3d
000000e0: 7cdb 723e f1a0 c2bc f6f4 df3d 8de8 353e
000000f0: 65bd e1bd f428 983e bbc4 3d3e 7943 d43d
00000100: 9561 493d c5d8 113e 067c 0e3e 638e 763e
00000110: 6f49 063e 328c a73d f456 723d 183d a0be
00000120: 0fe1 fc3d 6e04 5f3d 26ed e33d 24c8 b43d
00000130: 69a2 fb3d 9291 453e d891 c53d 85e5 a73e
00000140: 5619 f03d 70de e73e 5843 63be 3dec 0f3e
00000150: 004a df3d b8e0 03bd 7747 2d3e 7fbc f9bd
00000160: 4969 9fbd 730c aebd 4f16 333e ec6c 1e3e
00000170: 09a7 45bd 54fb fd3b 7ad5 053e 1e6c 003e
00000180: 8ec0 013e fcbc aebb 271d 12bb 1e80 5e3e
00000190: cbd4 4a3e b0cc 7bbe e4c0 953d 1c5f 02bf
000001a0: 7201 76be 29d2 5a3e 3164 c33e 3bfb 22be
000001b0: 3f80 85be 76af 9d3e 5912 673e fbb8 f93e
000001c0: 9106 d93e 4ab8 ba3e 467c a13e 7ed8 6dbe
000001d0: 3a09 febe 368f bb3e 5c75 573e 7845 d9be
000001e0: 13b5 483e a04f 46bc 79ce 903e c6c6 4c3e
000001f0: b2c0 5d3e add3 8bbe 1a47 933e 2cc6 a2be
00000200: 7524 4c3e 68c4 b9be 4233 92be e31e 0cbf
00000210: 9a2e b83d 48fc 363f 16cb 5ebe aef3 233e
00000220: 6bfb 9dbe 7608 ba3e 80eb 703e b34c f83d
00000230: ceda b5be 8ebf 573e 9ad4 ccbd e58b b9bd
00000240: 0f66 583e d9e4 1bbe 60a8 8e3e 9f97 53be
00000250: 4b3b a83d 8862 33be
-0.0855563 -0.7348624 -0.22955748 -0.23399894 -0.010699288 -0.10954537 -0.41694435 -0.15520543
-0.105736405 -0.343439 -0.3941446 -0.24147138 -0.6722179 -0.2549259 0.3394256 -0.7645748
-0.20143527 -0.24877219 -0.11547817 -0.24761401 0.17141263 -0.41127324 -0.38010228 -0.48686203
-0.34390014 0.051305424 -0.3940974 -0.1981882 -0.5527966 -0.08982259 -0.13301313 -0.32123587
0.06351812 -0.48169795 -0.27674913 -0.11592336 -0.32565647 -0.43433538 -0.368042 -0.15603775
-0.3802215 -0.15507142 -0.20368733 -0.07373641 -0.21573356 -0.53184146 -0.19787186 -0.30817732
-0.59030974 -0.35996848 0.13111015 0.2949466 -0.18715586 0.16635731 0.28136206 0.057891924
0.23716539 -0.023758383 0.109353945 0.17764492 -0.11022452 0.29718745 0.18532078 0.10364432
0.049165327 0.14242847 0.13914499 0.24077754 0.1311395 0.08181037 0.059164956 -0.3129661
0.12347614 0.054447584 0.11129217 0.08827236 0.12286837 0.19293812 0.09646958 0.32792297
0.117235824 0.45286894 -0.22193658 0.14054962 0.10902786 -0.03219673 0.16921793 -0.12194156
-0.077837534 -0.08498468 0.17488979 0.15471238 -0.048255 0.007750908 0.13069716 0.12541243
0.1267111 -0.0053325873 -0.0022295208 0.2172856 0.19807737 -0.24589801 0.073121816 -0.50926375
-0.24023989 0.21369232 0.38162377 -0.1591615 -0.26074407 0.3079793 0.22565593 0.4877394
0.42387822 0.36468726 0.31540126 -0.23227116 -0.49616414 0.366327 0.21040863 -0.42435813
0.19600324 -0.012103945 0.28282526 0.19997701 0.21655539 -0.27309933 0.28765184 -0.31791818
0.19935782 -0.3628266 -0.28554732 -0.5473463 0.089932635 0.714787 -0.21757159 0.16010925
-0.3085588 0.3633458 0.23527336 0.12124004 -0.35518497 0.21069166 -0.10001488 -0.09059886
0.21132682 -0.15224017 0.27862835 -0.20663308 0.08214434 -0.17518055

unstack5 f4 [150]
00000000: 2438 afbd f11f 3cbf 1e11 6bbe 6b9d 6fbe
00000010: 114c 2fbc 5359 e0bd bb79 d5be 2cee 1ebe
00000020: 548c d8bd 3dd7 afbe 52cd c9be 4644 77be
00000030: 7916 2cbf a685 82be 31c9 ad3e 2dbb 43bf
00000040: 0c45 4ebe 23be 7ebe d27f ecbd 878e 7dbe
00000050: cb86 2f3e 6892 d2be c49c c2be fb45 f9be
00000060: ae13 b0be a325 523d 22c7 c9be d9f1 4abe
00000070: 1484 0dbf e8f4 b7bd 9834 08be 0779 a4be
00000080: ca15 823d 1da1 f6be 10b2 8dbe 3a69 edbd
00000090: 72bc a6be 3561 debe 0070 bcbe 5cc8 1fbe
000000a0: 64ac c2be 0bcb 1ebe 6993 50be 1d03 97bd
000000b0: 42e9 5cbe c326 08bf ec9e 4abe 6bc9 9dbe
000000c0: 8a1e 17bf ca4d b8be bd41 063e 3e03 973e
000000d0: c9a5 3fbe 9259 2a3e b00e 903e 1520 6d3d
000000e0: 7cdb 723e f1a0 c2bc f6f4 df3d 8de8 353e
000000f0: 65bd e1bd f428 983e bbc4 3d3e 7943 d43d
00000100: 9561 493d c5d8 113e 067c 0e3e 638e 763e
00000110: 6f49 063e 328c a73d f456 723d 183d a0be
00000120: 0fe1 fc3d 6e04 5f3d 26ed e33d 24c8 b43d
00000130: 69a2 fb3d 9291 453e d891 c53d 85e5 a73e
00000140: 5619 f03d 70de e73e 5843 63be 3dec 0f3e
00000150: 004a df3d b8e0 03bd 7747 2d3e 7fbc f9bd
00000160: 4969 9fbd 730c aebd 4f16 333e ec6c 1e3e
00000170: 09a7 45bd 54fb fd3b 7ad5 053e 1e6c 003e
00000180: 8ec0 013e fcbc aebb 271d 12bb 1e80 5e3e
00000190: 9d94 323e 204a 3fbe 0c81 02be a03d 40be
000001a0: 2fd7 7ebe 4b1c a63d 860c a43e 4a74 84bd
000001b0: 2100 bdbd dfd6 4f3e 34bf 5abd 959b a13e
000001c0: 25d5 213e 6b72 173e d236 0e3d 8f95 57be
000001d0: cb1a 27be 790e 873e a612 d63d d235 97bd
000001e0: 64b7 fa3d 96b8 fe3d 30c9 053e 4584 a13d
000001f0: 67bb fa3d d25c 15be 2597 353e c45b 39be
00000200: b1a7 4b3d 6d89 9ebe 40cc 06be 4331 d1be
00000210: 5f07 d7bd 9b5c a03b 52f7 14be 0ec2 21bd
00000220: 3d01 6bbe 13ff 1dbe 6532 2fbd 2c22 79bd
00000230: 05db 6bbe b99e 2f3e 6782 d83b 74ba 9ebd
00000240: 8a03 153e 1e42 0cbe ad8f ed3d 7300 c1bd
00000250: 8ec0 cd3d 6f49 2abe
-0.0855563 -0.7348624 -0.22955748 -0.23399894 -0.010699288 -0.10954537 -0.41694435 -0.15520543
-0.105736405 -0.343439 -0.3941446 -0.24147138 -0.6722179 -0.2549259 0.3394256 -0.7645748
-0.20143527 -0.24877219 -0.11547817 -0.24761401 0.17141263 -0.41127324 -0.38010228 -0.48686203
-0.34390014 0.051305424 -0.3940974 -0.1981882 -0.5527966 -0.08982259 -0.13301313 -0.32123587
0.06351812 -0.48169795 -0.27674913 -0.11592336 -0.32565647 -0.43433538 -0.368042 -0.15603775
-0.3802215 -0.15507142 -0.20368733 -0.07373641 -0.21573356 -0.53184146 -0.19787186 -0.30817732
-0.59030974 -0.35996848 0.13111015 0.2949466 -0.18715586 0.16635731 0.28136206 0.057891924
0.23716539 -0.023758383 0.109353945 0.17764492 -0.11022452 0.29718745 0.18532078 0.10364432
0.049165327 0.14242847 0.13914499 0.24077754 0.1311395 0.08181037 0.059164956 -0.3129661
0.12347614 0.054447584 0.11129217 0.08827236 0.12286837 0.19293812 0.09646958 0.32792297
0.117235824 0.45286894 -0.22193658 0.14054962 0.10902786 -0.03219673 0.16921793 -0.12194156
-0.077837534 -0.08498468 0.17488979 0.15471238 -0.048255 0.007750908 0.13069716 0.12541243
0.1267111 -0.0053325873 -0.0022295208 0.2172856 0.17439504 -0.1868062 -0.1274454 -0.18773508
-0.24886774 0.08110865 0.32040805 -0.06467493 -0.0922854 0.2029681 -0.053405 0.31564012
0.15803964 0.1478974 0.03472025 -0.21053146 -0.16318814 0.2637823 0.10452776 -0.07383312
0.1224201 0.12437551 0.13065028 0.078865565 0.122427754 -0.1458619 0.17733438 -0.18101412
0.04972047 -0.30964223 -0.13163853 -0.40857896 -0.10499453 0.004893852 -0.1454747 -0.039491706
-0.22949691 -0.15429334 -0.04277267 -0.060823604 -0.23032768 0.17150392 0.006607342 -0.07750407
0.14552131 -0.13697097 0.115996696 -0.09423914 0.100464925 -0.16629575

sequential/dense/MatMul i1 [17, 100] scale=0.014168852 zero_point=0
00000000: ebe2 fae3 3863 e9fe 1d18 ef20 fac9 09e5
00000010: 49f0 e5fe fe10 04f7 1a46 2f15 2c13 1b12
00000020: 4718 0c25 e809 d9c8 02eb d4ce 0cbc 160a
00000030: 2710 1911 1a08 de36 d03c fb3d fb10 ee02
00000040: 38e8 d101 09ea ce01 1cec 0c09 000f d30b
00000050: f317 ea13 09ff c102 f1ef 0e08 0ae4 17e3
00000060: 07e4 26df ecef 3703 e60b 0905 f4ec edfe
00000070: ed20 081f 1c0f 25fd 0e05 0fcc 091b da0a
00000080: dae4 1314 ea12 0ee0 de11 fcd3 ec03 d70a
00000090: 0b39 101d 1712 c93b 0909 dc1c 17db ebfc
000000a0: f103 e9f7 e0ed f80f f1e2 2c2f 0012 0d02
000000b0: e010 4315 ee15 e30c f1e7 1614 ebeb de14
000000c0: 12eb f3fd ebe8 f314 edf9 3b21 e1de ddfd
000000d0: 16fb eff4 2732 09ff bffe 11f4 fb06 0cf6
000000e0: bae9 d6ca 1d32 0b11 eed2 0d01 dcc1 f7fa
000000f0: c910 12ea 0ce7 c0e9 ff0f 01fe 0808 d3ea
-0.29754588 -0.42506555 -0.085013114 -0.41089672 0.7934557 1.4027164 -0.3258836 -0.028337704
0.41089672 0.34005246 -0.24087049 0.45340326 -0.085013114 -0.77928686 0.12751967 -0.382559
1.0343262 -0.22670163 -0.382559 -0.028337704 -0.028337704 0.22670163 0.056675408 -0.12751967
0.36839014 0.9918196 0.66593605 0.29754588 0.6234295 0.2692082 0.382559 0.25503933
1.0059885 0.34005246 0.17002623 0.5242475 -0.34005246 0.12751967 -0.55258524 -0.7934557
0.028337704 -0.29754588 -0.6234295 -0.7084426 0.17002623 -0.96348196 0.31171474 0.14168853
0.55258524 0.22670163 0.3542213 0.24087049 0.36839014 0.113350816 -0.48174098 0.765118
-0.6801049 0.8501311 -0.07084426 0.86429995 -0.07084426 0.22670163 -0.25503933 0.028337704
0.7934557 -0.34005246 -0.66593605 0.014168852 0.12751967 -0.31171474 -0.7084426 0.014168852
0.39672786 -0.28337705 0.17002623 0.12751967 0.0 0.21253277 -0.63759834 0.15585737
-0.18419507 0.3258836 -0.31171474 0.2692082 0.12751967 -0.014168852 -0.89263767 0.028337704
-0.21253277 -0.24087049 0.19836393 0.113350816 0.14168853 -0.39672786 0.3258836 -0.41089672
0.099181965 -0.39672786 0.5384164 -0.46757212 -0.28337705 -0.24087049 0.77928686 0.042506557
-0.36839014 0.15585737 0.12751967 0.07084426 -0.17002623 -0.28337705 -0.2692082 -0.028337704
-0.2692082 0.45340326 0.113350816 0.4392344 0.39672786 0.21253277 0.5242475 -0.042506557
0.19836393 0.07084426 0.21253277 -0.7367803 0.12751967 0.382559 -0.5384164 0.14168853
-0.5384164 -0.39672786 0.2692082 0.28337705 -0.31171474 0.25503933 0.19836393 -0.45340326
-0.48174098 0.24087049 -0.056675408 -0.63759834 -0.28337705 0.042506557 -0.58092296 0.14168853
0.15585737 0.8076246 0.22670163 0.41089672 0.3258836 0.25503933 -0.77928686 0.8359623
0.12751967 0.12751967 -0.51007867 0.39672786 0.3258836 -0.5242475 -0.29754588 -0.056675408
-0.21253277 0.042506557 -0.3258836 -0.12751967 -0.45340326 -0.2692082 -0.113350816 0.21253277
-0.21253277 -0.42506555 0.6234295 0.66593605 0.0 0.25503933 0.18419507 0.028337704
-0.45340326 0.22670163 0.9493131 0.29754588 -0.25503933 0.29754588 -0.41089672 0.17002623
-0.21253277 -0.3542213 0.31171474 0.28337705 -0.29754588 -0.29754588 -0.48174098 0.28337705
0.25503933 -0.29754588 -0.18419507 -0.042506557 -0.29754588 -0.34005246 -0.18419507 0.28337705
-0.2692082 -0.099181965 0.8359623 0.46757212 -0.4392344 -0.48174098 -0.4959098 -0.042506557
0.31171474 -0.07084426 -0.24087049 -0.17002623 0.55258524 0.7084426 0.12751967 -0.014168852
-0.9209754 -0.028337704 0.24087049 -0.17002623 -0.07084426 0.085013114 0.17002623 -0.14168853
-0.9918196 -0.3258836 -0.59509176 -0.765118 0.41089672 0.7084426 0.15585737 0.24087049
-0.25503933 -0.6517672 0.18419507 0.014168852 -0.51007867 -0.89263767 -0.12751967 -0.085013114
-0.77928686 0.22670163 0.25503933 -0.31171474 0.17002623 -0.3542213 -0.9068065 -0.3258836
-0.014168852 0.21253277 0.014168852 -0.028337704 0.113350816 0.113350816 -0.63759834 -0.31171474

unstack6 f4 [150]
00000000: 2438 afbd f11f 3cbf 1e11 6bbe 6b9d 6fbe
00000010: 114c 2fbc 5359 e0bd bb79 d5be 2cee 1ebe
00000020: 548c d8bd 3dd7 afbe 52cd c9be 4644 77be
00000030: 7916 2cbf a685 82be 31c9 ad3e 2dbb 43bf
00000040: 0c45 4ebe 23be 7ebe d27f ecbd 878e 7dbe
00000050: cb86 2f3e 6892 d2be c49c c2be fb45 f9be
00000060: ae13 b0be a325 523d 22c7 c9be d9f1 4abe
00000070: 1484 0dbf e8f4 b7bd 9834 08be 0779 a4be
00000080: ca15 823d 1da1 f6be 10b2 8dbe 3a69 edbd
00000090: 72bc a6be 3561 debe 0070 bcbe 5cc8 1fbe
000000a0: 64ac c2be 0bcb 1ebe 6993 50be 1d03 97bd
000000b0: 42e9 5cbe c326 08bf ec9e 4abe 6bc9 9dbe
000000c0: 8a1e 17bf ca4d b8be bd41 063e 3e03 973e
000000d0: c9a5 3fbe 9259 2a3e b00e 903e 1520 6d3d
000000e0: 7cdb 723e f1a0 c2bc f6f4 df3d 8de8 353e
000000f0: 65bd e1bd f428 983e bbc4 3d3e 7943 d43d
00000100: 9561 493d c5d8 113e 067c 0e3e 638e 763e
00000110: 6f49 063e 328c a73d f456 723d 183d a0be
00000120: 0fe1 fc3d 6e04 5f3d 26ed e33d 24c8 b43d
00000130: 69a2 fb3d 9291 453e d891 c53d 85e5 a73e
00000140: 5619 f03d 70de e73e 5843 63be 3dec 0f3e
00000150: 004a df3d b8e0 03bd 7747 2d3e 7fbc f9bd
00000160: 4969 9fbd 730c aebd 4f16 333e ec6c 1e3e
00000170: 09a7 45bd 54fb fd3b 7ad5 053e 1e6c 003e
00000180: 8ec0 013e fcbc aebb 271d 12bb 1e80 5e3e
00000190: 9d94 323e 204a 3fbe 0c81 02be a03d 40be
000001a0: 2fd7 7ebe 4b1c a63d 860c a43e 4a74 84bd
000001b0: 2100 bdbd dfd6 4f3e 34bf 5abd 959b a13e
000001c0: 25d5 213e 6b72 173e d236 0e3d 8f95 57be
000001d0: cb1a 27be 790e 873e a612 d63d d235 97bd
000001e0: 64b7 fa3d 96b8 fe3d 30c9 053e 4584 a13d
000001f0: 67bb fa3d d25c 15be 2597 353e c45b 39be
00000200: b1a7 4b3d 6d89 9ebe 40cc 06be 4331 d1be
00000210: 5f07 d7bd 9b5c a03b 52f7 14be 0ec2 21bd
00000220: 3d01 6bbe 13ff 1dbe 6532 2fbd 2c22 79bd
00000230: 05db 6bbe b99e 2f3e 6782 d83b 74ba 9ebd
00000240: 8a03 153e 1e42 0cbe ad8f ed3d 7300 c1bd
00000250: 8ec0 cd3d 6f49 2abe
-0.0855563 -0.7348624 -0.22955748 -0.23399894 -0.010699288 -0.10954537 -0.41694435 -0.15520543
-0.105736405 -0.343439 -0.3941446 -0.24147138 -0.6722179 -0.2549259 0.3394256 -0.7645748
-0.20143527 -0.24877219 -0.11547817 -0.24761401 0.17141263 -0.41127324 -0.38010228 -0.48686203
-0.34390014 0.051305424 -0.3940974 -0.1981882 -0.5527966 -0.08982259 -0.13301313 -0.32123587
0.06351812 -0.48169795 -0.27674913 -0.11592336 -0.32565647 -0.43433538 -0.368042 -0.15603775
-0.3802215 -0.15507142 -0.20368733 -0.07373641 -0.21573356 -0.53184146 -0.19787186 -0.30817732
-0.59030974 -0.35996848 0.13111015 0.2949466 -0.18715586 0.16635731 0.28136206 0.057891924
0.23716539 -0.023758383 0.109353945 0.17764492 -0.11022452 0.29718745 0.18532078 0.10364432
0.049165327 0.14242847 0.13914499 0.24077754 0.1311395 0.08181037 0.059164956 -0.3129661
0.12347614 0.054447584 0.11129217 0.08827236 0.12286837 0.19293812 0.09646958 0.32792297
0.117235824 0.45286894 -0.22193658 0.14054962 0.10902786 -0.03219673 0.16921793 -0.12194156
-0.077837534 -0.08498468 0.17488979 0.15471238 -0.048255 0.007750908 0.13069716 0.12541243
0.1267111 -0.0053325873 -0.0022295208 0.2172856 0.17439504 -0.1868062 -0.1274454 -0.18773508
-0.24886774 0.08110865 0.32040805 -0.06467493 -0.0922854 0.2029681 -0.053405 0.31564012
0.15803964 0.1478974 0.03472025 -0.21053146 -0.16318814 0.2637823 0.10452776 -0.07383312
0.1224201 0.12437551 0.13065028 0.078865565 0.122427754 -0.1458619 0.17733438 -0.18101412
0.04972047 -0.30964223 -0.13163853 -0.40857896 -0.10499453 0.004893852 -0.1454747 -0.039491706
-0.22949691 -0.15429334 -0.04277267 -0.060823604 -0.23032768 0.17150392 0.006607342 -0.07750407
0.14552131 -0.13697097 0.115996696 -0.09423914 0.100464925 -0.16629575

unstack7 f4 [150]
00000000: 2438 afbd f11f 3cbf 1e11 6bbe 6b9d 6fbe
00000010: 114c 2fbc 5359 e0bd bb79 d5be 2cee 1ebe
00000020: 548c d8bd 3dd7 afbe 52cd c9be 4644 77be
00000030: 7916 2cbf a685 82be 31c9 ad3e 2dbb 43bf
00000040: 0c45 4ebe 23be 7ebe d27f ecbd 878e 7dbe
00000050: cb86 2f3e 6892 d2be c49c c2be fb45 f9be
00000060: ae13 b0be a325 523d 22c7 c9be d9f1 4abe
00000070: 1484 0dbf e8f4 b7bd 9834 08be 0779 a4be
00000080: ca15 823d 1da1 f6be 10b2 8dbe 3a69 edbd
00000090: 72bc a6be 3561 debe 0070 bcbe 5cc8 1fbe
000000a0: 64ac c2be 0bcb 1ebe 6993 50be 1d03 97bd
000000b0: 42e9 5cbe c326 08bf ec9e 4abe 6bc9 9dbe
000000c0: 8a1e 17bf ca4d b8be bd41 063e 3e03 973e
000000d0: c9a5 3fbe 9259 2a3e b00e 903e 1520 6d3d
000000e0: 7cdb 723e f1a0 c2bc f6f4 df3d 8de8 353e
000000f0: 65bd e1bd f428 983e bbc4 3d3e 7943 d43d
00000100: 9561 493d c5d8 113e 067c 0e3e 638e 763e
00000110: 6f49 063e 328c a73d f456 723d 183d a0be
00000120: 0fe1 fc3d 6e04 5f3d 26ed e33d 24c8 b43d
00000130: 69a2 fb3d 9291 453e d891 c53d 85e5 a73e
00000140: 5619 f03d 70de e73e 5843 63be 3dec 0f3e
00000150: 004a df3d b8e0 03bd 7747 2d3e 7fbc f9bd
00000160: 4969 9fbd 730c aebd 4f16 333e ec6c 1e3e
00000170: 09a7 45bd 54fb fd3b 7ad5 053e 1e6c 003e
00000180: 8ec0 013e fcbc aebb 271d 12bb 1e80 5e3e
00000190: cbd4 4a3e b0cc 7bbe e4c0 953d 1c5f 02bf
000001a0: 7201 76be 29d2 5a3e 3164 c33e 3bfb 22be
000001b0: 3f80 85be 76af 9d3e 5912 673e fbb8 f93e
000001c0: 9106 d93e 4ab8 ba3e 467c a13e 7ed8 6dbe
000001d0: 3a09 febe 368f bb3e 5c75 573e 7845 d9be
000001e0: 13b5 483e a04f 46bc 79ce 903e c6c6 4c3e
000001f0: b2c0 5d3e add3 8bbe 1a47 933e 2cc6 a2be
00000200: 7524 4c3e 68c4 b9be 4233 92be e31e 0cbf
00000210: 9a2e b83d 48fc 363f 16cb 5ebe aef3 233e
00000220: 6bfb 9dbe 7608 ba3e 80eb 703e b34c f83d
00000230: ceda b5be 8ebf 573e 9ad4 ccbd e58b b9bd
00000240: 0f66 583e d9e4 1bbe 60a8 8e3e 9f97 53be
00000250: 4b3b a83d 8862 33be
-0.0855563 -0.7348624 -0.22955748 -0.23399894 -0.010699288 -0.10954537 -0.41694435 -0.15520543
-0.105736405 -0.343439 -0.3941446 -0.24147138 -0.6722179 -0.2549259 0.3394256 -0.7645748
-0.20143527 -0.24877219 -0.11547817 -0.24761401 0.17141263 -0.41127324 -0.38010228 -0.48686203
-0.34390014 0.051305424 -0.3940974 -0.1981882 -0.5527966 -0.08982259 -0.13301313 -0.32123587
0.06351812 -0.48169795 -0.27674913 -0.11592336 -0.32565647 -0.43433538 -0.368042 -0.15603775
-0.3802215 -0.15507142 -0.20368733 -0.07373641 -0.21573356 -0.53184146 -0.19787186 -0.30817732
-0.59030974 -0.35996848 0.13111015 0.2949466 -0.18715586 0.16635731 0.28136206 0.057891924
0.23716539 -0.023758383 0.109353945 0.17764492 -0.11022452 0.29718745 0.18532078 0.10364432
0.049165327 0.14242847 0.13914499 0.24077754 0.1311395 0.08181037 0.059164956 -0.3129661
0.12347614 0.054447584 0.11129217 0.08827236 0.12286837 0.19293812 0.09646958 0.32792297
0.117235824 0.45286894 -0.22193658 0.14054962 0.10902786 -0.03219673 0.16921793 -0.12194156
-0.077837534 -0.08498468 0.17488979 0.15471238 -0.048255 0.007750908 0.13069716 0.12541243
0.1267111 -0.0053325873 -0.0022295208 0.2172856 0.19807737 -0.24589801 0.073121816 -0.50926375
-0.24023989 0.21369232 0.38162377 -0.1591615 -0.26074407 0.3079793 0.22565593 0.4877394
0.42387822 0.36468726 0.31540126 -0.23227116 -0.49616414 0.366327 0.21040863 -0.42435813
0.19600324 -0.012103945 0.28282526 0.19997701 0.21655539 -0.27309933 0.28765184 -0.31791818
0.19935782 -0.3628266 -0.28554732 -0.5473463 0.089932635 0.714787 -0.21757159 0.16010925
-0.3085588 0.3633458 0.23527336 0.12124004 -0.35518497 0.21069166 -0.10001488 -0.09059886
0.21132682 -0.15224017 0.27862835 -0.20663308 0.08214434 -0.17518055

while/MatMul_1 i1 [150, 50] scale=0.0023442088 zero_point=0
00000000: 28d6 f337 0d2b f54d f92a fc25 09e0 1ecf
00000010: 14de 3226 f9f5 fcf8 ff50 e337 2916 0ca6
00000020: 0510 c0e8 cb23 e4e1 161e 15fa f6c9 fbe8
00000030: ebf0 2003 141f 212d 39c0 e807 f532 e1dd
00000040: 2d0d f003 e3f4 2ffe c922 fc48 05e4 1cfd
00000050: 2312 07e1 030e 1122 020e c532 e0f4 1d07
00000060: 1622 4404 1f2c 10fd 34ca f2c1 30f8 b6eb
00000070: f002 41ef cedb 0d35 cfe2 1112 0b0a db1e
00000080: bef2 3302 2fdc 2d1a dc29 3bdf 0b0c 3613
00000090: 0d02 d9ec d8fe 0af4 12f6 f405 1e26 2a24
000000a0: 2c14 0f0d d31c fa09 f23c f621 f3c4 ffca
000000b0: fa2a dc1a ff1e 0f23 fe35 ea54 f1e4 4520
000000c0: 0a12 2117 5ab8 f247 1bfa f50f 13fb 32ee
000000d0: 1cee 160b 163e ffd9 41fe f202 2ce2 3902
000000e0: e914 e3de f1cd 22e3 ee0a 1602 28f7 0730
000000f0: 1fee 280f 12d0 17c5 4afb 27e6 f1e3 dacf
0.09376835 -0.09845677 -0.030474715 0.12893148 0.030474715 0.100800976 -0.025786296 0.18050407
-0.01640946 0.09845677 -0.009376835 0.086735725 0.02109788 -0.07501468 0.07032626 -0.11486623
0.046884175 -0.0797031 0.11721044 0.08907993 -0.01640946 -0.025786296 -0.009376835 -0.01875367
-0.0023442088 0.1875367 -0.067982055 0.12893148 0.09611256 0.05157259 0.028130505 -0.21097879
0.011721044 0.03750734 -0.15002936 -0.05626101 -0.124243066 0.082047306 -0.06563784 -0.072670475
0.05157259 0.07032626 0.049228385 -0.014065253 -0.023442088 -0.12893148 -0.011721044 -0.05626101
-0.049228385 -0.03750734 0.07501468 0.0070326263 0.046884175 0.072670475 0.07735889 0.105489396
0.1336199 -0.15002936 -0.05626101 0.01640946 -0.025786296 0.11721044 -0.072670475 -0.082047306
0.105489396 0.030474715 -0.03750734 0.0070326263 -0.067982055 -0.028130505 0.110177815 -0.0046884175
-0.12893148 0.0797031 -0.009376835 0.16878304 0.011721044 -0.06563784 0.06563784 -0.0070326263
0.082047306 0.04219576 0.01640946 -0.072670475 0.0070326263 0.03281892 0.03985155 0.0797031
0.0046884175 0.03281892 -0.13830832 0.11721044 -0.07501468 -0.028130505 0.067982055 0.01640946
0.05157259 0.0797031 0.1594062 0.009376835 0.072670475 0.10314518 0.03750734 -0.0070326263
0.12189886 -0.12658727 -0.03281892 -0.14768516 0.11252202 -0.01875367 -0.17347145 -0.049228385
-0.03750734 0.0046884175 0.15237357 -0.03985155 -0.11721044 -0.086735725 0.030474715 0.124243066
-0.11486623 -0.07032626 0.03985155 0.04219576 0.025786296 0.023442088 -0.086735725 0.07032626
-0.15471777 -0.03281892 0.11955465 0.0046884175 0.110177815 -0.08439152 0.105489396 0.06094943
-0.08439152 0.09611256 0.13830832 -0.07735889 0.025786296 0.028130505 0.12658727 0.044539966
0.030474715 0.0046884175 -0.091424145 -0.046884175 -0.09376835 -0.0046884175 0.023442088 -0.028130505
0.04219576 -0.023442088 -0.028130505 0.011721044 0.07032626 0.08907993 0.09845677 0.08439152
0.10314518 0.046884175 0.03516313 0.030474715 -0.105489396 0.06563784 -0.014065253 0.02109788
-0.03281892 0.14065252 -0.023442088 0.07735889 -0.030474715 -0.14065252 -0.0023442088 -0.12658727
-0.014065253 0.09845677 -0.08439152 0.06094943 -0.0023442088 0.07032626 0.03516313 0.082047306
-0.0046884175 0.124243066 -0.05157259 0.19691354 -0.03516313 -0.06563784 0.1617504 0.07501468
0.023442088 0.04219576 0.07735889 0.0539168 0.21097879 -0.16878304 -0.03281892 0.16643882
0.063293636 -0.014065253 -0.025786296 0.03516313 0.044539966 -0.011721044 0.11721044 -0.04219576
0.06563784 -0.04219576 0.05157259 0.025786296 0.05157259 0.14534095 -0.0023442088 -0.091424145
0.15237357 -0.0046884175 -0.03281892 0.0046884175 0.10314518 -0.07032626 0.1336199 0.0046884175
-0.0539168 0.046884175 -0.067982055 -0.0797031 -0.03516313 -0.11955465 0.0797031 -0.067982055
-0.04219576 0.023442088 0.05157259 0.0046884175 0.09376835 -0.02109788 0.01640946 0.11252202
0.072670475 -0.04219576 0.09376835 0.03516313 0.04219576 -0.11252202 0.0539168 -0.13830832
0.17347145 -0.011721044 0.091424145 -0.06094943 -0.03516313 -0.067982055 -0.08907993 -0.11486623

while/MatMul i1 [150, 42] scale=0.025269542 zero_point=0
00000000: fcfb 0c16 060d 0d03 0d02 0d0c 0613 f904
00000010: 0103 140a 0f0d 0bff feff 0b11 0814 0406
00000020: 0611 0f15 070d 0d0e 1508 fe01 0914 021c
00000030: 0717 0916 0618 0a27 fd20 060b 0e14 0118
00000040: 0113 0903 f909 030f 0317 0109 fb0a fa11
00000050: fb0b fe0d 0305 0e15 021a f926 f516 011f
00000060: f706 0101 faff f416 f3fe f3f4 f7fa fc1a
00000070: f908 fdf9 f6f2 f212 f00b f804 f503 05f9
00000080: 030a 0019 f713 e91d 030b fd04 0501 0cfa
00000090: f40d ec05 f2f6 e7ee ea15 f60a f4f5 00ee
000000a0: da1f e117 e20f ed0a 0305 eb17 ef1d f11c
000000b0: fb14 fb0e f90b f106 f6f8 fe0a f4fd f4f6
000000c0: f3f8 f511 e8fd f4fc f70b f706 eb0c ef0e
000000d0: f801 0606 ef08 f707 0204 0a0a 04fd eb04
000000e0: fb0b 0017 f804 e503 ef04 fa12 eb09 d607
000000f0: db0c eb0e db13 d512 d415 eb14 fcfc 0719
-0.10107817 -0.1263477 0.30323452 0.5559299 0.15161726 0.32850406 0.32850406 0.07580863
0.32850406 0.050539084 0.32850406 0.30323452 0.15161726 0.48012128 -0.1768868 0.10107817
0.025269542 0.07580863 0.5053908 0.2526954 0.37904313 0.32850406 0.27796495 -0.025269542
-0.050539084 -0.025269542 0.27796495 0.4295822 0.20215634 0.5053908 0.10107817 0.15161726
0.15161726 0.4295822 0.37904313 0.5306604 0.1768868 0.32850406 0.32850406 0.3537736
0.5306604 0.20215634 -0.050539084 0.025269542 0.22742587 0.5053908 0.050539084 0.7075472
0.1768868 0.58119947 0.22742587 0.5559299 0.15161726 0.60646904 0.2526954 0.98551214
-0.07580863 0.80862534 0.15161726 0.27796495 0.3537736 0.5053908 0.025269542 0.60646904
0.025269542 0.48012128 0.22742587 0.07580863 -0.1768868 0.22742587 0.07580863 0.37904313
0.07580863 0.58119947 0.025269542 0.22742587 -0.1263477 0.2526954 -0.15161726 0.4295822
-0.1263477 0.27796495 -0.050539084 0.32850406 0.07580863 0.1263477 0.3537736 0.5306604
0.050539084 0.6570081 -0.1768868 0.96024257 -0.27796495 0.5559299 0.025269542 0.7833558
-0.22742587 0.15161726 0.025269542 0.025269542 -0.15161726 -0.025269542 -0.30323452 0.5559299
-0.32850406 -0.050539084 -0.32850406 -0.30323452 -0.22742587 -0.15161726 -0.10107817 0.6570081
-0.1768868 0.20215634 -0.07580863 -0.1768868 -0.2526954 -0.3537736 -0.3537736 0.45485175
-0.40431267 0.27796495 -0.20215634 0.10107817 -0.27796495 0.07580863 0.1263477 -0.1768868
0.07580863 0.2526954 0.0 0.63173854 -0.22742587 0.48012128 -0.58119947 0.7328167
0.07580863 0.27796495 -0.07580863 0.10107817 0.1263477 0.025269542 0.30323452 -0.15161726
-0.30323452 0.32850406 -0.5053908 0.1263477 -0.3537736 -0.2526954 -0.63173854 -0.45485175
-0.5559299 0.5306604 -0.2526954 0.2526954 -0.30323452 -0.27796495 0.0 -0.45485175
-0.96024257 0.7833558 -0.7833558 0.58119947 -0.75808626 0.37904313 -0.48012128 0.2526954
0.07580863 0.1263477 -0.5306604 0.58119947 -0.4295822 0.7328167 -0.37904313 0.7075472
-0.1263477 0.5053908 -0.1263477 0.3537736 -0.1768868 0.27796495 -0.37904313 0.15161726
-0.2526954 -0.20215634 -0.050539084 0.2526954 -0.30323452 -0.07580863 -0.30323452 -0.2526954
-0.32850406 -0.20215634 -0.27796495 0.4295822 -0.60646904 -0.07580863 -0.30323452 -0.10107817
-0.22742587 0.27796495 -0.22742587 0.15161726 -0.5306604 0.30323452 -0.4295822 0.3537736
-0.20215634 0.025269542 0.15161726 0.15161726 -0.4295822 0.20215634 -0.22742587 0.1768868
0.050539084 0.10107817 0.2526954 0.2526954 0.10107817 -0.07580863 -0.5306604 0.10107817
-0.1263477 0.27796495 0.0 0.58119947 -0.20215634 0.10107817 -0.6822776 0.07580863
-0.4295822 0.10107817 -0.15161726 0.45485175 -0.5306604 0.22742587 -1.0613208 0.1768868
-0.93497306 0.30323452 -0.5306604 0.3537736 -0.93497306 0.48012128 -1.0865903 0.45485175
-1.1118598 0.5306604 -0.5306604 0.5053908 -0.10107817 -0.10107817 0.1768868 0.63173854

unstack8 f4 [150]
00000000: d143 00bf 9839 59be 6530 05bf 427b d5be
00000010: 29f7 72be 7770 a6be 37ae a9be e5cf 0dbf
00000020: 1cdf 1bbf de18 c1be 2161 33bf 6bf5 25bf
00000030: 9a03 53bd 6d8e 42be 2e33 42be b72c c3be
00000040: 2056 babe 453e d5be f472 aabe 4293 07bf
00000050: 7c86 82be 571f 2abf 1c9e d9be d292 a9be
00000060: 342a 8dbe 3d5a bdbe 01f3 e9be fc1d 00bf
00000070: 4fac 01bf 7aed 9cbe 88c4 edbe 9c18 31bf
00000080: a611 10be ad84 73be 1739 f0be f74d 693c
00000090: 01d2 0abf b9f4 f7be 2d58 48bf 88da 26bf
000000a0: 88aa c0be 64d0 e8be 5d60 01bf 3af2 c0be
000000b0: 9860 88be a6ec 8fbe fe65 c1be 2592 eebe
000000c0: 6471 2bbf 6a98 c1be 77ae 14be bd76 a7bd
000000d0: a7e7 fdbd 8d66 57be 9109 03be a004 65be
000000e0: 3b04 20bd 64a3 c7bd fa6c be3d da6c e03c
000000f0: 28ca 83be 8161 c13c 8810 94bd 33ef 62bd
00000100: 2332 783d 3e28 1f3e 7b25 563d c40e f1bd
00000110: 8bd6 113d 2dbc da3d 242b 11be 7492 a4bc
00000120: 0f3c 72bc fd41 113e 650e 72be 8e58 4dbe
00000130: e5af 82be 23ad 533d cf9e a53d 5afb 733d
00000140: 42df 133e d161 01be 438a 49bd cd2f 093e
00000150: b635 fc3c b9de 59bd ecb6 98be 1bd2 ec3d
00000160: c3ae 8fbe 3849 273d 4aed 99bd 9220 38be
00000170: fafe 833d ad78 15bd 7dca 143c 2305 24be
00000180: bc4f 81bc 8a6e 32be 8ff5 cc3d c6ae efbe
00000190: a147 d13d 5594 12bd 1ff1 ccbd 97d3 b8bd
000001a0: acd5 c63d b628 853d 6018 08bc e114 cfbd
000001b0: b733 0dbe 27e8 c8bd 4f98 8f3d bcfb 313e
000001c0: 8c89 b3bc ad45 493c 7090 98bd e4f5 48be
000001d0: a7dc 123e 544a 123c 4ca7 643d 98ad 953d
000001e0: 4e3e 8c3d c062 563d 09a5 84bc 8aea f3bd
000001f0: 7bfc 053e a755 bebc 0370 94bd 34f3 883d
00000200: bcac 8abd 6886 823d 9c04 563e 6ce9 a2bd
00000210: 17e9 df3b ee03 0fbe 3140 d7bd cdd1 7ebc
00000220: f11e 053e 744c 3fbe 597c b4bd 9a33 4bbd
00000230: 1c7f d43c 412e af3c 7de4 8f3d c706 7d3c
00000240: f5ff 113c 44fc 75bd a70c 26be aa60 adbc
00000250: af69 ebbd 5402 2c3d
-0.5010348 -0.21213377 -0.5202697 -0.416956 -0.23727097 -0.3250768 -0.33140728 -0.55395347
-0.6088731 -0.37714285 -0.7007008 -0.64827603 -0.051517107 -0.18999644 -0.18964836 -0.38120052
-0.36393833 -0.4164907 -0.33290827 -0.5295907 -0.25493228 -0.6645407 -0.4250344 -0.33119828
-0.2757126 -0.3698291 -0.4569321 -0.5004575 -0.5065355 -0.3064993 -0.46439004 -0.69178176
-0.14069232 -0.2378108 -0.46918556 0.01423978 -0.5422669 -0.48428896 -0.78259546 -0.651772
-0.37630105 -0.4547149 -0.50537664 -0.37684804 -0.26636195 -0.28110236 -0.37773126 -0.46595874
-0.66969895 -0.37811595 -0.14519678 -0.081769444 -0.123977 -0.21035214 -0.12796618 -0.22365046
-0.039066534 -0.09747961 0.092981294 0.027395654 -0.2574017 0.023606064 -0.072297156 -0.0554039
0.06059469 0.15542695 0.052281838 -0.117703944 0.035604995 0.10680423 -0.14176613 -0.020089366
-0.014784827 0.14185329 -0.23638304 -0.20053312 -0.25524822 0.051678788 0.08086931 0.05956588
0.14440635 -0.1263497 -0.049204122 0.13397141 0.03078733 -0.05319092 -0.29827058 0.11563512
-0.2806302 0.04084131 -0.075159624 -0.17981175 0.06445117 -0.03649204 0.00908148 -0.16017585
-0.01578509 -0.1742498 0.10007774 -0.4681303 0.1021874 -0.03578599 -0.10006928 -0.090247326
0.097087234 0.065019056 -0.008306593 -0.10111404 -0.13789259 -0.098099045 0.070114724 0.17381185
-0.021916173 0.012284678 -0.07449424 -0.1962505 0.14341985 0.008928854 0.05582361 0.07308501
0.06847821 0.05234027 -0.016191976 -0.11909969 0.13084595 -0.023234202 -0.07247927 0.06687012
-0.06771228 0.06373292 0.20900196 -0.07954678 0.0068332064 -0.13966343 -0.105102904 -0.01555295
0.13000084 -0.18681508 -0.0881278 -0.049609758 0.025939517 0.02138436 0.070260026 0.01544351
0.008911123 -0.060055032 -0.16215764 -0.021164257 -0.11494767 0.041994408
