GRU-main/model/keypoint_classifier/GRU_left_augmented.tflite (tflite, 85416 bytes, 14 tensors)

sequential/dense/BiasAdd/ReadVariableOp f4 [25]
0	0xbe1cce41	-0.15313055
1	0xbe3fef2f	-0.18743585
2	0xbe427145	-0.18988521
3	0x3d6b589d	0.057457555
4	0x3dcc8cb9	0.09987778
5	0x3e0218d2	0.1270478
6	0x3b7edcdc	0.0038888967
7	0xbc09134d	-0.008366418
8	0x3ccc0771	0.024905892
9	0xbd27dbd6	-0.040981136
10	0xbdb113d8	-0.08646363
11	0xbda657bd	-0.081222035
12	0x3d897d63	0.06713369
13	0xbd8737d8	-0.06602448
14	0xbe1746a2	-0.14773038
15	0x3e5d8ec6	0.21636495
16	0x3c8741d9	0.01651089
17	0x3d56cda4	0.052442208
18	0x3c357422	0.0110750515
19	0x3d93c509	0.07215316
20	0xbca5cf08	-0.020240322
21	0xbdc24708	-0.094862044
22	0x3e2a59d2	0.16635826
23	0x3d0ef29d	0.034899343
24	0xbcd28a97	-0.02570085

unstack f4 [300]
0	0xbdd85a49	-0.105640955
1	0xbec11e17	-0.3771827
2	0xbe8f815b	-0.28028378
3	0xbee86f63	-0.4539748
4	0xbeaba2bb	-0.3352259
5	0xbea7a8af	-0.32745883
6	0xbebbf3a5	-0.36709324
7	0xbd0128ed	-0.03153317
8	0xbef1e70e	-0.47246593
9	0xbf09837b	-0.5371625
10	0xbe5ba5ee	-0.21450016
11	0xbe26b3cd	-0.16279526
12	0xbe9291e2	-0.28626925
13	0xbe194f3c	-0.14971632
14	0xbe9bf1e0	-0.30457973
15	0xbece1220	-0.40248203
16	0xbe6c766a	-0.23092046
17	0xbe08b571	-0.13350464
18	0xbe0affec	-0.13574189
19	0xbdff834f	-0.12476217
20	0xbe938df5	-0.28819242
21	0xbec71cb0	-0.38889074
22	0xbe159eda	-0.14611378
23	0xbeabe272	-0.33571202
24	0xbe9da7b5	-0.30792013
25	0xbe9e3895	-0.30902544
26	0xbe59faf7	-0.21287142
27	0xbeb520ab	-0.35376486
28	0xbefed7e2	-0.4977408
29	0xbd8f704f	-0.07003843
30	0xbd25820f	-0.040407237
31	0xbec7dab8	-0.39034057
32	0xbe98a61e	-0.29814237
33	0xbe676f8f	-0.2260115
34	0xbf029248	-0.5100446
35	0xbea5a2d4	-0.3235079
36	0xbeeaba84	-0.45845425
37	0xbe432a85	-0.19059189
38	0xbe0655d4	-0.13118678
39	0xbedf1981	-0.43574145
40	0xbe22a30b	-0.15882508
41	0xbceb2a9a	-0.028706837
42	0xbe504c1c	-0.20341533
43	0xbea9bad8	-0.33150363
44	0xbe893bb7	-0.2680337
45	0xbe81d2fa	-0.25356275
46	0xbdcba655	-0.09943835
47	0xbdd8d8bf	-0.10588216
48	0xbdfca648	-0.12336403
49	0xbe9ec7fa	-0.31011945
50	0xbed0fcab	-0.4081777
51	0xbe4a3df4	-0.19750196
52	0xbdb14830	-0.08656347
53	0xbeacffcd	-0.3378891
54	0xbe98aab5	-0.2981774
55	0xbee714a9	-0.4513295
56	0xbeaabbe1	-0.33346465
57	0xbe232af6	-0.15934357
58	0xbe9f2a24	-0.31086838
59	0xbe113755	-0.14181264
60	0xbea2e5aa	-0.31815845
61	0xbeb88403	-0.36038217
62	0xbec4d393	-0.38442668
63	0xbe1f0aad	-0.15531416
64	0xbefac3e1	-0.4897757
65	0xbe0e8b38	-0.13920295
66	0xbe303a59	-0.17209758
67	0xbeed7942	-0.46381575
68	0xbe08e682	-0.13369182
69	0xbecee6a9	-0.40410355
70	0xbe1fb6d7	-0.15597092
71	0xbe1bea14	-0.15226012
72	0xbee657ac	-0.44988763
73	0xbe318f4c	-0.1733982
74	0xbde669ca	-0.112506464
75	0xbe204174	-0.15649968
76	0xbe492d76	-0.19646248
77	0xbe30ecb6	-0.17277798
78	0xbe927051	-0.28601316
79	0xbef25cd6	-0.47336453
80	0xbe955990	-0.29169893
81	0xbe6e6ac0	-0.2328291
82	0xbe9f2735	-0.310846
83	0xbef23b43	-0.47310838
84	0xbea974cf	-0.3309693
85	0xbe5a5fc6	-0.21325597
86	0xbe4069c1	-0.18790342
87	0xbe4202ae	-0.18946335
88	0xbeaf9cd6	-0.34299344
89	0xbe001f40	-0.12511921
90	0xbe487b73	-0.19578342
91	0xbed18dc9	-0.40928486
92	0xbea47f5e	-0.32128423
93	0xbe0e9bc0	-0.13926601
94	0xbeb2a5f7	-0.34892246
95	0xbe98940c	-0.2980045
96	0xbe7d35ba	-0.24727526
97	0xbe12c1f5	-0.14331801
98	0xbe0d1bf8	-0.137802
99	0xbe8a3532	-0.2699371
100	0x3e50c94c	0.20389289
101	0x3db73a84	0.08946708
102	0xbdfcbcb2	-0.12340678
103	0x3e890424	0.26760972
104	0x3d0c815a	0.034303047
105	0xbe3a554c	-0.181966
106	0xbdfb3442	-0.12265827
107	0xbc803711	-0.015651258
108	0xbd6b0756	-0.057380043
109	0x3c99f733	0.018794632
110	0x3d86cae4	0.06581667
111	0x3d03e298	0.03219852
112	0x3e0eb799	0.13937224
113	0x3d365146	0.044511102
114	0xbda7c833	-0.08192482
115	0x3ce1a9fe	0.027546879
116	0xbcf731a3	-0.030175036
117	0x3e00c866	0.12576446
118	0x3da97b28	0.08275443
119	0xbd023954	-0.031792954
120	0x3ec4995d	0.38398257
121	0x3d37b27b	0.044847947
122	0x3c2da499	0.010598325
123	0xbd477278	-0.04869315
124	0xbdb1cd12	-0.08681692
125	0xbe79e66c	-0.24404305
126	0x3db19668	0.08671266
127	0x3df174fb	0.117898904
128	0x3d3f0a03	0.046640407
129	0x3cd77eb8	0.026305541
130	0xbc9e8e66	-0.01935501
131	0xbe505c8d	-0.20347805
132	0xbd5413c9	-0.05177668
133	0x3e09d4ab	0.13460033
134	0x3e2baeaf	0.16765855
135	0xbe0a825c	-0.1352629
136	0x3e222a20	0.15836382
137	0xbdf5b477	-0.119973116
138	0x3db2e135	0.08734361
139	0x3db90218	0.090336025
140	0x3e85b365	0.2611343
141	0x3caa6d1b	0.020803979
142	0x3e0a1718	0.13485372
143	0xbd71c8f3	-0.05902953
144	0x3de81c7f	0.1133356
145	0xbd928065	-0.071533956
146	0x3d9115d7	0.07084244
147	0x3e376f72	0.17913607
148	0xbe20730a	-0.15668884
149	0x3c505836	0.012716344
150	0xbd7be1e8	-0.061494738
151	0xbdff0d25	-0.12453679
152	0x3d9ca9ae	0.07649551
153	0x3deb2b3e	0.11482857
154	0x3d6ebe28	0.058286816
155	0x3e9fb78b	0.3119472
156	0x3e02e1fe	0.12781522
157	0x3c3afd4d	0.011412931
158	0x3d63cf92	0.055617876
159	0xbdeb423e	-0.11487244
160	0xbb67cbb5	-0.0035369222
161	0xbe1e5228	-0.15461028
162	0x3def1a69	0.11674959
163	0x3d05e4f0	0.032689035
164	0x3d366d54	0.044537857
165	0xbe26cb27	-0.16288434
166	0x3e0ddf50	0.13854718
167	0x3e2a41fd	0.16626735
168	0x3dfdf0df	0.12399458
169	0xbda65b02	-0.08122827
170	0xbe1c28a3	-0.15249877
171	0xbcac54e4	-0.021036573
172	0x3dd4b3d6	0.103858635
173	0x3d65b8ff	0.05608463
174	0xbcae4876	-0.021274786
175	0x3d851038	0.06497234
176	0x3b340f8a	0.0027475082
177	0x3e2b0f4f	0.16705059
178	0xbd9ccbff	-0.07656097
179	0xbd55d55c	-0.05220543
180	0xbd0302f9	-0.031985257
181	0x3da984c5	0.08277277
182	0x3e014f91	0.12628008
183	0x3ce1ed27	0.027578903
184	0x3e881ed0	0.26586008
185	0x3d9237e4	0.071395665
186	0xbda56843	-0.08076527
187	0x3d023578	0.031789273
188	0xbc94d577	-0.018168194
189	0x3e0f29be	0.13980767
190	0xbdb63793	-0.08897319
191	0x3de44d03	0.11147501
192	0x3e4b57f2	0.19857767
193	0x3dea853d	0.114511944
194	0xbdc5b7a4	-0.09654167
195	0xbd20af8c	-0.039229915
196	0x3db27139	0.08713002
197	0x3d832dd9	0.06405229
198	0xbd35fcb3	-0.044430446
199	0x3d3033a6	0.043018006
200	0x3e8f1af3	0.27950248
201	0xbe62953a	-0.22127238
202	0xbe136cd4	-0.14396983
203	0x3eff7b1a	0.49898607
204	0x3e2cab13	0.16862135
205	0x3dd0dcff	0.10198402
206	0x3d9cc60e	0.076549634
207	0xbdf5e262	-0.1200607
208	0x3dfa4c6e	0.12221609
209	0x3e0d698b	0.13809793
210	0x3ea07789	0.31341198
211	0x3e4ca1ce	0.19983599
212	0x3ea732d5	0.3265597
213	0xbe17c6db	-0.14821951
214	0xbe2b015c	-0.16699737
215	0xbe686c59	-0.22697581
216	0x3e515411	0.20442225
217	0x3e4b8b19	0.1987728
218	0xbe9505e0	-0.29106045
219	0xbe145e9d	-0.14489217
220	0x3eadf432	0.3397537
221	0x3e8d0257	0.27540848
222	0xbdb9a2a6	-0.09064226
223	0xbe51cd5a	-0.20488492
224	0x3df6e266	0.12054901
225	0x3e7b1635	0.2452019
226	0xbe836e84	-0.25670254
227	0x3e7f32de	0.24921748
228	0xbe508da5	-0.20366533
229	0x3ded79b1	0.115954764
230	0x3e080b12	0.13285473
231	0xbe490ce0	-0.19633818
232	0x3e1031ae	0.14081451
233	0xbea3dc96	-0.3200423
234	0x3e9ccccc	0.30624998
235	0x3e307015	0.17230256
236	0xbec75d60	-0.38938427
237	0x3d964cfc	0.07338902
238	0xbebcdbc4	-0.36886418
239	0xbe6da246	-0.23206434
240	0x3eb4b9be	0.3529796
241	0xbe9077f1	-0.28216508
242	0x3e972ec8	0.2952788
243	0x3d20fa1a	0.039301015
244	0xbe235cfe	-0.15953442
245	0x3e88fdb2	0.26756054
246	0xbe5d4a61	-0.21610405
247	0xbe9f73c0	-0.31142998
248	0x3e200dad	0.15630217
249	0xbe08251c	-0.13295406
250	0xbe2d085f	-0.16897725
251	0xbe45bfa6	-0.1931139
252	0x3e507dc4	0.20360476
253	0xbeb227b7	-0.34795925
254	0xbe1771eb	-0.1478955
255	0xbeeee4ed	-0.46659032

unstack1 f4 [300]
0	0xbdd85a49	-0.105640955
1	0xbec11e17	-0.3771827
2	0xbe8f815b	-0.28028378
3	0xbee86f63	-0.4539748
4	0xbeaba2bb	-0.3352259
5	0xbea7a8af	-0.32745883
6	0xbebbf3a5	-0.36709324
7	0xbd0128ed	-0.03153317
8	0xbef1e70e	-0.47246593
9	0xbf09837b	-0.5371625
10	0xbe5ba5ee	-0.21450016
11	0xbe26b3cd	-0.16279526
12	0xbe9291e2	-0.28626925
13	0xbe194f3c	-0.14971632
14	0xbe9bf1e0	-0.30457973
15	0xbece1220	-0.40248203
16	0xbe6c766a	-0.23092046
17	0xbe08b571	-0.13350464
18	0xbe0affec	-0.13574189
19	0xbdff834f	-0.12476217
20	0xbe938df5	-0.28819242
21	0xbec71cb0	-0.38889074
22	0xbe159eda	-0.14611378
23	0xbeabe272	-0.33571202
24	0xbe9da7b5	-0.30792013
25	0xbe9e3895	-0.30902544
26	0xbe59faf7	-0.21287142
27	0xbeb520ab	-0.35376486
28	0xbefed7e2	-0.4977408
29	0xbd8f704f	-0.07003843
30	0xbd25820f	-0.040407237
31	0xbec7dab8	-0.39034057
32	0xbe98a61e	-0.29814237
33	0xbe676f8f	-0.2260115
34	0xbf029248	-0.5100446
35	0xbea5a2d4	-0.3235079
36	0xbeeaba84	-0.45845425
37	0xbe432a85	-0.19059189
38	0xbe0655d4	-0.13118678
39	0xbedf1981	-0.43574145
40	0xbe22a30b	-0.15882508
41	0xbceb2a9a	-0.028706837
42	0xbe504c1c	-0.20341533
43	0xbea9bad8	-0.33150363
44	0xbe893bb7	-0.2680337
45	0xbe81d2fa	-0.25356275
46	0xbdcba655	-0.09943835
47	0xbdd8d8bf	-0.10588216
48	0xbdfca648	-0.12336403
49	0xbe9ec7fa	-0.31011945
50	0xbed0fcab	-0.4081777
51	0xbe4a3df4	-0.19750196
52	0xbdb14830	-0.08656347
53	0xbeacffcd	-0.3378891
54	0xbe98aab5	-0.2981774
55	0xbee714a9	-0.4513295
56	0xbeaabbe1	-0.33346465
57	0xbe232af6	-0.15934357
58	0xbe9f2a24	-0.31086838
59	0xbe113755	-0.14181264
60	0xbea2e5aa	-0.31815845
61	0xbeb88403	-0.36038217
62	0xbec4d393	-0.38442668
63	0xbe1f0aad	-0.15531416
64	0xbefac3e1	-0.4897757
65	0xbe0e8b38	-0.13920295
66	0xbe303a59	-0.17209758
67	0xbeed7942	-0.46381575
68	0xbe08e682	-0.13369182
69	0xbecee6a9	-0.40410355
70	0xbe1fb6d7	-0.15597092
71	0xbe1bea14	-0.15226012
72	0xbee657ac	-0.44988763
73	0xbe318f4c	-0.1733982
74	0xbde669ca	-0.112506464
75	0xbe204174	-0.15649968
76	0xbe492d76	-0.19646248
77	0xbe30ecb6	-0.17277798
78	0xbe927051	-0.28601316
79	0xbef25cd6	-0.47336453
80	0xbe955990	-0.29169893
81	0xbe6e6ac0	-0.2328291
82	0xbe9f2735	-0.310846
83	0xbef23b43	-0.47310838
84	0xbea974cf	-0.3309693
85	0xbe5a5fc6	-0.21325597
86	0xbe4069c1	-0.18790342
87	0xbe4202ae	-0.18946335
88	0xbeaf9cd6	-0.34299344
89	0xbe001f40	-0.12511921
90	0xbe487b73	-0.19578342
91	0xbed18dc9	-0.40928486
92	0xbea47f5e	-0.32128423
93	0xbe0e9bc0	-0.13926601
94	0xbeb2a5f7	-0.34892246
95	0xbe98940c	-0.2980045
96	0xbe7d35ba	-0.24727526
97	0xbe12c1f5	-0.14331801
98	0xbe0d1bf8	-0.137802
99	0xbe8a3532	-0.2699371
100	0x3e50c94c	0.20389289
101	0x3db73a84	0.08946708
102	0xbdfcbcb2	-0.12340678
103	0x3e890424	0.26760972
104	0x3d0c815a	0.034303047
105	0xbe3a554c	-0.181966
106	0xbdfb3442	-0.12265827
107	0xbc803711	-0.015651258
108	0xbd6b0756	-0.057380043
109	0x3c99f733	0.018794632
110	0x3d86cae4	0.06581667
111	0x3d03e298	0.03219852
112	0x3e0eb799	0.13937224
113	0x3d365146	0.044511102
114	0xbda7c833	-0.08192482
115	0x3ce1a9fe	0.027546879
116	0xbcf731a3	-0.030175036
117	0x3e00c866	0.12576446
118	0x3da97b28	0.08275443
119	0xbd023954	-0.031792954
120	0x3ec4995d	0.38398257
121	0x3d37b27b	0.044847947
122	0x3c2da499	0.010598325
123	0xbd477278	-0.04869315
124	0xbdb1cd12	-0.08681692
125	0xbe79e66c	-0.24404305
126	0x3db19668	0.08671266
127	0x3df174fb	0.117898904
128	0x3d3f0a03	0.046640407
129	0x3cd77eb8	0.026305541
130	0xbc9e8e66	-0.01935501
131	0xbe505c8d	-0.20347805
132	0xbd5413c9	-0.05177668
133	0x3e09d4ab	0.13460033
134	0x3e2baeaf	0.16765855
135	0xbe0a825c	-0.1352629
136	0x3e222a20	0.15836382
137	0xbdf5b477	-0.119973116
138	0x3db2e135	0.08734361
139	0x3db90218	0.090336025
140	0x3e85b365	0.2611343
141	0x3caa6d1b	0.020803979
142	0x3e0a1718	0.13485372
143	0xbd71c8f3	-0.05902953
144	0x3de81c7f	0.1133356
145	0xbd928065	-0.071533956
146	0x3d9115d7	0.07084244
147	0x3e376f72	0.17913607
148	0xbe20730a	-0.15668884
149	0x3c505836	0.012716344
150	0xbd7be1e8	-0.061494738
151	0xbdff0d25	-0.12453679
152	0x3d9ca9ae	0.07649551
153	0x3deb2b3e	0.11482857
154	0x3d6ebe28	0.058286816
155	0x3e9fb78b	0.3119472
156	0x3e02e1fe	0.12781522
157	0x3c3afd4d	0.011412931
158	0x3d63cf92	0.055617876
159	0xbdeb423e	-0.11487244
160	0xbb67cbb5	-0.0035369222
161	0xbe1e5228	-0.15461028
162	0x3def1a69	0.11674959
163	0x3d05e4f0	0.032689035
164	0x3d366d54	0.044537857
165	0xbe26cb27	-0.16288434
166	0x3e0ddf50	0.13854718
167	0x3e2a41fd	0.16626735
168	0x3dfdf0df	0.12399458
169	0xbda65b02	-0.08122827
170	0xbe1c28a3	-0.15249877
171	0xbcac54e4	-0.021036573
172	0x3dd4b3d6	0.103858635
173	0x3d65b8ff	0.05608463
174	0xbcae4876	-0.021274786
175	0x3d851038	0.06497234
176	0x3b340f8a	0.0027475082
177	0x3e2b0f4f	0.16705059
178	0xbd9ccbff	-0.07656097
179	0xbd55d55c	-0.05220543
180	0xbd0302f9	-0.031985257
181	0x3da984c5	0.08277277
182	0x3e014f91	0.12628008
183	0x3ce1ed27	0.027578903
184	0x3e881ed0	0.26586008
185	0x3d9237e4	0.071395665
186	0xbda56843	-0.08076527
187	0x3d023578	0.031789273
188	0xbc94d577	-0.018168194
189	0x3e0f29be	0.13980767
190	0xbdb63793	-0.08897319
191	0x3de44d03	0.11147501
192	0x3e4b57f2	0.19857767
193	0x3dea853d	0.114511944
194	0xbdc5b7a4	-0.09654167
195	0xbd20af8c	-0.039229915
196	0x3db27139	0.08713002
197	0x3d832dd9	0.06405229
198	0xbd35fcb3	-0.044430446
199	0x3d3033a6	0.043018006
200	0x3e0d351b	0.1378979
201	0xbc7694f2	-0.01505016
202	0x3dc99837	0.09843486
203	0x3e2aea88	0.16691029
204	0x3da1045f	0.07862162
205	0xbd8cc152	-0.068728104
206	0xbdb96ce7	-0.090539746
207	0x3ccdd1eb	0.02512451
208	0xbd8ee826	-0.069778726
209	0x3d8f78fb	0.07005497
210	0x3d054669	0.03253785
211	0x3d02e83a	0.03195975
212	0x3dac3134	0.08407822
213	0x3c191dec	0.009345513
214	0x3d617324	0.055041447
215	0xbd8837f3	-0.066512965
216	0x3aee6e45	0.0018190822
217	0x3d8831ca	0.066501215
218	0xbd8f46fd	-0.06995962
219	0x3cf5ea60	0.030018985
220	0x3e749494	0.23884803
221	0x3c1e48ae	0.009660883
222	0x3b317878	0.0027079862
223	0x3d0b3f17	0.033995714
224	0xbd91f5f7	-0.07126992
225	0xbe1adfd6	-0.15124449
226	0xbda9ce49	-0.08291299
227	0x3d8d7690	0.069073796
228	0xbd8b9c3c	-0.06816909
229	0x3d524e62	0.051344283
230	0xbd2c13f2	-0.04201121
231	0x3dcd598b	0.100268446
232	0xbcce253c	-0.02516424
233	0xbdb928e5	-0.09041003
234	0x3dee5aca	0.116384104
235	0xbde888a2	-0.11354186
236	0xbda9b507	-0.08286481
237	0xbd8e75b7	-0.06956046
238	0xbd6d3370	-0.057910383
239	0xbd23e5dd	-0.040014137
240	0x3e4994c4	0.19685656
241	0xbd154480	-0.03644228
242	0x3d682d70	0.056683958
243	0xbd5f7570	-0.054555357
244	0xbdbfdd36	-0.093683645
245	0xbd392cc1	-0.045208696
246	0xbd76cdfd	-0.06025504
247	0xbe1f43b2	-0.15553167
248	0xbde8dba7	-0.1137002
249	0xbcf5993b	-0.029980293
250	0x3d3e29ab	0.046426456
251	0x3d23e906	0.04001715
252	0x3d095ee7	0.03353777
253	0xbd0c176e	-0.03420203
254	0xbd57b50c	-0.052662894
255	0xbe4237e9	-0.1896664

unstack2 f4 [150]
0	0xbf069eca	-0.5258604
1	0xbe9ab717	-0.3021781
2	0xbe8fbe26	-0.2807476
3	0xbeed85bd	-0.46391097
4	0xbe25da0e	-0.16196463
5	0xbe2df10d	-0.16986485
6	0xbed1d50e	-0.4098286
7	0xbea8e52b	-0.3298734
8	0xbee28681	-0.44243243
9	0xbea07576	-0.31339616
10	0xbeb98733	-0.3623596
11	0xbe7ba77c	-0.24575609
12	0xbea86d49	-0.32895878
13	0xbe736c2e	-0.23771736
14	0xbe5056d5	-0.20345624
15	0xbef5cf9b	-0.48009953
16	0xbe2766ab	-0.16347758
17	0xbeb42158	-0.3518169
18	0xbeddef76	-0.43346757
19	0xbf079a64	-0.52969956
20	0xbea10177	-0.3144643
21	0xbec817f2	-0.3908077
22	0xbe9fc6bc	-0.3120631
23	0xbefb5813	-0.49090633
24	0xbf0c9f47	-0.5493054
25	0xbeeaf726	-0.45891684
26	0xbe9c0455	-0.30472055
27	0xbefc211c	-0.4924401
28	0xbe2f2f7c	-0.17107958
29	0xbe9258c9	-0.28583363
30	0xbe864ccb	-0.26230463
31	0xbe9597e8	-0.29217458
32	0xbee9ec58	-0.45688128
33	0xbeacba25	-0.33735767
34	0xbeb1f5e6	-0.34757918
35	0xbe9245b0	-0.28568792
36	0xbe27fd40	-0.16405201
37	0xbd86bd02	-0.06579019
38	0xbe4e4425	-0.20143183
39	0xbe1866b0	-0.14882922
40	0xbe01e6ed	-0.12685747
41	0xbea856e9	-0.32878807
42	0xbe919e38	-0.28441024
43	0xbed0c915	-0.40778413
44	0xbedc7749	-0.43059757
45	0xbead0339	-0.3379152
46	0xbe557ce0	-0.20848417
47	0xbf1c8326	-0.61137617
48	0xbe9e2be1	-0.30892852
49	0xbe929fdd	-0.2863759
50	0x3d89a18a	0.06720264
51	0x3eab9a96	0.33516377
52	0xbd37daf2	-0.044886537
53	0x3e1df077	0.15423761
54	0x3ded5bbd	0.11589763
55	0xbd948ebc	-0.07253787
56	0x3d93a9d7	0.07210129
57	0x3dd6472b	0.10462793
58	0x3e5edb58	0.2176336
59	0x3d54d605	0.051961917
60	0x3d210fd3	0.03932173
61	0x3d0adca6	0.033901833
62	0x3d93e1dc	0.07220814
63	0x3d8a7b28	0.067617714
64	0x3d85580e	0.06510936
65	0x3e821b98	0.25411677
66	0xbcdca4ba	-0.026934016
67	0x3ea37764	0.31927025
68	0xbc44344a	-0.011975357
69	0x3c863678	0.016383395
70	0xbd9cdb34	-0.07658997
71	0xbc94813a	-0.018128026
72	0x3d351c9a	0.04421673
73	0x3d028289	0.03186277
74	0xbd981488	-0.07425791
75	0x3e825231	0.25453332
76	0x3e15bd44	0.1462298
77	0xbc724aab	-0.01478831
78	0x3cb2de04	0.02183438
79	0x3ce4dceb	0.027937373
80	0x3d5f24f4	0.0544786
81	0x3e0afe0d	0.13573475
82	0xbd0d04c2	-0.034428366
83	0x3e50cf48	0.20391572
84	0x3d58f8c1	0.052971605
85	0x3ea78122	0.32715708
86	0x3e02951a	0.1275219
87	0x3d71dc01	0.059047703
88	0x3d4a36c0	0.04936862
89	0x3ce1e7c3	0.027576333
90	0x3e65f425	0.22456415
91	0x3e336037	0.17517172
92	0x3d260405	0.040531177
93	0x3ce47515	0.02788786
94	0xbd2025ac	-0.039098427
95	0x3e29fe7a	0.16600981
96	0xbd8d0a54	-0.068867356
97	0x3e62ccc6	0.22148427
98	0xbd926814	-0.071487576
99	0xbc90a21c	-0.017655425
100	0xbe5cc9a3	-0.21561293
101	0x3f0050c9	0.5012327
102	0x3e17aec9	0.14812769
103	0x3eba7b07	0.36421987
104	0xbe83f13b	-0.25769982
105	0xbdebecb6	-0.115197584
106	0x3e41bb19	0.18919028
107	0xbebd6a62	-0.36995226
108	0x3edcf20c	0.43153417
109	0x3e3619a6	0.17783222
110	0xbe663251	-0.22480132
111	0x3e08e53d	0.13368697
112	0x3e932be4	0.28744423
113	0x3e03cbfe	0.12870786
114	0xbe8e16b0	-0.27751684
115	0xbef16592	-0.47147804
116	0xbda41aa1	-0.080128916
117	0x3efe99dc	0.4972676
118	0xbe33367e	-0.17501256
119	0xbe27181a	-0.16317788
120	0xbe06dab8	-0.13169372
121	0xbe41ddc8	-0.18932259
122	0x3e405c13	0.18785124
123	0xbe0f0c27	-0.1396948
124	0xbe4f16a9	-0.20223488
125	0xbf1642ca	-0.5869566
126	0x3e97d597	0.29655144
127	0xbe509b25	-0.20371683
128	0xbe83ca3e	-0.25740236
129	0xbe7b46b9	-0.24538697
130	0x3e402475	0.18763907
131	0x3e5caf18	0.21551168
132	0xbe16d00f	-0.14727806
133	0x3ed1dbb5	0.40987936
134	0xbe246e5e	-0.16057727
135	0xbee3ca39	-0.4449022
136	0x3e67b9d5	0.22629483
137	0xbe0763c4	-0.13221651
138	0x3e48cc8c	0.19609278
139	0x3e9037fd	0.28167716
140	0xbeaa2f1d	-0.3323907
141	0xbe8b167e	-0.27165598
142	0x3e63b938	0.22238624
143	0xbe047a25	-0.1293722
144	0xbda86d23	-0.08223941
145	0x3e9474b8	0.289953
146	0xbd20b6fb	-0.039237004
147	0xbeb8a85e	-0.36065954
148	0x3e1d473d	0.15359206
149	0xbe205f1a	-0.15661278

unstack3 f4 [150]
0	0xbf069eca	-0.5258604
1	0xbe9ab717	-0.3021781
2	0xbe8fbe26	-0.2807476
3	0xbeed85bd	-0.46391097
4	0xbe25da0e	-0.16196463
5	0xbe2df10d	-0.16986485
6	0xbed1d50e	-0.4098286
7	0xbea8e52b	-0.3298734
8	0xbee28681	-0.44243243
9	0xbea07576	-0.31339616
10	0xbeb98733	-0.3623596
11	0xbe7ba77c	-0.24575609
12	0xbea86d49	-0.32895878
13	0xbe736c2e	-0.23771736
14	0xbe5056d5	-0.20345624
15	0xbef5cf9b	-0.48009953
16	0xbe2766ab	-0.16347758
17	0xbeb42158	-0.3518169
18	0xbeddef76	-0.43346757
19	0xbf079a64	-0.52969956
20	0xbea10177	-0.3144643
21	0xbec817f2	-0.3908077
22	0xbe9fc6bc	-0.3120631
23	0xbefb5813	-0.49090633
24	0xbf0c9f47	-0.5493054
25	0xbeeaf726	-0.45891684
26	0xbe9c0455	-0.30472055
27	0xbefc211c	-0.4924401
28	0xbe2f2f7c	-0.17107958
29	0xbe9258c9	-0.28583363
30	0xbe864ccb	-0.26230463
31	0xbe9597e8	-0.29217458
32	0xbee9ec58	-0.45688128
33	0xbeacba25	-0.33735767
34	0xbeb1f5e6	-0.34757918
35	0xbe9245b0	-0.28568792
36	0xbe27fd40	-0.16405201
37	0xbd86bd02	-0.06579019
38	0xbe4e4425	-0.20143183
39	0xbe1866b0	-0.14882922
40	0xbe01e6ed	-0.12685747
41	0xbea856e9	-0.32878807
42	0xbe919e38	-0.28441024
43	0xbed0c915	-0.40778413
44	0xbedc7749	-0.43059757
45	0xbead0339	-0.3379152
46	0xbe557ce0	-0.20848417
47	0xbf1c8326	-0.61137617
48	0xbe9e2be1	-0.30892852
49	0xbe929fdd	-0.2863759
50	0x3d89a18a	0.06720264
51	0x3eab9a96	0.33516377
52	0xbd37daf2	-0.044886537
53	0x3e1df077	0.15423761
54	0x3ded5bbd	0.11589763
55	0xbd948ebc	-0.07253787
56	0x3d93a9d7	0.07210129
57	0x3dd6472b	0.10462793
58	0x3e5edb58	0.2176336
59	0x3d54d605	0.051961917
60	0x3d210fd3	0.03932173
61	0x3d0adca6	0.033901833
62	0x3d93e1dc	0.07220814
63	0x3d8a7b28	0.067617714
64	0x3d85580e	0.06510936
65	0x3e821b98	0.25411677
66	0xbcdca4ba	-0.026934016
67	0x3ea37764	0.31927025
68	0xbc44344a	-0.011975357
69	0x3c863678	0.016383395
70	0xbd9cdb34	-0.07658997
71	0xbc94813a	-0.018128026
72	0x3d351c9a	0.04421673
73	0x3d028289	0.03186277
74	0xbd981488	-0.07425791
75	0x3e825231	0.25453332
76	0x3e15bd44	0.1462298
77	0xbc724aab	-0.01478831
78	0x3cb2de04	0.02183438
79	0x3ce4dceb	0.027937373
80	0x3d5f24f4	0.0544786
81	0x3e0afe0d	0.13573475
82	0xbd0d04c2	-0.034428366
83	0x3e50cf48	0.20391572
84	0x3d58f8c1	0.052971605
85	0x3ea78122	0.32715708
86	0x3e02951a	0.1275219
87	0x3d71dc01	0.059047703
88	0x3d4a36c0	0.04936862
89	0x3ce1e7c3	0.027576333
90	0x3e65f425	0.22456415
91	0x3e336037	0.17517172
92	0x3d260405	0.040531177
93	0x3ce47515	0.02788786
94	0xbd2025ac	-0.039098427
95	0x3e29fe7a	0.16600981
96	0xbd8d0a54	-0.068867356
97	0x3e62ccc6	0.22148427
98	0xbd926814	-0.071487576
99	0xbc90a21c	-0.017655425
100	0xbcfbc2f9	-0.030732619
101	0x3e91fe62	0.2851439
102	0xbd369d55	-0.044583637
103	0x3e0d2b44	0.13786036
104	0xbdd1d895	-0.10246388
105	0x3d274e17	0.040845957
106	0x3d830c68	0.06398851
107	0xbdb9bd24	-0.09069279
108	0x3e53084d	0.20608635
109	0x3cd2755f	0.025690733
110	0xbcf68248	-0.03009142
111	0x3db42a54	0.08797136
112	0x3dc8f694	0.09812656
113	0x3d15129a	0.036394693
114	0xbdcb2d09	-0.09920699
115	0xbe893c35	-0.26803747
116	0xbad5791e	-0.0016286706
117	0x3e89d752	0.2692209
118	0x3b5182c8	0.003196882
119	0x3adb5875	0.0016734736
120	0x3d5faa4f	0.05460578
121	0x3d598e49	0.05311421
122	0xbc4d5419	-0.0125322575
123	0xbd673ceb	-0.05645458
124	0x3c162688	0.00916446
125	0xbe5002e4	-0.20313603
126	0x3e160ed8	0.146541
127	0xbd422fb2	-0.047408767
128	0x3d00bb8d	0.031428862
129	0xbd41fcd2	-0.04736025
130	0x3d746f5e	0.05967652
131	0x3dda478a	0.10658176
132	0x3c94e4fe	0.018175598
133	0x3e4a2204	0.19739538
134	0xbd31ad91	-0.043378416
135	0xbe868d44	-0.26279652
136	0x3dba0a70	0.09084022
137	0xbe1fb4a9	-0.1559626
138	0x3d39d2b4	0.045366958
139	0xbcdac533	-0.02670536
140	0xbe36517e	-0.17804524
141	0xbe0f3e1d	-0.13988538
142	0x3c9821c9	0.018570798
143	0xbd6f9050	-0.058487236
144	0xbc4d8275	-0.01254331
145	0x3e226a0b	0.15860765
146	0x3cda2e3a	0.02663337
147	0xbe5c49a0	-0.2151246
148	0xbd8bff76	-0.06835835
149	0x3b18d1ff	0.0023318527

sequential/dense/MatMul i1 [25, 100] scale=0.0072241165 zero_point=0
0	0x01	0.0072241165
1	0xe1	-0.22394761
2	0xdc	-0.26006818
3	0xc3	-0.44067112
4	0xed	-0.13725822
5	0x1f	0.22394761
6	0xe1	-0.22394761
7	0x0b	0.079465285
8	0xdd	-0.25284407
9	0x2e	0.33230937
10	0x2f	0.33953348
11	0x01	0.0072241165
12	0x19	0.18060291
13	0x03	0.02167235
14	0x2f	0.33953348
15	0x27	0.28174055
16	0xf2	-0.10113763
17	0xb9	-0.5129123
18	0xf6	-0.072241165
19	0x0e	0.10113763
20	0xde	-0.24561995
21	0xb8	-0.52013636
22	0x12	0.13003409
23	0xe1	-0.22394761
24	0xe2	-0.2167235
25	0xed	-0.13725822
26	0x3a	0.41899875
27	0x06	0.0433447
28	0x42	0.47679168
29	0x2a	0.30341288
30	0xe1	-0.22394761
31	0xf0	-0.11558586
32	0xbe	-0.47679168
33	0x21	0.23839584
34	0xeb	-0.15170644
35	0xda	-0.27451643
36	0x3a	0.41899875
37	0x21	0.23839584
38	0xcf	-0.3539817
39	0x24	0.26006818
40	0xe1	-0.22394761
41	0x26	0.27451643
42	0x4e	0.5634811
43	0xd9	-0.28174055
44	0xed	-0.13725822
45	0x26	0.27451643
46	0xe5	-0.19505115
47	0x4c	0.54903287
48	0xcd	-0.36842993
49	0xd6	-0.30341288
50	0x10	0.11558586
51	0xd2	-0.33230937
52	0xe6	-0.18782702
53	0x36	0.3901023
54	0x16	0.15893057
55	0x03	0.02167235
56	0x1a	0.18782702
57	0x0c	0.0866894
58	0x04	0.028896466
59	0x20	0.23117173
60	0xc3	-0.44067112
61	0xc9	-0.3973264
62	0xeb	-0.15170644
63	0xce	-0.36120582
64	0x29	0.29618877
65	0xed	-0.13725822
66	0x2e	0.33230937
67	0xa7	-0.64294636
68	0x01	0.0072241165
69	0x12	0.13003409
70	0xdc	-0.26006818
71	0x05	0.036120582
72	0xe7	-0.18060291
73	0x35	0.38287818
74	0xfc	-0.028896466
75	0xf3	-0.09391351
76	0x18	0.1733788
77	0xf8	-0.05779293
78	0x06	0.0433447
79	0x28	0.28896466
80	0xd5	-0.310637
81	0xfd	-0.02167235
82	0x00	0.0
83	0x13	0.13725822
84	0xf3	-0.09391351
85	0xf9	-0.050568815
86	0xed	-0.13725822
87	0xba	-0.50568813
88	0xdf	-0.23839584
89	0x28	0.28896466
90	0xec	-0.14448233
91	0xc6	-0.41899875
92	0xf5	-0.079465285
93	0xe7	-0.18060291
94	0xe2	-0.2167235
95	0x15	0.15170644
96	0x02	0.014448233
97	0x2c	0.31786114
98	0xee	-0.13003409
99	0x3b	0.42622286
100	0xcc	-0.37565404
101	0x1e	0.2167235
102	0xc9	-0.3973264
103	0x1b	0.19505115
104	0xda	-0.27451643
105	0xd6	-0.30341288
106	0xfd	-0.02167235
107	0xf8	-0.05779293
108	0x32	0.36120582
109	0xbc	-0.4912399
110	0x20	0.23117173
111	0x2d	0.32508525
112	0x2b	0.310637
113	0xea	-0.15893057
114	0xbb	-0.49846405
115	0xe8	-0.1733788
116	0xe0	-0.23117173
117	0x12	0.13003409
118	0x1e	0.2167235
119	0xa6	-0.6501705
120	0x2f	0.33953348
121	0x0b	0.079465285
122	0x3d	0.44067112
123	0xde	-0.24561995
124	0x3c	0.433447
125	0x30	0.3467576
126	0xf3	-0.09391351
127	0x21	0.23839584
128	0xfa	-0.0433447
129	0xd5	-0.310637
130	0xfd	-0.02167235
131	0x2b	0.310637
132	0x30	0.3467576
133	0xed	-0.13725822
134	0x06	0.0433447
135	0xed	-0.13725822
136	0x2a	0.30341288
137	0xfc	-0.028896466
138	0x26	0.27451643
139	0x10	0.11558586
140	0x2c	0.31786114
141	0xb0	-0.5779293
142	0xfe	-0.014448233
143	0x35	0.38287818
144	0x15	0.15170644
145	0x1d	0.20949937
146	0x3f	0.45511934
147	0xe6	-0.18782702
148	0xe8	-0.1733788
149	0x28	0.28896466
150	0xad	-0.5996017
151	0x4a	0.53458464
152	0xed	-0.13725822
153	0x14	0.14448233
154	0x02	0.014448233
155	0x5b	0.6573946
156	0x33	0.36842993
157	0x26	0.27451643
158	0x1a	0.18782702
159	0xfe	-0.014448233
160	0x4c	0.54903287
161	0x10	0.11558586
162	0xdf	-0.23839584
163	0xf1	-0.10836175
164	0xad	-0.5996017
165	0xcb	-0.38287818
166	0xd8	-0.28896466
167	0xfd	-0.02167235
168	0x2a	0.30341288
169	0xdf	-0.23839584
170	0x4b	0.5418087
171	0x07	0.050568815
172	0x36	0.3901023
173	0xc8	-0.40455052
174	0x0e	0.10113763
175	0xfc	-0.028896466
176	0x16	0.15893057
177	0xdf	-0.23839584
178	0xeb	-0.15170644
179	0x3d	0.44067112
180	0x0a	0.072241165
181	0x06	0.0433447
182	0xe2	-0.2167235
183	0xec	-0.14448233
184	0xd5	-0.310637
185	0x01	0.0072241165
186	0x17	0.16615468
187	0xe6	-0.18782702
188	0xf8	-0.05779293
189	0x19	0.18060291
190	0x4b	0.5418087
191	0x10	0.11558586
192	0x38	0.40455052
193	0xe9	-0.16615468
194	0xfe	-0.014448233
195	0xbd	-0.4840158
196	0xd6	-0.30341288
197	0xf1	-0.10836175
198	0x48	0.52013636
199	0xf5	-0.079465285
200	0xdc	-0.26006818
201	0xe7	-0.18060291
202	0x07	0.050568815
203	0x0c	0.0866894
204	0x16	0.15893057
205	0x0a	0.072241165
206	0x21	0.23839584
207	0x11	0.12280998
208	0x2e	0.33230937
209	0xe3	-0.20949937
210	0xb1	-0.5707052
211	0xca	-0.3901023
212	0xff	-0.0072241165
213	0x1d	0.20949937
214	0xe4	-0.20227526
215	0xd3	-0.32508525
216	0x4b	0.5418087
217	0x1f	0.22394761
218	0x35	0.38287818
219	0xd3	-0.32508525
220	0xeb	-0.15170644
221	0x2a	0.30341288
222	0x18	0.1733788
223	0xe5	-0.19505115
224	0x19	0.18060291
225	0xfb	-0.036120582
226	0x12	0.13003409
227	0x12	0.13003409
228	0x25	0.26729232
229	0x19	0.18060291
230	0xd8	-0.28896466
231	0xee	-0.13003409
232	0x27	0.28174055
233	0xe3	-0.20949937
234	0xde	-0.24561995
235	0x17	0.16615468
236	0x30	0.3467576
237	0xe5	-0.19505115
238	0x29	0.29618877
239	0x1e	0.2167235
240	0xdf	-0.23839584
241	0x56	0.621274
242	0xd1	-0.33953348
243	0x06	0.0433447
244	0x01	0.0072241165
245	0x25	0.26729232
246	0x17	0.16615468
247	0xef	-0.12280998
248	0x3e	0.44789523
249	0x31	0.3539817
250	0x50	0.5779293
251	0xf0	-0.11558586
252	0xbc	-0.4912399
253	0xff	-0.0072241165
254	0x19	0.18060291
255	0x09	0.065017045

unstack4 f4 [150]
0	0xbf069eca	-0.5258604
1	0xbe9ab717	-0.3021781
2	0xbe8fbe26	-0.2807476
3	0xbeed85bd	-0.46391097
4	0xbe25da0e	-0.16196463
5	0xbe2df10d	-0.16986485
6	0xbed1d50e	-0.4098286
7	0xbea8e52b	-0.3298734
8	0xbee28681	-0.44243243
9	0xbea07576	-0.31339616
10	0xbeb98733	-0.3623596
11	0xbe7ba77c	-0.24575609
12	0xbea86d49	-0.32895878
13	0xbe736c2e	-0.23771736
14	0xbe5056d5	-0.20345624
15	0xbef5cf9b	-0.48009953
16	0xbe2766ab	-0.16347758
17	0xbeb42158	-0.3518169
18	0xbeddef76	-0.43346757
19	0xbf079a64	-0.52969956
20	0xbea10177	-0.3144643
21	0xbec817f2	-0.3908077
22	0xbe9fc6bc	-0.3120631
23	0xbefb5813	-0.49090633
24	0xbf0c9f47	-0.5493054
25	0xbeeaf726	-0.45891684
26	0xbe9c0455	-0.30472055
27	0xbefc211c	-0.4924401
28	0xbe2f2f7c	-0.17107958
29	0xbe9258c9	-0.28583363
30	0xbe864ccb	-0.26230463
31	0xbe9597e8	-0.29217458
32	0xbee9ec58	-0.45688128
33	0xbeacba25	-0.33735767
34	0xbeb1f5e6	-0.34757918
35	0xbe9245b0	-0.28568792
36	0xbe27fd40	-0.16405201
37	0xbd86bd02	-0.06579019
38	0xbe4e4425	-0.20143183
39	0xbe1866b0	-0.14882922
40	0xbe01e6ed	-0.12685747
41	0xbea856e9	-0.32878807
42	0xbe919e38	-0.28441024
43	0xbed0c915	-0.40778413
44	0xbedc7749	-0.43059757
45	0xbead0339	-0.3379152
46	0xbe557ce0	-0.20848417
47	0xbf1c8326	-0.61137617
48	0xbe9e2be1	-0.30892852
49	0xbe929fdd	-0.2863759
50	0x3d89a18a	0.06720264
51	0x3eab9a96	0.33516377
52	0xbd37daf2	-0.044886537
53	0x3e1df077	0.15423761
54	0x3ded5bbd	0.11589763
55	0xbd948ebc	-0.07253787
56	0x3d93a9d7	0.07210129
57	0x3dd6472b	0.10462793
58	0x3e5edb58	0.2176336
59	0x3d54d605	0.051961917
60	0x3d210fd3	0.03932173
61	0x3d0adca6	0.033901833
62	0x3d93e1dc	0.07220814
63	0x3d8a7b28	0.067617714
64	0x3d85580e	0.06510936
65	0x3e821b98	0.25411677
66	0xbcdca4ba	-0.026934016
67	0x3ea37764	0.31927025
68	0xbc44344a	-0.011975357
69	0x3c863678	0.016383395
70	0xbd9cdb34	-0.07658997
71	0xbc94813a	-0.018128026
72	0x3d351c9a	0.04421673
73	0x3d028289	0.03186277
74	0xbd981488	-0.07425791
75	0x3e825231	0.25453332
76	0x3e15bd44	0.1462298
77	0xbc724aab	-0.01478831
78	0x3cb2de04	0.02183438
79	0x3ce4dceb	0.027937373
80	0x3d5f24f4	0.0544786
81	0x3e0afe0d	0.13573475
82	0xbd0d04c2	-0.034428366
83	0x3e50cf48	0.20391572
84	0x3d58f8c1	0.052971605
85	0x3ea78122	0.32715708
86	0x3e02951a	0.1275219
87	0x3d71dc01	0.059047703
88	0x3d4a36c0	0.04936862
89	0x3ce1e7c3	0.027576333
90	0x3e65f425	0.22456415
91	0x3e336037	0.17517172
92	0x3d260405	0.040531177
93	0x3ce47515	0.02788786
94	0xbd2025ac	-0.039098427
95	0x3e29fe7a	0.16600981
96	0xbd8d0a54	-0.068867356
97	0x3e62ccc6	0.22148427
98	0xbd926814	-0.071487576
99	0xbc90a21c	-0.017655425
100	0xbcfbc2f9	-0.030732619
101	0x3e91fe62	0.2851439
102	0xbd369d55	-0.044583637
103	0x3e0d2b44	0.13786036
104	0xbdd1d895	-0.10246388
105	0x3d274e17	0.040845957
106	0x3d830c68	0.06398851
107	0xbdb9bd24	-0.09069279
108	0x3e53084d	0.20608635
109	0x3cd2755f	0.025690733
110	0xbcf68248	-0.03009142
111	0x3db42a54	0.08797136
112	0x3dc8f694	0.09812656
113	0x3d15129a	0.036394693
114	0xbdcb2d09	-0.09920699
115	0xbe893c35	-0.26803747
116	0xbad5791e	-0.0016286706
117	0x3e89d752	0.2692209
118	0x3b5182c8	0.003196882
119	0x3adb5875	0.0016734736
120	0x3d5faa4f	0.05460578
121	0x3d598e49	0.05311421
122	0xbc4d5419	-0.0125322575
123	0xbd673ceb	-0.05645458
124	0x3c162688	0.00916446
125	0xbe5002e4	-0.20313603
126	0x3e160ed8	0.146541
127	0xbd422fb2	-0.047408767
128	0x3d00bb8d	0.031428862
129	0xbd41fcd2	-0.04736025
130	0x3d746f5e	0.05967652
131	0x3dda478a	0.10658176
132	0x3c94e4fe	0.018175598
133	0x3e4a2204	0.19739538
134	0xbd31ad91	-0.043378416
135	0xbe868d44	-0.26279652
136	0x3dba0a70	0.09084022
137	0xbe1fb4a9	-0.1559626
138	0x3d39d2b4	0.045366958
139	0xbcdac533	-0.02670536
140	0xbe36517e	-0.17804524
141	0xbe0f3e1d	-0.13988538
142	0x3c9821c9	0.018570798
143	0xbd6f9050	-0.058487236
144	0xbc4d8275	-0.01254331
145	0x3e226a0b	0.15860765
146	0x3cda2e3a	0.02663337
147	0xbe5c49a0	-0.2151246
148	0xbd8bff76	-0.06835835
149	0x3b18d1ff	0.0023318527

unstack5 f4 [150]
0	0xbf069eca	-0.5258604
1	0xbe9ab717	-0.3021781
2	0xbe8fbe26	-0.2807476
3	0xbeed85bd	-0.46391097
4	0xbe25da0e	-0.16196463
5	0xbe2df10d	-0.16986485
6	0xbed1d50e	-0.4098286
7	0xbea8e52b	-0.3298734
8	0xbee28681	-0.44243243
9	0xbea07576	-0.31339616
10	0xbeb98733	-0.3623596
11	0xbe7ba77c	-0.24575609
12	0xbea86d49	-0.32895878
13	0xbe736c2e	-0.23771736
14	0xbe5056d5	-0.20345624
15	0xbef5cf9b	-0.48009953
16	0xbe2766ab	-0.16347758
17	0xbeb42158	-0.3518169
18	0xbeddef76	-0.43346757
19	0xbf079a64	-0.52969956
20	0xbea10177	-0.3144643
21	0xbec817f2	-0.3908077
22	0xbe9fc6bc	-0.3120631
23	0xbefb5813	-0.49090633
24	0xbf0c9f47	-0.5493054
25	0xbeeaf726	-0.45891684
26	0xbe9c0455	-0.30472055
27	0xbefc211c	-0.4924401
28	0xbe2f2f7c	-0.17107958
29	0xbe9258c9	-0.28583363
30	0xbe864ccb	-0.26230463
31	0xbe9597e8	-0.29217458
32	0xbee9ec58	-0.45688128
33	0xbeacba25	-0.33735767
34	0xbeb1f5e6	-0.34757918
35	0xbe9245b0	-0.28568792
36	0xbe27fd40	-0.16405201
37	0xbd86bd02	-0.06579019
38	0xbe4e4425	-0.20143183
39	0xbe1866b0	-0.14882922
40	0xbe01e6ed	-0.12685747
41	0xbea856e9	-0.32878807
42	0xbe919e38	-0.28441024
43	0xbed0c915	-0.40778413
44	0xbedc7749	-0.43059757
45	0xbead0339	-0.3379152
46	0xbe557ce0	-0.20848417
47	0xbf1c8326	-0.61137617
48	0xbe9e2be1	-0.30892852
49	0xbe929fdd	-0.2863759
50	0x3d89a18a	0.06720264
51	0x3eab9a96	0.33516377
52	0xbd37daf2	-0.044886537
53	0x3e1df077	0.15423761
54	0x3ded5bbd	0.11589763
55	0xbd948ebc	-0.07253787
56	0x3d93a9d7	0.07210129
57	0x3dd6472b	0.10462793
58	0x3e5edb58	0.2176336
59	0x3d54d605	0.051961917
60	0x3d210fd3	0.03932173
61	0x3d0adca6	0.033901833
62	0x3d93e1dc	0.07220814
63	0x3d8a7b28	0.067617714
64	0x3d85580e	0.06510936
65	0x3e821b98	0.25411677
66	0xbcdca4ba	-0.026934016
67	0x3ea37764	0.31927025
68	0xbc44344a	-0.011975357
69	0x3c863678	0.016383395
70	0xbd9cdb34	-0.07658997
71	0xbc94813a	-0.018128026
72	0x3d351c9a	0.04421673
73	0x3d028289	0.03186277
74	0xbd981488	-0.07425791
75	0x3e825231	0.25453332
76	0x3e15bd44	0.1462298
77	0xbc724aab	-0.01478831
78	0x3cb2de04	0.02183438
79	0x3ce4dceb	0.027937373
80	0x3d5f24f4	0.0544786
81	0x3e0afe0d	0.13573475
82	0xbd0d04c2	-0.034428366
83	0x3e50cf48	0.20391572
84	0x3d58f8c1	0.052971605
85	0x3ea78122	0.32715708
86	0x3e02951a	0.1275219
87	0x3d71dc01	0.059047703
88	0x3d4a36c0	0.04936862
89	0x3ce1e7c3	0.027576333
90	0x3e65f425	0.22456415
91	0x3e336037	0.17517172
92	0x3d260405	0.040531177
93	0x3ce47515	0.02788786
94	0xbd2025ac	-0.039098427
95	0x3e29fe7a	0.16600981
96	0xbd8d0a54	-0.068867356
97	0x3e62ccc6	0.22148427
98	0xbd926814	-0.071487576
99	0xbc90a21c	-0.017655425
100	0xbe5cc9a3	-0.21561293
101	0x3f0050c9	0.5012327
102	0x3e17aec9	0.14812769
103	0x3eba7b07	0.36421987
104	0xbe83f13b	-0.25769982
105	0xbdebecb6	-0.115197584
106	0x3e41bb19	0.18919028
107	0xbebd6a62	-0.36995226
108	0x3edcf20c	0.43153417
109	0x3e3619a6	0.17783222
110	0xbe663251	-0.22480132
111	0x3e08e53d	0.13368697
112	0x3e932be4	0.28744423
113	0x3e03cbfe	0.12870786
114	0xbe8e16b0	-0.27751684
115	0xbef16592	-0.47147804
116	0xbda41aa1	-0.080128916
117	0x3efe99dc	0.4972676
118	0xbe33367e	-0.17501256
119	0xbe27181a	-0.16317788
120	0xbe06dab8	-0.13169372
121	0xbe41ddc8	-0.18932259
122	0x3e405c13	0.18785124
123	0xbe0f0c27	-0.1396948
124	0xbe4f16a9	-0.20223488
125	0xbf1642ca	-0.5869566
126	0x3e97d597	0.29655144
127	0xbe509b25	-0.20371683
128	0xbe83ca3e	-0.25740236
129	0xbe7b46b9	-0.24538697
130	0x3e402475	0.18763907
131	0x3e5caf18	0.21551168
132	0xbe16d00f	-0.14727806
133	0x3ed1dbb5	0.40987936
134	0xbe246e5e	-0.16057727
135	0xbee3ca39	-0.4449022
136	0x3e67b9d5	0.22629483
137	0xbe0763c4	-0.13221651
138	0x3e48cc8c	0.19609278
139	0x3e9037fd	0.28167716
140	0xbeaa2f1d	-0.3323907
141	0xbe8b167e	-0.27165598
142	0x3e63b938	0.22238624
143	0xbe047a25	-0.1293722
144	0xbda86d23	-0.08223941
145	0x3e9474b8	0.289953
146	0xbd20b6fb	-0.039237004
147	0xbeb8a85e	-0.36065954
148	0x3e1d473d	0.15359206
149	0xbe205f1a	-0.15661278

while/MatMul_1 i1 [150, 50] scale=0.0024218066 zero_point=0
0	0xef	-0.041170713
1	0xef	-0.041170713
2	0xf2	-0.03390529
3	0x04	0.009687226
4	0x10	0.038748905
5	0x15	0.05085794
6	0xe1	-0.07507601
7	0x17	0.05570155
8	0xdf	-0.079919614
9	0x22	0.082341425
10	0x1a	0.06296697
11	0xef	-0.041170713
12	0xfa	-0.014530839
13	0x21	0.079919614
14	0x0d	0.031483486
15	0xd5	-0.10413768
16	0x19	0.060545165
17	0xfd	-0.0072654197
18	0x32	0.12109033
19	0xed	-0.046014324
20	0xfd	-0.0072654197
21	0x31	0.11866852
22	0xe6	-0.06296697
23	0x45	0.16710465
24	0x24	0.08718504
25	0x17	0.05570155
26	0x21	0.079919614
27	0xfa	-0.014530839
28	0xf8	-0.019374453
29	0xdf	-0.079919614
30	0xe7	-0.060545165
31	0x26	0.09202865
32	0xfc	-0.009687226
33	0xf4	-0.029061679
34	0xea	-0.053279743
35	0x01	0.0024218066
36	0xbe	-0.15983923
37	0xfd	-0.0072654197
38	0xe4	-0.06781058
39	0x06	0.014530839
40	0xf8	-0.019374453
41	0x07	0.016952645
42	0x22	0.082341425
43	0x30	0.116246715
44	0x40	0.15499562
45	0x1c	0.06781058
46	0xf0	-0.038748905
47	0x0b	0.026639871
48	0xe8	-0.058123358
49	0x33	0.123512134
50	0x31	0.11866852
51	0xe9	-0.05570155
52	0x07	0.016952645
53	0x27	0.09445046
54	0x0e	0.03390529
55	0xba	-0.16952646
56	0x0b	0.026639871
57	0x4d	0.1864791
58	0x01	0.0024218066
59	0xe2	-0.072654195
60	0x27	0.09445046
61	0x17	0.05570155
62	0x56	0.20827536
63	0x04	0.009687226
64	0xee	-0.04359252
65	0xf3	-0.031483486
66	0x09	0.02179626
67	0xaa	-0.20827536
68	0x23	0.08476323
69	0xf1	-0.036327098
70	0x26	0.09202865
71	0x13	0.046014324
72	0x09	0.02179626
73	0x0b	0.026639871
74	0x27	0.09445046
75	0xca	-0.13077755
76	0xf6	-0.024218066
77	0x1f	0.07507601
78	0x39	0.13804297
79	0x16	0.053279743
80	0x2d	0.1089813
81	0x19	0.060545165
82	0x1c	0.06781058
83	0x0f	0.036327098
84	0x0f	0.036327098
85	0xf3	-0.031483486
86	0xe5	-0.06538878
87	0x4c	0.1840573
88	0xda	-0.09202865
89	0xf2	-0.03390529
90	0xfa	-0.014530839
91	0x22	0.082341425
92	0x27	0.09445046
93	0x05	0.012109033
94	0x25	0.089606844
95	0x02	0.004843613
96	0x38	0.13562116
97	0x15	0.05085794
98	0x01	0.0024218066
99	0x10	0.038748905
100	0xd9	-0.09445046
101	0x0c	0.029061679
102	0x02	0.004843613
103	0xdb	-0.089606844
104	0xef	-0.041170713
105	0xf8	-0.019374453
106	0x1f	0.07507601
107	0xf8	-0.019374453
108	0x35	0.12835574
109	0x07	0.016952645
110	0xe7	-0.060545165
111	0xf0	-0.038748905
112	0xe8	-0.058123358
113	0x0d	0.031483486
114	0x0b	0.026639871
115	0x1b	0.06538878
116	0x02	0.004843613
117	0x16	0.053279743
118	0x28	0.09687226
119	0x08	0.019374453
120	0x3b	0.1428866
121	0xdc	-0.08718504
122	0xb8	-0.17437008
123	0xfe	-0.004843613
124	0x02	0.004843613
125	0xc3	-0.1477302
126	0x1f	0.07507601
127	0x00	0.0
128	0xed	-0.046014324
129	0xbd	-0.16226104
130	0x0c	0.029061679
131	0x02	0.004843613
132	0x35	0.12835574
133	0xfe	-0.004843613
134	0x34	0.12593395
135	0xcb	-0.12835574
136	0xf9	-0.016952645
137	0x0e	0.03390529
138	0x2f	0.11382491
139	0xf8	-0.019374453
140	0xea	-0.053279743
141	0x21	0.079919614
142	0x22	0.082341425
143	0x24	0.08718504
144	0x47	0.17194827
145	0xf1	-0.036327098
146	0x04	0.009687226
147	0x07	0.016952645
148	0x22	0.082341425
149	0xa1	-0.23007162
150	0xe9	-0.05570155
151	0xe4	-0.06781058
152	0xfe	-0.004843613
153	0x1d	0.07023239
154	0xf9	-0.016952645
155	0xfa	-0.014530839
156	0xdd	-0.08476323
157	0x0b	0.026639871
158	0xc3	-0.1477302
159	0xf8	-0.019374453
160	0x45	0.16710465
161	0x12	0.04359252
162	0x03	0.0072654197
163	0xeb	-0.05085794
164	0x01	0.0024218066
165	0x46	0.16952646
166	0xe2	-0.072654195
167	0x0b	0.026639871
168	0x2d	0.1089813
169	0x0a	0.024218066
170	0x45	0.16710465
171	0xd3	-0.1089813
172	0xf0	-0.038748905
173	0xb8	-0.17437008
174	0xe3	-0.07023239
175	0xfd	-0.0072654197
176	0xd7	-0.09929407
177	0xfb	-0.012109033
178	0x47	0.17194827
179	0x0a	0.024218066
180	0xf4	-0.029061679
181	0xe7	-0.060545165
182	0xdc	-0.08718504
183	0xe5	-0.06538878
184	0xf4	-0.029061679
185	0xf5	-0.026639871
186	0x12	0.04359252
187	0xd3	-0.1089813
188	0x33	0.123512134
189	0xe8	-0.058123358
190	0x1a	0.06296697
191	0x0a	0.024218066
192	0x0c	0.029061679
193	0xf5	-0.026639871
194	0x34	0.12593395
195	0xe7	-0.060545165
196	0xf8	-0.019374453
197	0xf2	-0.03390529
198	0xc7	-0.13804297
199	0xe5	-0.06538878
200	0x17	0.05570155
201	0xec	-0.04843613
202	0xda	-0.09202865
203	0xee	-0.04359252
204	0x04	0.009687226
205	0xd4	-0.106559485
206	0x01	0.0024218066
207	0x31	0.11866852
208	0x04	0.009687226
209	0x10	0.038748905
210	0x20	0.07749781
211	0xfa	-0.014530839
212	0xea	-0.053279743
213	0xeb	-0.05085794
214	0xd9	-0.09445046
215	0xf1	-0.036327098
216	0x07	0.016952645
217	0x10	0.038748905
218	0xe5	-0.06538878
219	0x06	0.014530839
220	0x2c	0.106559485
221	0x2b	0.10413768
222	0xca	-0.13077755
223	0xc2	-0.15015201
224	0x12	0.04359252
225	0xf8	-0.019374453
226	0x0b	0.026639871
227	0x0a	0.024218066
228	0xe9	-0.05570155
229	0x2e	0.1114031
230	0xd0	-0.116246715
231	0x0b	0.026639871
232	0x3b	0.1428866
233	0x34	0.12593395
234	0xec	-0.04843613
235	0xf1	-0.036327098
236	0x24	0.08718504
237	0xe6	-0.06296697
238	0x2c	0.106559485
239	0xf7	-0.02179626
240	0x10	0.038748905
241	0xea	-0.053279743
242	0x07	0.016952645
243	0xfa	-0.014530839
244	0x0e	0.03390529
245	0xd3	-0.1089813
246	0x18	0.058123358
247	0xf8	-0.019374453
248	0x54	0.20343176
249	0x28	0.09687226
250	0xe6	-0.06296697
251	0xb2	-0.18890092
252	0xf8	-0.019374453
253	0xc7	-0.13804297
254	0x1b	0.06538878
255	0x1b	0.06538878

while/MatMul i1 [150, 42] scale=0.007598599 zero_point=0
0	0xec	-0.15197198
1	0x0d	0.09878179
2	0xca	-0.41032434
3	0x33	0.38752854
4	0xd8	-0.30394396
5	0x13	0.14437339
6	0xe2	-0.22795796
7	0x19	0.18996498
8	0xdd	-0.26595098
9	0x37	0.41792294
10	0xd7	-0.31154257
11	0x32	0.37992996
12	0xd4	-0.33433837
13	0x14	0.15197198
14	0xfc	-0.030394396
15	0x12	0.13677478
16	0xde	-0.25835237
17	0x34	0.39512715
18	0xfd	-0.022795796
19	0x19	0.18996498
20	0xff	-0.007598599
21	0x0d	0.09878179
22	0x0f	0.11397898
23	0x27	0.29634535
24	0x08	0.06078879
25	0xfd	-0.022795796
26	0x13	0.14437339
27	0x20	0.24315517
28	0x28	0.30394396
29	0x06	0.045591593
30	0x02	0.015197198
31	0x21	0.25075376
32	0xfe	-0.015197198
33	0x12	0.13677478
34	0x46	0.53190196
35	0x0b	0.08358459
36	0x22	0.25835237
37	0xfc	-0.030394396
38	0x38	0.42552155
39	0x08	0.06078879
40	0x11	0.12917618
41	0xf4	-0.091183186
42	0x00	0.0
43	0xfe	-0.015197198
44	0xec	-0.15197198
45	0xfb	-0.037992995
46	0xec	-0.15197198
47	0x26	0.28874677
48	0xe6	-0.19756357
49	0x0c	0.091183186
50	0xd8	-0.30394396
51	0x16	0.16716918
52	0xd9	-0.29634535
53	0x41	0.49390894
54	0xcf	-0.37233135
55	0x2b	0.32673976
56	0xed	-0.14437339
57	0x2f	0.35713416
58	0xe0	-0.24315517
59	0x2e	0.34953555
60	0xde	-0.25835237
61	0x34	0.39512715
62	0xcf	-0.37233135
63	0x23	0.26595098
64	0xda	-0.28874677
65	0x29	0.31154257
66	0xea	-0.16716918
67	0x24	0.27354956
68	0xed	-0.14437339
69	0x42	0.5015075
70	0xe2	-0.22795796
71	0x35	0.40272576
72	0xda	-0.28874677
73	0x20	0.24315517
74	0xff	-0.007598599
75	0x2d	0.34193695
76	0x04	0.030394396
77	0x4c	0.57749355
78	0xdf	-0.25075376
79	0x4f	0.60028934
80	0x10	0.12157758
81	0x25	0.28114817
82	0x23	0.26595098
83	0x27	0.29634535
84	0xff	-0.007598599
85	0xfd	-0.022795796
86	0x04	0.030394396
87	0x17	0.17476778
88	0xfb	-0.037992995
89	0x31	0.37233135
90	0xea	-0.16716918
91	0x2b	0.32673976
92	0xe5	-0.20516217
93	0x2e	0.34953555
94	0xeb	-0.15957057
95	0x26	0.28874677
96	0xe1	-0.23555657
97	0x32	0.37992996
98	0xe0	-0.24315517
99	0x1d	0.22035937
100	0xe1	-0.23555657
101	0x3f	0.47871172
102	0xd3	-0.34193695
103	0x38	0.42552155
104	0xdc	-0.27354956
105	0x1b	0.20516217
106	0xd0	-0.36473274
107	0x16	0.16716918
108	0xc2	-0.47111315
109	0x15	0.15957057
110	0xea	-0.16716918
111	0x27	0.29634535
112	0xf4	-0.091183186
113	0x3d	0.46351454
114	0xd7	-0.31154257
115	0x30	0.36473274
116	0xea	-0.16716918
117	0x2f	0.35713416
118	0xfd	-0.022795796
119	0x17	0.17476778
120	0x10	0.12157758
121	0x45	0.5243033
122	0x00	0.0
123	0x42	0.5015075
124	0x14	0.15197198
125	0x3b	0.44831735
126	0xfc	-0.030394396
127	0xfa	-0.045591593
128	0xf4	-0.091183186
129	0x29	0.31154257
130	0x02	0.015197198
131	0x3c	0.45591593
132	0xf5	-0.08358459
133	0x27	0.29634535
134	0xff	-0.007598599
135	0x40	0.48631033
136	0xf5	-0.08358459
137	0x52	0.62308514
138	0xf9	-0.053190194
139	0x40	0.48631033
140	0xfb	-0.037992995
141	0x1d	0.22035937
142	0xee	-0.13677478
143	0x30	0.36473274
144	0x09	0.06838739
145	0x41	0.49390894
146	0xfa	-0.045591593
147	0x2f	0.35713416
148	0xd5	-0.32673976
149	0x35	0.40272576
150	0xe3	-0.22035937
151	0x15	0.15957057
152	0xee	-0.13677478
153	0x33	0.38752854
154	0xf7	-0.06838739
155	0x34	0.39512715
156	0xdf	-0.25075376
157	0x11	0.12917618
158	0xd8	-0.30394396
159	0x04	0.030394396
160	0x2f	0.35713416
161	0x34	0.39512715
162	0xe4	-0.21276078
163	0x1c	0.21276078
164	0xf2	-0.10638039
165	0x00	0.0
166	0xed	-0.14437339
167	0xee	-0.13677478
168	0x0b	0.08358459
169	0xf0	-0.12157758
170	0xa8	-0.66867673
171	0x15	0.15957057
172	0xaf	-0.6154865
173	0x28	0.30394396
174	0xaf	-0.6154865
175	0x06	0.045591593
176	0xbb	-0.5243033
177	0x2a	0.31914115
178	0xa8	-0.66867673
179	0x18	0.18236637
180	0xd2	-0.34953555
181	0x0e	0.10638039
182	0xd2	-0.34953555
183	0x11	0.12917618
184	0xc5	-0.44831735
185	0x23	0.26595098
186	0xb1	-0.60028934
187	0x23	0.26595098
188	0xd7	-0.31154257
189	0x28	0.30394396
190	0xd8	-0.30394396
191	0x14	0.15197198
192	0xd6	-0.31914115
193	0x35	0.40272576
194	0xc8	-0.42552155
195	0x16	0.16716918
196	0xdb	-0.28114817
197	0x12	0.13677478
198	0xe6	-0.19756357
199	0x18	0.18236637
200	0xd9	-0.29634535
201	0x29	0.31154257
202	0xf9	-0.053190194
203	0x25	0.28114817
204	0x04	0.030394396
205	0x0b	0.08358459
206	0xe9	-0.17476778
207	0x2c	0.33433837
208	0xec	-0.15197198
209	0x0e	0.10638039
210	0xf8	-0.06078879
211	0x14	0.15197198
212	0xbe	-0.5015075
213	0x1b	0.20516217
214	0xc9	-0.41792294
215	0x33	0.38752854
216	0xda	-0.28874677
217	0x22	0.25835237
218	0xc9	-0.41792294
219	0x12	0.13677478
220	0xc3	-0.46351454
221	0x09	0.06838739
222	0xd3	-0.34193695
223	0x23	0.26595098
224	0xbe	-0.5015075
225	0x3b	0.44831735
226	0xbf	-0.49390894
227	0x1c	0.21276078
228	0xbf	-0.49390894
229	0x33	0.38752854
230	0xdf	-0.25075376
231	0x27	0.29634535
232	0xca	-0.41032434
233	0x24	0.27354956
234	0xc3	-0.46351454
235	0x40	0.48631033
236	0xe9	-0.17476778
237	0x26	0.28874677
238	0xc1	-0.47871172
239	0x46	0.53190196
240	0xd9	-0.29634535
241	0x2e	0.34953555
242	0x02	0.015197198
243	0x50	0.6078879
244	0x12	0.13677478
245	0x2d	0.34193695
246	0xf4	-0.091183186
247	0x1e	0.22795796
248	0xf3	-0.09878179
249	0x2a	0.31914115
250	0xf6	-0.07598599
251	0x54	0.6382823
252	0x01	0.007598599
253	0x05	0.037992995
254	0xd4	-0.33433837
255	0xf7	-0.06838739
