GRU-main/model/keypoint_classifier/GRU_model_one_frame_aug.tflite (tflite, 85624 bytes, 14 tensors)

sequential/dense/BiasAdd/ReadVariableOp f4 [27]
000000 3b c2 e5 3d 2d 88 4e be 72 53 c6 bd 55 80 dc 3d
       0.11218687 -0.20169134 -0.09683885 0.10766665
000010 11 ae 10 be 57 d0 95 be 36 93 cb 3c a1 70 0f bd
       -0.14128901 -0.29260513 0.02485047 -0.03501952
000020 4a c9 05 bc 42 8a b9 3d c2 99 a8 3d cd 4b d5 3d
       -0.008165667 0.09059574 0.08232452 0.104148485
000030 7c 9d ad bd d0 85 21 be 54 fc 4e be d6 84 98 3e
       -0.084773034 -0.15773702 -0.20213443 0.29788846
000040 b2 37 fc be 05 66 7d 3e e2 45 13 be 45 b1 a3 3d
       -0.49261242 0.24745949 -0.14382127 0.07992796
000050 42 b6 ac bd 5b 05 51 3c d9 ee 2c 3e cb 3c 6d be
       -0.084332004 0.0127576245 0.16887988 -0.23167722
000060 08 62 a4 be a1 bf 55 3b d9 28 59 3e
       -0.32106042 0.003261544 0.21206988

unstack f4 [300]
000000 1f 88 e6 3d 6c 5c cf be 89 ed de bc c6 0c 6c be
       0.11256432 -0.405002 -0.027212875 -0.23051748
000010 b5 77 05 bf 11 63 d7 bd ac 2e 22 bf f1 3c b5 bd
       -0.52135783 -0.10516942 -0.63352466 -0.08849514
000020 21 e1 a3 be e0 f3 28 3e 9b 00 29 bf 78 48 3b be
       -0.32007697 0.16499281 -0.6601655 -0.18289363
000030 63 f4 0f bf 44 81 a1 be 97 e3 52 bf 98 17 9a be
       -0.5623228 -0.31543934 -0.82378525 -0.30096126
000040 4c ab 3b be 8a f1 3a bc 35 33 26 bf 52 39 90 be
       -0.18327063 -0.011410126 -0.64921886 -0.28168732
000050 4f fc 33 bf 36 80 af bd 15 e9 86 be 06 aa cb be
       -0.7030687 -0.08569376 -0.26349702 -0.39778155
000060 e5 13 83 bc ab c6 6f bf 85 7d 38 3c e6 57 ad be
       -0.016000697 -0.9366252 0.011260395 -0.33856124
000070 e3 cf a0 be ae fa 64 3e 2e e5 2d bf 90 7f f5 bd
       -0.31408605 0.22361252 -0.67927825 -0.11987221
000080 2e 0f 9d be 1e c6 67 3d 06 68 9d 3b eb d9 85 be
       -0.30675644 0.056585424 0.0048036603 -0.2614282
000090 35 e8 b9 be 08 61 52 be 6f 05 d8 be 4b 02 db be
       -0.36309972 -0.20544827 -0.42191646 -0.42775187
0000a0 62 a7 86 be d7 87 1d be 32 8e 10 bf 1d a0 c8 be
       -0.26299578 -0.1538385 -0.5646697 -0.39184657
0000b0 28 fc 5a bd c7 15 8e be e0 71 b7 be e0 ea a8 be
       -0.05346313 -0.2775099 -0.35829067 -0.32991695
0000c0 6d 30 a4 be af c0 bc be 16 f4 10 bf 72 cc b6 be
       -0.32068196 -0.36865756 -0.56622446 -0.35702854
0000d0 bf 48 12 bf 2d 92 f0 be dd ed 06 bf 50 41 11 bf
       -0.5714225 -0.46986523 -0.527067 -0.56740284
0000e0 63 14 59 be 9d 42 15 bf 4d 15 b3 be b4 80 e6 be
       -0.21199183 -0.5830477 -0.3497719 -0.45020068
0000f0 54 bc 82 3d 95 4a 18 bf 8b d0 97 be a2 07 05 bf
       0.06383577 -0.59488803 -0.29651293 -0.5196477
000100 0f b2 5a bf df a7 a5 be 12 fc b0 be 91 0e b9 be
       -0.85427946 -0.32354638 -0.34567314 -0.36143926
000110 77 67 51 bf c8 46 bb bd ba 74 92 be 83 e2 96 3d
       -0.817985 -0.0914436 -0.2860468 0.073674224
000120 1a 40 c0 be 14 23 e2 be c1 ab d7 be 92 68 e2 bd
       -0.37548906 -0.44167387 -0.42123225 -0.110551015
000130 1c 21 0f bf ed 50 bc be 33 31 cd bd b9 92 a0 be
       -0.55909896 -0.3678049 -0.1001915 -0.3136194
000140 40 a5 fd be e0 88 99 be 78 6e 2d be 1e 46 83 be
       -0.49540138 -0.2998724 -0.16936672 -0.25639433
000150 da c9 b9 be 70 39 33 bf 22 0b 9a be b0 a5 8a 3e
       -0.36286813 -0.7000952 -0.3008662 0.27079535
000160 b6 d7 be be ed 58 31 bf 16 f1 0d bf 36 0f 08 bf
       -0.3727395 -0.69276315 -0.5544599 -0.5314821
000170 c1 8d 52 bf 82 90 10 bf d1 3c da be 13 9f 0b be
       -0.8224755 -0.564705 -0.42624524 -0.13634901
000180 3b 59 3b bf 4e 42 06 bf 8b df 26 bf 6c a6 00 bf
       -0.7318303 -0.5244492 -0.6518485 -0.5025394
000190 14 c3 3f bd 7d 22 d0 3d 73 b8 9c be 85 69 cb 3c
       -0.0468169 0.10162828 -0.30609474 0.02483059
0001a0 59 10 47 3e a9 22 8a 3d f2 ea fa 3e ac dc 5e bd
       0.1943983 0.06744892 0.49007374 -0.054409668
0001b0 71 2b 40 3d bf 58 a1 3d 21 26 f7 3c 3e 89 9c bd
       0.04691643 0.07878255 0.030169548 -0.07643364
0001c0 44 3d 1b 3e 2c 7d 82 be 00 ca 42 3d 60 df 81 bc
       0.1516009 -0.25486124 0.047555923 -0.015853584
0001d0 99 8b 80 be 9f 10 4b be ef 97 84 3d dc 08 50 3e
       -0.25106505 -0.19830559 0.064742915 0.2031588
0001e0 e4 6f 9b 3e 1d 51 31 bc be c1 a5 be f2 37 1c be
       0.30358803 -0.010822562 -0.32374376 -0.15255716
0001f0 05 b7 3a 3e ac af 0c be 96 94 ca 3c dc 36 97 3e
       0.18233879 -0.13738889 0.024729054 0.29534042
000200 de 61 23 bd 8b ca 86 3e 4f e1 6f 3d ad a1 56 bc
       -0.039888255 0.26326403 0.05856448 -0.01310007
000210 e1 a3 bf 3d 14 4b 15 be b4 56 58 3e 97 e0 fe 3a
       0.09357429 -0.14579421 0.21126825 0.0019445595
000220 05 be cb bd 36 4a 04 3e 0c ea dd 3d cf 6a 14 be
       -0.09948353 0.12918934 0.108356565 -0.14493869
000230 a4 75 e8 3d 0a b9 39 be 50 5c dd 3c 6f 40 af 3c
       0.11350563 -0.18136993 0.027021557 0.021393029
000240 57 cc 49 3e 41 62 b9 3e cf 9c d3 3d ad 0c 5b be
       0.19706856 0.36207774 0.10332643 -0.21391554
000250 ba a9 9a bd a6 bd b3 3a 26 f6 11 be af 48 85 3e
       -0.07551904 0.0013713136 -0.14254054 0.26032016
000260 b5 2f 17 3e 84 b6 ea bd 6b 0b 94 be 38 cb 64 3e
       0.14764293 -0.11460593 -0.2891496 0.22343147
000270 0f 2c 7f 3e f8 e7 57 be 80 b2 75 bd 5b 55 d1 3d
       0.24919151 -0.21084583 -0.059984684 0.102213584
000280 51 d3 28 3e 63 9b b8 bc 29 67 9b 3d d3 2e a1 be
       0.16486861 -0.022535032 0.075880356 -0.31481037
000290 e8 8c ae be 0f 7e 37 bd 26 10 7b be 60 b7 33 bd
       -0.34091878 -0.044797953 -0.24517879 -0.043876052
0002a0 4b 24 16 3d f8 21 65 3e b9 c3 66 be 9f 44 b4 3d
       0.036655705 0.2237624 -0.225356 0.08802151
0002b0 83 fd 17 bc 47 ef 3b 3d c8 02 3d bd 0d 88 f9 bd
       -0.0092767505 0.04588249 -0.04614523 -0.12184153
0002c0 af 39 76 3e cd 51 84 bc 2e d1 9c 3d dc 38 54 3d
       0.24045442 -0.016152287 0.07657085 0.051812038
0002d0 a3 1b b3 bc 51 61 76 3e 52 ac e6 bd 61 4d 20 3d
       -0.021863764 0.24060561 -0.11263336 0.039136294
0002e0 da ef 0c bc 6f 9a ab bd cb 3a 0a 3e e6 8d 3b 3e
       -0.008602107 -0.08379065 0.1349899 0.18315849
0002f0 f3 35 d4 3d 80 58 dc bd c1 04 0c 3e cb 8d cb 3d
       0.103618525 -0.107590675 0.13673688 0.09939154
000300 4c 91 27 3d c6 6e 5a 3e 94 70 90 3d 75 78 d2 3d
       0.04091005 0.21331319 0.070527226 0.102768816
000310 3c 06 30 3e 44 fc 9a 3e 34 c8 d5 3d 1c f8 87 3e
       0.17189878 0.30270588 0.10438576 0.2655648
000320 fb f6 f5 3e d9 eb e6 3e 65 a9 b0 3e 58 75 34 bf
       0.48039994 0.45101812 0.34504238 -0.7049155
000330 81 2f 35 bf ac 33 e8 3e c7 92 58 3f a2 c7 27 3e
       -0.7077561 0.45351923 0.84598964 0.16384748
000340 70 6d ba 3e 78 54 d4 be b4 06 18 3f f2 10 fb be
       0.3641162 -0.41470695 0.5938523 -0.49036366
000350 5c fd 01 bf 31 5e 01 bf 0a 13 de 3e 36 a4 ab 3e
       -0.5077722 -0.5053435 0.433739 0.3352372
000360 83 94 ce be ad 7d 0c 3f 89 2a 0a bf ec 90 3e bf
       -0.4034768 0.54879266 -0.53971153 -0.74439883
000370 45 d4 2c 3f 84 09 b3 be 41 1d 95 3e 94 9b 2e be
       0.675114 -0.34968197 0.2912388 -0.17051536
000380 4d 0b 22 bf 7b 71 1d be 13 2a b3 3e 2b af 00 3f
       -0.63298494 -0.1537532 0.34993038 0.50267285
000390 8c f7 3e bf 68 9b 69 3f 13 bb 08 bf 67 1e ae 3e
       -0.74596477 0.91252756 -0.5341045 0.3400757
0003a0 b2 da bc 3e f9 37 b9 be 28 8c 34 bf 80 c7 ba 3e
       0.368856 -0.36175516 -0.7052636 0.3648033
0003b0 62 c3 ad be 0b fe 16 bf 10 3b 0c bf 6e 8a d0 3e
       -0.33938128 -0.5898139 -0.5477762 0.40730613
0003c0 5c 3d 0b 3f 5e 3f 22 be e7 b4 80 3e 7b ae b3 3e
       0.543905 -0.15844485 0.25138018 0.35094056
0003d0 4d 69 41 bf 68 88 30 3f 13 7a 8d 3e e8 0c 0e 3f
       -0.755513 0.6895814 0.27632198 0.55488443
0003e0 f0 32 d8 3e 2e bd e3 3e 14 77 97 be 5e 90 47 3f
       0.42226362 0.4448027 -0.29583037 0.7795466
0003f0 03 28 0b bf 19 61 2f be 04 ba 68 be c2 38 51 3f
       -0.5435793 -0.17126884 -0.2272721 0.8172723

unstack1 f4 [300]
000000 1f 88 e6 3d 6c 5c cf be 89 ed de bc c6 0c 6c be
       0.11256432 -0.405002 -0.027212875 -0.23051748
000010 b5 77 05 bf 11 63 d7 bd ac 2e 22 bf f1 3c b5 bd
       -0.52135783 -0.10516942 -0.63352466 -0.08849514
000020 21 e1 a3 be e0 f3 28 3e 9b 00 29 bf 78 48 3b be
       -0.32007697 0.16499281 -0.6601655 -0.18289363
000030 63 f4 0f bf 44 81 a1 be 97 e3 52 bf 98 17 9a be
       -0.5623228 -0.31543934 -0.82378525 -0.30096126
000040 4c ab 3b be 8a f1 3a bc 35 33 26 bf 52 39 90 be
       -0.18327063 -0.011410126 -0.64921886 -0.28168732
000050 4f fc 33 bf 36 80 af bd 15 e9 86 be 06 aa cb be
       -0.7030687 -0.08569376 -0.26349702 -0.39778155
000060 e5 13 83 bc ab c6 6f bf 85 7d 38 3c e6 57 ad be
       -0.016000697 -0.9366252 0.011260395 -0.33856124
000070 e3 cf a0 be ae fa 64 3e 2e e5 2d bf 90 7f f5 bd
       -0.31408605 0.22361252 -0.67927825 -0.11987221
000080 2e 0f 9d be 1e c6 67 3d 06 68 9d 3b eb d9 85 be
       -0.30675644 0.056585424 0.0048036603 -0.2614282
000090 35 e8 b9 be 08 61 52 be 6f 05 d8 be 4b 02 db be
       -0.36309972 -0.20544827 -0.42191646 -0.42775187
0000a0 62 a7 86 be d7 87 1d be 32 8e 10 bf 1d a0 c8 be
       -0.26299578 -0.1538385 -0.5646697 -0.39184657
0000b0 28 fc 5a bd c7 15 8e be e0 71 b7 be e0 ea a8 be
       -0.05346313 -0.2775099 -0.35829067 -0.32991695
0000c0 6d 30 a4 be af c0 bc be 16 f4 10 bf 72 cc b6 be
       -0.32068196 -0.36865756 -0.56622446 -0.35702854
0000d0 bf 48 12 bf 2d 92 f0 be dd ed 06 bf 50 41 11 bf
       -0.5714225 -0.46986523 -0.527067 -0.56740284
0000e0 63 14 59 be 9d 42 15 bf 4d 15 b3 be b4 80 e6 be
       -0.21199183 -0.5830477 -0.3497719 -0.45020068
0000f0 54 bc 82 3d 95 4a 18 bf 8b d0 97 be a2 07 05 bf
       0.06383577 -0.59488803 -0.29651293 -0.5196477
000100 0f b2 5a bf df a7 a5 be 12 fc b0 be 91 0e b9 be
       -0.85427946 -0.32354638 -0.34567314 -0.36143926
000110 77 67 51 bf c8 46 bb bd ba 74 92 be 83 e2 96 3d
       -0.817985 -0.0914436 -0.2860468 0.073674224
000120 1a 40 c0 be 14 23 e2 be c1 ab d7 be 92 68 e2 bd
       -0.37548906 -0.44167387 -0.42123225 -0.110551015
000130 1c 21 0f bf ed 50 bc be 33 31 cd bd b9 92 a0 be
       -0.55909896 -0.3678049 -0.1001915 -0.3136194
000140 40 a5 fd be e0 88 99 be 78 6e 2d be 1e 46 83 be
       -0.49540138 -0.2998724 -0.16936672 -0.25639433
000150 da c9 b9 be 70 39 33 bf 22 0b 9a be b0 a5 8a 3e
       -0.36286813 -0.7000952 -0.3008662 0.27079535
000160 b6 d7 be be ed 58 31 bf 16 f1 0d bf 36 0f 08 bf
       -0.3727395 -0.69276315 -0.5544599 -0.5314821
000170 c1 8d 52 bf 82 90 10 bf d1 3c da be 13 9f 0b be
       -0.8224755 -0.564705 -0.42624524 -0.13634901
000180 3b 59 3b bf 4e 42 06 bf 8b df 26 bf 6c a6 00 bf
       -0.7318303 -0.5244492 -0.6518485 -0.5025394
000190 14 c3 3f bd 7d 22 d0 3d 73 b8 9c be 85 69 cb 3c
       -0.0468169 0.10162828 -0.30609474 0.02483059
0001a0 59 10 47 3e a9 22 8a 3d f2 ea fa 3e ac dc 5e bd
       0.1943983 0.06744892 0.49007374 -0.054409668
0001b0 71 2b 40 3d bf 58 a1 3d 21 26 f7 3c 3e 89 9c bd
       0.04691643 0.07878255 0.030169548 -0.07643364
0001c0 44 3d 1b 3e 2c 7d 82 be 00 ca 42 3d 60 df 81 bc
       0.1516009 -0.25486124 0.047555923 -0.015853584
0001d0 99 8b 80 be 9f 10 4b be ef 97 84 3d dc 08 50 3e
       -0.25106505 -0.19830559 0.064742915 0.2031588
0001e0 e4 6f 9b 3e 1d 51 31 bc be c1 a5 be f2 37 1c be
       0.30358803 -0.010822562 -0.32374376 -0.15255716
0001f0 05 b7 3a 3e ac af 0c be 96 94 ca 3c dc 36 97 3e
       0.18233879 -0.13738889 0.024729054 0.29534042
000200 de 61 23 bd 8b ca 86 3e 4f e1 6f 3d ad a1 56 bc
       -0.039888255 0.26326403 0.05856448 -0.01310007
000210 e1 a3 bf 3d 14 4b 15 be b4 56 58 3e 97 e0 fe 3a
       0.09357429 -0.14579421 0.21126825 0.0019445595
000220 05 be cb bd 36 4a 04 3e 0c ea dd 3d cf 6a 14 be
       -0.09948353 0.12918934 0.108356565 -0.14493869
000230 a4 75 e8 3d 0a b9 39 be 50 5c dd 3c 6f 40 af 3c
       0.11350563 -0.18136993 0.027021557 0.021393029
000240 57 cc 49 3e 41 62 b9 3e cf 9c d3 3d ad 0c 5b be
       0.19706856 0.36207774 0.10332643 -0.21391554
000250 ba a9 9a bd a6 bd b3 3a 26 f6 11 be af 48 85 3e
       -0.07551904 0.0013713136 -0.14254054 0.26032016
000260 b5 2f 17 3e 84 b6 ea bd 6b 0b 94 be 38 cb 64 3e
       0.14764293 -0.11460593 -0.2891496 0.22343147
000270 0f 2c 7f 3e f8 e7 57 be 80 b2 75 bd 5b 55 d1 3d
       0.24919151 -0.21084583 -0.059984684 0.102213584
000280 51 d3 28 3e 63 9b b8 bc 29 67 9b 3d d3 2e a1 be
       0.16486861 -0.022535032 0.075880356 -0.31481037
000290 e8 8c ae be 0f 7e 37 bd 26 10 7b be 60 b7 33 bd
       -0.34091878 -0.044797953 -0.24517879 -0.043876052
0002a0 4b 24 16 3d f8 21 65 3e b9 c3 66 be 9f 44 b4 3d
       0.036655705 0.2237624 -0.225356 0.08802151
0002b0 83 fd 17 bc 47 ef 3b 3d c8 02 3d bd 0d 88 f9 bd
       -0.0092767505 0.04588249 -0.04614523 -0.12184153
0002c0 af 39 76 3e cd 51 84 bc 2e d1 9c 3d dc 38 54 3d
       0.24045442 -0.016152287 0.07657085 0.051812038
0002d0 a3 1b b3 bc 51 61 76 3e 52 ac e6 bd 61 4d 20 3d
       -0.021863764 0.24060561 -0.11263336 0.039136294
0002e0 da ef 0c bc 6f 9a ab bd cb 3a 0a 3e e6 8d 3b 3e
       -0.008602107 -0.08379065 0.1349899 0.18315849
0002f0 f3 35 d4 3d 80 58 dc bd c1 04 0c 3e cb 8d cb 3d
       0.103618525 -0.107590675 0.13673688 0.09939154
000300 4c 91 27 3d c6 6e 5a 3e 94 70 90 3d 75 78 d2 3d
       0.04091005 0.21331319 0.070527226 0.102768816
000310 3c 06 30 3e 44 fc 9a 3e 34 c8 d5 3d 1c f8 87 3e
       0.17189878 0.30270588 0.10438576 0.2655648
000320 a4 56 80 bd 2c 15 28 3c a9 d6 98 be db 8d ea 3b
       -0.062665254 0.010258954 -0.29851273 0.007158024
000330 7c 14 2a be 25 b9 b8 3d f8 92 c1 3e 24 ba cb bd
       -0.16609377 0.090196885 0.3780744 -0.09947613
000340 a6 22 00 3c 34 e2 c1 bd 94 f8 5b 3d dc 91 a9 3c
       0.007820761 -0.09466973 0.05370386 0.020699434
000350 a2 73 be bd 0d 59 23 3e 75 e1 21 3b 79 f5 3d 3c
       -0.09299399 0.15951939 0.0024701033 0.01159417
000360 d4 a2 65 3e ba fe 35 be 67 04 72 bd ac 28 c8 bd
       0.22425395 -0.17772952 -0.05908623 -0.097733825
000370 46 3e 83 3e b4 02 13 3d 19 3c 94 be 8b 33 11 3e
       0.25633448 0.03589125 -0.289521 0.14179818
000380 05 d3 16 be ef 3b f6 3d eb 17 e7 3c 6d 93 56 3e
       -0.14728935 0.1202315 0.028209647 0.20954676
000390 92 3d a0 3d 08 4e 63 3e d8 fc b5 bd fd 0c b5 3b
       0.078242436 0.22197735 -0.08886117 0.00552523
0003a0 31 23 9a 3d 8c 58 ce 3d e2 ad 15 be b5 92 03 3d
       0.075262435 0.10075483 -0.14617112 0.032122333
0003b0 a4 57 a7 3d a7 86 d3 bd 05 35 d9 bd b3 34 f7 bd
       0.08171013 -0.10328417 -0.10605816 -0.120705985
0003c0 f0 c6 4e 3b 97 dd 26 3e 20 ee 03 bd 42 85 6d 3c
       0.0031551681 0.16295467 -0.032209516 0.014497103
0003d0 e5 7f 0c be 90 af 8c 3e e2 7e 42 3d 98 fe 32 be
       -0.13720663 0.27477694 0.047484286 -0.17479932
0003e0 cc 69 c7 bd d8 d0 1b bd ca e4 21 3e e0 83 39 3e
       -0.09736976 -0.038040966 0.15809932 0.18116713
0003f0 33 5b ef bd 7b e1 1d 3e 7c 87 9e 3e 03 f7 ba 3d
       -0.11687317 0.15418045 0.3096274 0.09129145

unstack2 f4 [150]
000000 b6 24 fd be 81 ba a1 bd 48 45 60 bd 51 24 f4 be
       -0.4944207 -0.07896901 -0.05475357 -0.47683957
000010 86 db fa be d9 2d a3 bf 13 d5 8a bf 7d 31 32 bf
       -0.48995608 -1.2748367 -1.0846275 -0.69606763
000020 75 7c d2 be 20 6f 48 be 13 8c 80 bd 29 b6 00 bf
       -0.41110578 -0.19573641 -0.06276717 -0.50277954
000030 7d 6f 80 3d 7d ff cb bd 92 8f ad be a0 1c a4 be
       0.06271265 -0.0996084 -0.33898598 -0.3205309
000040 d2 36 48 bf 09 13 e0 be 08 3a 63 be ff ef 81 3d
       -0.7820865 -0.43764523 -0.22190106 0.06344604
000050 9d 2c 2c bf 59 a7 f1 bc d9 dc c0 be 9f 70 f5 3d
       -0.67255574 -0.029498743 -0.37668493 0.119843714
000060 9c b3 30 be c0 06 21 bf b8 af c0 be 88 6c 13 bf
       -0.17256016 -0.62900925 -0.37634063 -0.5758748
000070 ac 8d 5e 3d 19 a3 10 bf 32 8f 11 3e 7e 7b eb be
       0.054334328 -0.5649887 0.14214781 -0.45992655
000080 ee 73 10 be ff 34 03 bf f9 22 f1 be ea f6 19 bf
       -0.14106724 -0.5125274 -0.47096995 -0.60142386
000090 2a 3e bb be 91 ed df be 5d 01 f3 be 44 3c ec be
       -0.36570865 -0.43735936 -0.47461978 -0.4613973
0000a0 08 c8 b6 be 35 b9 ae bf c6 6c a3 be f1 42 28 bf
       -0.35699487 -1.3650271 -0.31918925 -0.65727144
0000b0 c1 5b 90 be 40 3e 8f be 45 56 f2 bc 91 3c d3 be
       -0.28195003 -0.2797718 -0.029582152 -0.41257146
0000c0 8f 03 09 bf f1 d1 ae be 5e d9 6f 3e de 8a 7f 3e
       -0.53521055 -0.34144548 0.23422763 0.24955317
0000d0 b6 1f dc 3d 6d 0d 53 3e cc f1 a3 3e fb 61 13 bd
       0.10748236 0.2061059 0.32020414 -0.035982113
0000e0 99 ec 73 3c 6f b4 d8 3c 7e e8 bb 3e 46 ca 0e be
       0.014887952 0.026453225 0.36700815 -0.13944349
0000f0 c6 66 06 be 10 e1 c1 3e 56 4e 78 3e 5b 91 1e be
       -0.13125142 0.37867022 0.24248633 -0.15485136
000100 4b 2d 0b be 62 86 3c be 24 c7 98 3e 14 59 86 bd
       -0.13591497 -0.18410638 0.29839432 -0.06559959
000110 2a 91 f2 bd 13 94 d8 3e 8e fe c5 3d 73 7f 2e 3b
       -0.11844094 0.42300472 0.09667693 0.0026626259
000120 98 c0 5b be 41 bd 69 3c 78 d9 e2 bd 54 9e 30 3d
       -0.21460187 0.014266313 -0.11076635 0.043119743
000130 56 ab a1 3e 58 68 8b 3e c5 22 62 bc 55 93 7d bc
       0.3157603 0.27228045 -0.013802235 -0.015477021
000140 0c 65 b4 3e 0c 23 d6 bd 19 2e 3a bd bc d6 d7 3d
       0.35233343 -0.104559034 -0.04545412 0.10539004
000150 cf 6c 9b bd 2f 24 6a 3d 3d 35 f7 bd a1 e6 ae 3d
       -0.07589113 0.057163414 -0.12070701 0.08540083
000160 08 b9 51 3e 2d 08 c2 3d 97 cf 16 be 6e c7 36 3e
       0.2048074 0.09474216 -0.14727627 0.17849514
000170 27 74 e6 3c a9 62 98 3c 6c 06 10 be 40 03 2e 3d
       0.028131558 0.018601732 -0.1406495 0.04248357
000180 c3 b5 4c bc 53 d5 99 3d 37 6c 8f bd fd cc 81 3e
       -0.012494507 0.075113915 -0.07003062 0.25351706
000190 18 75 d3 3e 3b 54 c2 3e aa 29 85 be c9 5d e7 be
       0.41300273 0.37954888 -0.2600835 -0.4518874
0001a0 c1 38 c6 be e3 bc 2f be 9c 83 26 3e 96 2d 7b 3e
       -0.38715175 -0.17161898 0.16261142 0.24529108
0001b0 2c 53 f6 be 4d 74 b7 3d 54 f1 c4 3e 65 4b 15 3f
       -0.4811033 0.089577295 0.3846537 0.5831817
0001c0 b5 ac 2a 3f 50 b7 f2 be ae ef 04 3e 38 42 a4 3e
       0.6666978 -0.4740548 0.12982056 0.3208177
0001d0 dc 5f 06 3f 5d 99 3b 3e 6e c7 3b 3f 9e 9b 2c 3f
       0.5249002 0.18320222 0.7335118 0.67424953
0001e0 da 25 9d be 0e 70 10 be 47 3d 45 3e e7 8a 53 be
       -0.3069294 -0.14105245 0.19261657 -0.20658456
0001f0 08 de cc be 56 06 75 be d7 6f f5 be 89 11 25 bf
       -0.40013146 -0.23928198 -0.4793689 -0.6447988
000200 f3 e4 04 3f ff ba 35 3e 1c b1 3b bf 5c ad c9 bd
       0.5191185 0.17747115 -0.7331712 -0.09847519
000210 4c 7f 8b 3e 59 09 85 3e db 3d 8f 3d 33 20 06 3f
       0.27245557 0.25983694 0.0699422 0.5239288
000220 f4 13 17 be 94 32 1a bf 00 ce b2 3e 8a f4 8a be
       -0.14753705 -0.60233426 0.3492279 -0.27139693
000230 da 4b 1f bd b7 9d c0 3e d8 2e 3e 3e 7e 7b 37 3e
       -0.038890697 0.37620327 0.18572557 0.17918202
000240 2e 18 59 3c 27 f8 57 3e 3c 55 d0 3e 5d 71 f1 be
       0.013250394 0.21090756 0.4069003 -0.47156802
000250 d3 d1 1e be a4 66 10 3f
       -0.15509729 0.5640662

unstack3 f4 [150]
000000 b6 24 fd be 81 ba a1 bd 48 45 60 bd 51 24 f4 be
       -0.4944207 -0.07896901 -0.05475357 -0.47683957
000010 86 db fa be d9 2d a3 bf 13 d5 8a bf 7d 31 32 bf
       -0.48995608 -1.2748367 -1.0846275 -0.69606763
000020 75 7c d2 be 20 6f 48 be 13 8c 80 bd 29 b6 00 bf
       -0.41110578 -0.19573641 -0.06276717 -0.50277954
000030 7d 6f 80 3d 7d ff cb bd 92 8f ad be a0 1c a4 be
       0.06271265 -0.0996084 -0.33898598 -0.3205309
000040 d2 36 48 bf 09 13 e0 be 08 3a 63 be ff ef 81 3d
       -0.7820865 -0.43764523 -0.22190106 0.06344604
000050 9d 2c 2c bf 59 a7 f1 bc d9 dc c0 be 9f 70 f5 3d
       -0.67255574 -0.029498743 -0.37668493 0.119843714
000060 9c b3 30 be c0 06 21 bf b8 af c0 be 88 6c 13 bf
       -0.17256016 -0.62900925 -0.37634063 -0.5758748
000070 ac 8d 5e 3d 19 a3 10 bf 32 8f 11 3e 7e 7b eb be
       0.054334328 -0.5649887 0.14214781 -0.45992655
000080 ee 73 10 be ff 34 03 bf f9 22 f1 be ea f6 19 bf
       -0.14106724 -0.5125274 -0.47096995 -0.60142386
000090 2a 3e bb be 91 ed df be 5d 01 f3 be 44 3c ec be
       -0.36570865 -0.43735936 -0.47461978 -0.4613973
0000a0 08 c8 b6 be 35 b9 ae bf c6 6c a3 be f1 42 28 bf
       -0.35699487 -1.3650271 -0.31918925 -0.65727144
0000b0 c1 5b 90 be 40 3e 8f be 45 56 f2 bc 91 3c d3 be
       -0.28195003 -0.2797718 -0.029582152 -0.41257146
0000c0 8f 03 09 bf f1 d1 ae be 5e d9 6f 3e de 8a 7f 3e
       -0.53521055 -0.34144548 0.23422763 0.24955317
0000d0 b6 1f dc 3d 6d 0d 53 3e cc f1 a3 3e fb 61 13 bd
       0.10748236 0.2061059 0.32020414 -0.035982113
0000e0 99 ec 73 3c 6f b4 d8 3c 7e e8 bb 3e 46 ca 0e be
       0.014887952 0.026453225 0.36700815 -0.13944349
0000f0 c6 66 06 be 10 e1 c1 3e 56 4e 78 3e 5b 91 1e be
       -0.13125142 0.37867022 0.24248633 -0.15485136
000100 4b 2d 0b be 62 86 3c be 24 c7 98 3e 14 59 86 bd
       -0.13591497 -0.18410638 0.29839432 -0.06559959
000110 2a 91 f2 bd 13 94 d8 3e 8e fe c5 3d 73 7f 2e 3b
       -0.11844094 0.42300472 0.09667693 0.0026626259
000120 98 c0 5b be 41 bd 69 3c 78 d9 e2 bd 54 9e 30 3d
       -0.21460187 0.014266313 -0.11076635 0.043119743
000130 56 ab a1 3e 58 68 8b 3e c5 22 62 bc 55 93 7d bc
       0.3157603 0.27228045 -0.013802235 -0.015477021
000140 0c 65 b4 3e 0c 23 d6 bd 19 2e 3a bd bc d6 d7 3d
       0.35233343 -0.104559034 -0.04545412 0.10539004
000150 cf 6c 9b bd 2f 24 6a 3d 3d 35 f7 bd a1 e6 ae 3d
       -0.07589113 0.057163414 -0.12070701 0.08540083
000160 08 b9 51 3e 2d 08 c2 3d 97 cf 16 be 6e c7 36 3e
       0.2048074 0.09474216 -0.14727627 0.17849514
000170 27 74 e6 3c a9 62 98 3c 6c 06 10 be 40 03 2e 3d
       0.028131558 0.018601732 -0.1406495 0.04248357
000180 c3 b5 4c bc 53 d5 99 3d 37 6c 8f bd fd cc 81 3e
       -0.012494507 0.075113915 -0.07003062 0.25351706
000190 95 85 25 3e 5d d6 52 3e 36 a1 14 be b9 20 72 be
       0.16164239 0.20589586 -0.14514622 -0.23645295
0001a0 dc b8 8f be 7a 7c 9c bc 03 d9 9a 3d 48 57 a3 3c
       -0.28070724 -0.019102324 0.07560923 0.01993908
0001b0 88 3a b8 be f5 29 e4 bd 1e 49 0f be 03 b6 96 3e
       -0.35982156 -0.11140815 -0.13992736 0.2943574
0001c0 79 5f 3d 3e df c9 f7 3d cd a8 e1 bd 0c 70 01 be
       0.18493451 0.12099051 -0.11018524 -0.12640399
0001d0 7e 1f 98 3e 58 b9 64 3c d9 7b e9 bd e3 04 c6 3e
       0.29711527 0.013960205 -0.11400575 0.38675603
0001e0 cf fc d6 bd de a2 b3 bd e4 91 14 be 06 ab 1a bd
       -0.10497438 -0.08771299 -0.14508778 -0.037760757
0001f0 d6 41 ad 3d c5 b3 ca bd 13 81 97 be 7f 89 92 be
       0.08459823 -0.098975696 -0.29590663 -0.28620526
000200 18 18 0b 3a 3c 5f 93 bb b6 70 86 be c6 5e 72 3d
       0.00053060194 -0.004497437 -0.26257867 0.059172414
000210 b1 fc 7a bd 02 4d c8 3d 06 4f a3 bd 0c 81 f2 bd
       -0.06127614 0.09780313 -0.07974057 -0.1184102
000220 8f fd 98 3d 32 59 0d be 8a 50 69 3e 4d 34 a8 bd
       0.074702375 -0.13803557 0.2278463 -0.082131006
000230 d7 88 ae 3d 1b 42 52 3e 2c 8b 4b 3e 73 b6 b7 3c
       0.08522194 0.2053303 0.19877309 0.022425866
000240 30 26 ae 3d c6 ca a0 3d 36 ef 2a bd eb 2a 2c 3d
       0.085033774 0.07851176 -0.041732036 0.042033117
000250 11 c0 83 3c c4 1d 5f 3e
       0.016082795 0.21788698

sequential/dense/MatMul i1 [27, 100] scale=0.011961733 zero_point=0
000000 12 00 22 1d 05 f4 f7 e6 e3 1e e3 f7 fa cd fe 16
       0.2153112 0.0 0.4066989 0.34689027 0.059808664 -0.1435408 -0.1076556 -0.31100506 -0.34689027 0.358852 -0.34689027 -0.1076556 -0.0717704 -0.61004835 -0.023923466 0.2631581
000010 d9 06 06 db e7 19 0c 12 16 df ee c8 d8 13 f3 bc
       -0.46650758 0.0717704 0.0717704 -0.44258413 -0.29904333 0.29904333 0.1435408 0.2153112 0.2631581 -0.39473718 -0.2153112 -0.669857 -0.4784693 0.22727293 -0.15550253 -0.8133978
000020 16 e6 e8 02 d7 e5 e1 da ec 17 db 21 eb f1 02 d8
       0.2631581 -0.31100506 -0.2870816 0.023923466 -0.49043104 -0.32296678 -0.37081373 -0.45454586 -0.23923466 0.27511987 -0.44258413 0.39473718 -0.25119638 -0.179426 0.023923466 -0.4784693
000030 d4 e6 e5 21 ed ff e0 f9 e8 19 dd fe f3 d9 d1 e2
       -0.5263162 -0.31100506 -0.32296678 0.39473718 -0.22727293 -0.011961733 -0.38277546 -0.08373213 -0.2870816 0.29904333 -0.41866064 -0.023923466 -0.15550253 -0.46650758 -0.56220144 -0.358852
000040 f4 61 19 3a 15 eb 12 f9 f9 67 f1 06 14 42 15 f2
       -0.1435408 1.1602881 0.29904333 0.69378054 0.25119638 -0.25119638 0.2153112 -0.08373213 -0.08373213 1.2320585 -0.179426 0.0717704 0.23923466 0.78947437 0.25119638 -0.16746426
000050 31 f3 fc fd eb 09 d7 fe d6 17 09 04 dc ff 1c 0a
       0.5861249 -0.15550253 -0.047846932 -0.0358852 -0.25119638 0.1076556 -0.49043104 -0.023923466 -0.50239277 0.27511987 0.1076556 0.047846932 -0.4306224 -0.011961733 0.3349285 0.11961733
000060 14 23 f8 f4 00 19 ed f3 1e f3 02 ef 1f 0d ac 07
       0.23923466 0.41866064 -0.095693864 -0.1435408 0.0 0.29904333 -0.22727293 -0.15550253 0.358852 -0.15550253 0.023923466 -0.20334946 0.37081373 0.15550253 -1.0047855 0.08373213
000070 27 0f 46 00 12 1e fa 38 fd 0a 03 37 cd f7 e7 f1
       0.46650758 0.179426 0.8373213 0.0 0.2153112 0.358852 -0.0717704 0.669857 -0.0358852 0.11961733 0.0358852 0.6578953 -0.61004835 -0.1076556 -0.29904333 -0.179426
000080 1c f0 26 f4 f2 23 0e 04 12 21 14 f5 1a 10 c8 f1
       0.3349285 -0.19138773 0.45454586 -0.1435408 -0.16746426 0.41866064 0.16746426 0.047846932 0.2153112 0.39473718 0.23923466 -0.13157906 0.31100506 0.19138773 -0.669857 -0.179426
000090 10 1e de 02 14 25 08 dd 13 04 0a 1e 1b eb 23 31
       0.19138773 0.358852 -0.4066989 0.023923466 0.23923466 0.44258413 0.095693864 -0.41866064 0.22727293 0.047846932 0.11961733 0.358852 0.32296678 -0.25119638 0.41866064 0.5861249
0000a0 09 29 2d 0a 4a 13 f3 06 f1 e6 f2 de 3d ec e7 03
       0.1076556 0.49043104 0.538278 0.11961733 0.88516825 0.22727293 -0.15550253 0.0717704 -0.179426 -0.31100506 -0.16746426 -0.4066989 0.7296657 -0.23923466 -0.29904333 0.0358852
0000b0 cf 16 0b 12 e3 fd 03 de 2a e7 30 01 0c ee d4 14
       -0.5861249 0.2631581 0.13157906 0.2153112 -0.34689027 -0.0358852 0.0358852 -0.4066989 0.50239277 -0.29904333 0.5741632 0.011961733 0.1435408 -0.2153112 -0.5263162 0.23923466
0000c0 15 ec 0b 18 f2 e6 df f0 fd 39 da 28 0a d3 22 4d
       0.25119638 -0.23923466 0.13157906 0.2870816 -0.16746426 -0.31100506 -0.39473718 -0.19138773 -0.0358852 0.6818188 -0.45454586 0.4784693 0.11961733 -0.538278 0.4066989 0.92105347
0000d0 cf e7 02 eb fa 17 0b e0 e9 2a 0d f9 27 e2 1e d1
       -0.5861249 -0.29904333 0.023923466 -0.25119638 -0.0717704 0.27511987 0.13157906 -0.38277546 -0.27511987 0.50239277 0.15550253 -0.08373213 0.46650758 -0.358852 0.358852 -0.56220144
0000e0 13 19 f3 ea 0d ee 15 13 ca 0a 25 0d e0 e8 fe 32
       0.22727293 0.29904333 -0.15550253 -0.2631581 0.15550253 -0.2153112 0.25119638 0.22727293 -0.64593357 0.11961733 0.44258413 0.15550253 -0.38277546 -0.2870816 -0.023923466 0.59808666
0000f0 00 d9 04 ee c7 d7 d5 1c 1f ea d8 e4 24 f3 e8 19
       0.0 -0.46650758 0.047846932 -0.2153112 -0.6818188 -0.49043104 -0.5143545 0.3349285 0.37081373 -0.2631581 -0.4784693 -0.3349285 0.4306224 -0.15550253 -0.2870816 0.29904333

unstack4 f4 [150]
000000 b6 24 fd be 81 ba a1 bd 48 45 60 bd 51 24 f4 be
       -0.4944207 -0.07896901 -0.05475357 -0.47683957
000010 86 db fa be d9 2d a3 bf 13 d5 8a bf 7d 31 32 bf
       -0.48995608 -1.2748367 -1.0846275 -0.69606763
000020 75 7c d2 be 20 6f 48 be 13 8c 80 bd 29 b6 00 bf
       -0.41110578 -0.19573641 -0.06276717 -0.50277954
000030 7d 6f 80 3d 7d ff cb bd 92 8f ad be a0 1c a4 be
       0.06271265 -0.0996084 -0.33898598 -0.3205309
000040 d2 36 48 bf 09 13 e0 be 08 3a 63 be ff ef 81 3d
       -0.7820865 -0.43764523 -0.22190106 0.06344604
000050 9d 2c 2c bf 59 a7 f1 bc d9 dc c0 be 9f 70 f5 3d
       -0.67255574 -0.029498743 -0.37668493 0.119843714
000060 9c b3 30 be c0 06 21 bf b8 af c0 be 88 6c 13 bf
       -0.17256016 -0.62900925 -0.37634063 -0.5758748
000070 ac 8d 5e 3d 19 a3 10 bf 32 8f 11 3e 7e 7b eb be
       0.054334328 -0.5649887 0.14214781 -0.45992655
000080 ee 73 10 be ff 34 03 bf f9 22 f1 be ea f6 19 bf
       -0.14106724 -0.5125274 -0.47096995 -0.60142386
000090 2a 3e bb be 91 ed df be 5d 01 f3 be 44 3c ec be
       -0.36570865 -0.43735936 -0.47461978 -0.4613973
0000a0 08 c8 b6 be 35 b9 ae bf c6 6c a3 be f1 42 28 bf
       -0.35699487 -1.3650271 -0.31918925 -0.65727144
0000b0 c1 5b 90 be 40 3e 8f be 45 56 f2 bc 91 3c d3 be
       -0.28195003 -0.2797718 -0.029582152 -0.41257146
0000c0 8f 03 09 bf f1 d1 ae be 5e d9 6f 3e de 8a 7f 3e
       -0.53521055 -0.34144548 0.23422763 0.24955317
0000d0 b6 1f dc 3d 6d 0d 53 3e cc f1 a3 3e fb 61 13 bd
       0.10748236 0.2061059 0.32020414 -0.035982113
0000e0 99 ec 73 3c 6f b4 d8 3c 7e e8 bb 3e 46 ca 0e be
       0.014887952 0.026453225 0.36700815 -0.13944349
0000f0 c6 66 06 be 10 e1 c1 3e 56 4e 78 3e 5b 91 1e be
       -0.13125142 0.37867022 0.24248633 -0.15485136
000100 4b 2d 0b be 62 86 3c be 24 c7 98 3e 14 59 86 bd
       -0.13591497 -0.18410638 0.29839432 -0.06559959
000110 2a 91 f2 bd 13 94 d8 3e 8e fe c5 3d 73 7f 2e 3b
       -0.11844094 0.42300472 0.09667693 0.0026626259
000120 98 c0 5b be 41 bd 69 3c 78 d9 e2 bd 54 9e 30 3d
       -0.21460187 0.014266313 -0.11076635 0.043119743
000130 56 ab a1 3e 58 68 8b 3e c5 22 62 bc 55 93 7d bc
       0.3157603 0.27228045 -0.013802235 -0.015477021
000140 0c 65 b4 3e 0c 23 d6 bd 19 2e 3a bd bc d6 d7 3d
       0.35233343 -0.104559034 -0.04545412 0.10539004
000150 cf 6c 9b bd 2f 24 6a 3d 3d 35 f7 bd a1 e6 ae 3d
       -0.07589113 0.057163414 -0.12070701 0.08540083
000160 08 b9 51 3e 2d 08 c2 3d 97 cf 16 be 6e c7 36 3e
       0.2048074 0.09474216 -0.14727627 0.17849514
000170 27 74 e6 3c a9 62 98 3c 6c 06 10 be 40 03 2e 3d
       0.028131558 0.018601732 -0.1406495 0.04248357
000180 c3 b5 4c bc 53 d5 99 3d 37 6c 8f bd fd cc 81 3e
       -0.012494507 0.075113915 -0.07003062 0.25351706
000190 95 85 25 3e 5d d6 52 3e 36 a1 14 be b9 20 72 be
       0.16164239 0.20589586 -0.14514622 -0.23645295
0001a0 dc b8 8f be 7a 7c 9c bc 03 d9 9a 3d 48 57 a3 3c
       -0.28070724 -0.019102324 0.07560923 0.01993908
0001b0 88 3a b8 be f5 29 e4 bd 1e 49 0f be 03 b6 96 3e
       -0.35982156 -0.11140815 -0.13992736 0.2943574
0001c0 79 5f 3d 3e df c9 f7 3d cd a8 e1 bd 0c 70 01 be
       0.18493451 0.12099051 -0.11018524 -0.12640399
0001d0 7e 1f 98 3e 58 b9 64 3c d9 7b e9 bd e3 04 c6 3e
       0.29711527 0.013960205 -0.11400575 0.38675603
0001e0 cf fc d6 bd de a2 b3 bd e4 91 14 be 06 ab 1a bd
       -0.10497438 -0.08771299 -0.14508778 -0.037760757
0001f0 d6 41 ad 3d c5 b3 ca bd 13 81 97 be 7f 89 92 be
       0.08459823 -0.098975696 -0.29590663 -0.28620526
000200 18 18 0b 3a 3c 5f 93 bb b6 70 86 be c6 5e 72 3d
       0.00053060194 -0.004497437 -0.26257867 0.059172414
000210 b1 fc 7a bd 02 4d c8 3d 06 4f a3 bd 0c 81 f2 bd
       -0.06127614 0.09780313 -0.07974057 -0.1184102
000220 8f fd 98 3d 32 59 0d be 8a 50 69 3e 4d 34 a8 bd
       0.074702375 -0.13803557 0.2278463 -0.082131006
000230 d7 88 ae 3d 1b 42 52 3e 2c 8b 4b 3e 73 b6 b7 3c
       0.08522194 0.2053303 0.19877309 0.022425866
000240 30 26 ae 3d c6 ca a0 3d 36 ef 2a bd eb 2a 2c 3d
       0.085033774 0.07851176 -0.041732036 0.042033117
000250 11 c0 83 3c c4 1d 5f 3e
       0.016082795 0.21788698

unstack5 f4 [150]
000000 b6 24 fd be 81 ba a1 bd 48 45 60 bd 51 24 f4 be
       -0.4944207 -0.07896901 -0.05475357 -0.47683957
000010 86 db fa be d9 2d a3 bf 13 d5 8a bf 7d 31 32 bf
       -0.48995608 -1.2748367 -1.0846275 -0.69606763
000020 75 7c d2 be 20 6f 48 be 13 8c 80 bd 29 b6 00 bf
       -0.41110578 -0.19573641 -0.06276717 -0.50277954
000030 7d 6f 80 3d 7d ff cb bd 92 8f ad be a0 1c a4 be
       0.06271265 -0.0996084 -0.33898598 -0.3205309
000040 d2 36 48 bf 09 13 e0 be 08 3a 63 be ff ef 81 3d
       -0.7820865 -0.43764523 -0.22190106 0.06344604
000050 9d 2c 2c bf 59 a7 f1 bc d9 dc c0 be 9f 70 f5 3d
       -0.67255574 -0.029498743 -0.37668493 0.119843714
000060 9c b3 30 be c0 06 21 bf b8 af c0 be 88 6c 13 bf
       -0.17256016 -0.62900925 -0.37634063 -0.5758748
000070 ac 8d 5e 3d 19 a3 10 bf 32 8f 11 3e 7e 7b eb be
       0.054334328 -0.5649887 0.14214781 -0.45992655
000080 ee 73 10 be ff 34 03 bf f9 22 f1 be ea f6 19 bf
       -0.14106724 -0.5125274 -0.47096995 -0.60142386
000090 2a 3e bb be 91 ed df be 5d 01 f3 be 44 3c ec be
       -0.36570865 -0.43735936 -0.47461978 -0.4613973
0000a0 08 c8 b6 be 35 b9 ae bf c6 6c a3 be f1 42 28 bf
       -0.35699487 -1.3650271 -0.31918925 -0.65727144
0000b0 c1 5b 90 be 40 3e 8f be 45 56 f2 bc 91 3c d3 be
       -0.28195003 -0.2797718 -0.029582152 -0.41257146
0000c0 8f 03 09 bf f1 d1 ae be 5e d9 6f 3e de 8a 7f 3e
       -0.53521055 -0.34144548 0.23422763 0.24955317
0000d0 b6 1f dc 3d 6d 0d 53 3e cc f1 a3 3e fb 61 13 bd
       0.10748236 0.2061059 0.32020414 -0.035982113
0000e0 99 ec 73 3c 6f b4 d8 3c 7e e8 bb 3e 46 ca 0e be
       0.014887952 0.026453225 0.36700815 -0.13944349
0000f0 c6 66 06 be 10 e1 c1 3e 56 4e 78 3e 5b 91 1e be
       -0.13125142 0.37867022 0.24248633 -0.15485136
000100 4b 2d 0b be 62 86 3c be 24 c7 98 3e 14 59 86 bd
       -0.13591497 -0.18410638 0.29839432 -0.06559959
000110 2a 91 f2 bd 13 94 d8 3e 8e fe c5 3d 73 7f 2e 3b
       -0.11844094 0.42300472 0.09667693 0.0026626259
000120 98 c0 5b be 41 bd 69 3c 78 d9 e2 bd 54 9e 30 3d
       -0.21460187 0.014266313 -0.11076635 0.043119743
000130 56 ab a1 3e 58 68 8b 3e c5 22 62 bc 55 93 7d bc
       0.3157603 0.27228045 -0.013802235 -0.015477021
000140 0c 65 b4 3e 0c 23 d6 bd 19 2e 3a bd bc d6 d7 3d
       0.35233343 -0.104559034 -0.04545412 0.10539004
000150 cf 6c 9b bd 2f 24 6a 3d 3d 35 f7 bd a1 e6 ae 3d
       -0.07589113 0.057163414 -0.12070701 0.08540083
000160 08 b9 51 3e 2d 08 c2 3d 97 cf 16 be 6e c7 36 3e
       0.2048074 0.09474216 -0.14727627 0.17849514
000170 27 74 e6 3c a9 62 98 3c 6c 06 10 be 40 03 2e 3d
       0.028131558 0.018601732 -0.1406495 0.04248357
000180 c3 b5 4c bc 53 d5 99 3d 37 6c 8f bd fd cc 81 3e
       -0.012494507 0.075113915 -0.07003062 0.25351706
000190 18 75 d3 3e 3b 54 c2 3e aa 29 85 be c9 5d e7 be
       0.41300273 0.37954888 -0.2600835 -0.4518874
0001a0 c1 38 c6 be e3 bc 2f be 9c 83 26 3e 96 2d 7b 3e
       -0.38715175 -0.17161898 0.16261142 0.24529108
0001b0 2c 53 f6 be 4d 74 b7 3d 54 f1 c4 3e 65 4b 15 3f
       -0.4811033 0.089577295 0.3846537 0.5831817
0001c0 b5 ac 2a 3f 50 b7 f2 be ae ef 04 3e 38 42 a4 3e
       0.6666978 -0.4740548 0.12982056 0.3208177
0001d0 dc 5f 06 3f 5d 99 3b 3e 6e c7 3b 3f 9e 9b 2c 3f
       0.5249002 0.18320222 0.7335118 0.67424953
0001e0 da 25 9d be 0e 70 10 be 47 3d 45 3e e7 8a 53 be
       -0.3069294 -0.14105245 0.19261657 -0.20658456
0001f0 08 de cc be 56 06 75 be d7 6f f5 be 89 11 25 bf
       -0.40013146 -0.23928198 -0.4793689 -0.6447988
000200 f3 e4 04 3f ff ba 35 3e 1c b1 3b bf 5c ad c9 bd
       0.5191185 0.17747115 -0.7331712 -0.09847519
000210 4c 7f 8b 3e 59 09 85 3e db 3d 8f 3d 33 20 06 3f
       0.27245557 0.25983694 0.0699422 0.5239288
000220 f4 13 17 be 94 32 1a bf 00 ce b2 3e 8a f4 8a be
       -0.14753705 -0.60233426 0.3492279 -0.27139693
000230 da 4b 1f bd b7 9d c0 3e d8 2e 3e 3e 7e 7b 37 3e
       -0.038890697 0.37620327 0.18572557 0.17918202
000240 2e 18 59 3c 27 f8 57 3e 3c 55 d0 3e 5d 71 f1 be
       0.013250394 0.21090756 0.4069003 -0.47156802
000250 d3 d1 1e be a4 66 10 3f
       -0.15509729 0.5640662

while/MatMul_1 i1 [150, 50] scale=0.002210607 zero_point=0
000000 e3 02 c7 de fe 47 d3 fc 05 1a 34 17 e3 4b f0 0d
       -0.064107604 0.004421214 -0.1260046 -0.07516064 -0.004421214 0.1569531 -0.09947732 -0.008842428 0.011053035 0.057475783 0.114951566 0.05084396 -0.064107604 0.16579553 -0.035369713 0.028737891
000010 f3 fe 46 22 de 00 f8 10 cf e7 16 01 f7 f4 0b f4
       -0.028737891 -0.004421214 0.1547425 0.07516064 -0.07516064 0.0 -0.017684856 0.035369713 -0.108319744 -0.055265177 0.048633356 0.002210607 -0.019895464 -0.026527286 0.024316678 -0.026527286
000020 16 de 2b ea f4 1e d8 02 d0 cc fd 02 f6 45 e6 bc
       0.048633356 -0.07516064 0.0950561 -0.048633356 -0.026527286 0.066318214 -0.08842428 0.004421214 -0.10610914 -0.114951566 -0.0066318214 0.004421214 -0.02210607 0.15253189 -0.057475783 -0.15032127
000030 d7 e1 23 24 16 14 e3 28 d4 1d 55 2f 01 fc 00 03
       -0.09063489 -0.068528816 0.07737125 0.07958186 0.048633356 0.04421214 -0.064107604 0.08842428 -0.09726671 0.064107604 0.1879016 0.10389853 0.002210607 -0.008842428 0.0 0.0066318214
000040 33 20 01 1b 22 26 04 ff 1e 00 ea f6 a3 4b d7 16
       0.112740956 0.070739426 0.002210607 0.05968639 0.07516064 0.08400307 0.008842428 -0.002210607 0.066318214 0.0 -0.048633356 -0.02210607 -0.20558646 0.16579553 -0.09063489 0.048633356
000050 20 ed 0c e5 d0 f0 e7 1c cf db 1e 1c d7 b3 de eb
       0.070739426 -0.042001534 0.026527286 -0.05968639 -0.10610914 -0.035369713 -0.055265177 0.061897 -0.108319744 -0.08179246 0.066318214 0.061897 -0.09063489 -0.17021674 -0.07516064 -0.04642275
000060 4e eb 17 d5 ad 12 1a e4 10 e4 fe cb 10 35 f3 24
       0.17242736 -0.04642275 0.05084396 -0.0950561 -0.18348038 0.03979093 0.057475783 -0.061897 0.035369713 -0.061897 -0.004421214 -0.117162175 0.035369713 0.117162175 -0.028737891 0.07958186
000070 1f 26 01 27 3f 12 ff 04 d6 bf df 55 fc 0d bd ef
       0.068528816 0.08400307 0.002210607 0.08621368 0.13926825 0.03979093 -0.002210607 0.008842428 -0.0928455 -0.14368945 -0.072950035 0.1879016 -0.008842428 0.028737891 -0.14811067 -0.03758032
000080 0e d7 02 49 60 fc 1e 06 08 54 cb df f1 da 2b 41
       0.0309485 -0.09063489 0.004421214 0.16137432 0.21221828 -0.008842428 0.066318214 0.013263643 0.017684856 0.185691 -0.117162175 -0.072950035 -0.033159107 -0.08400307 0.0950561 0.14368945
000090 1f f5 28 06 ce ef 09 25 c8 fe ef 23 f1 1f e8 11
       0.068528816 -0.024316678 0.08842428 0.013263643 -0.110530354 -0.03758032 0.019895464 0.08179246 -0.123794 -0.004421214 -0.03758032 0.07737125 -0.033159107 0.068528816 -0.05305457 0.03758032
0000a0 1d 0b 01 3e 00 1c ef 0f d1 bd ed 25 da 17 d6 0b
       0.064107604 0.024316678 0.002210607 0.13705763 0.0 0.061897 -0.03758032 0.033159107 -0.10389853 -0.14811067 -0.042001534 0.08179246 -0.08400307 0.05084396 -0.0928455 0.024316678
0000b0 f5 23 21 1a 90 d9 e4 ed 0b d8 04 0b f5 fd ab 13
       -0.024316678 0.07737125 0.072950035 0.057475783 -0.247588 -0.08621368 -0.061897 -0.042001534 0.024316678 -0.08842428 0.008842428 0.024316678 -0.024316678 -0.0066318214 -0.1879016 0.042001534
0000c0 df 0e 1e 05 cd e5 f6 44 2d fb ff 25 fd ed 1e db
       -0.072950035 0.0309485 0.066318214 0.011053035 -0.112740956 -0.05968639 -0.02210607 0.15032127 0.09947732 -0.011053035 -0.002210607 0.08179246 -0.0066318214 -0.042001534 0.066318214 -0.08179246
0000d0 24 2d ef c8 07 14 eb d0 ef 14 20 eb 39 ff 06 34
       0.07958186 0.09947732 -0.03758032 -0.123794 0.01547425 0.04421214 -0.04642275 -0.10610914 -0.03758032 0.04421214 0.070739426 -0.04642275 0.1260046 -0.002210607 0.013263643 0.114951566
0000e0 e0 0c dd e2 22 ba 0e 2a fa 38 be d9 cf 24 17 30
       -0.070739426 0.026527286 -0.07737125 -0.066318214 0.07516064 -0.1547425 0.0309485 0.0928455 -0.013263643 0.123794 -0.14590007 -0.08621368 -0.108319744 0.07958186 0.05084396 0.10610914
0000f0 28 d7 0f ff 11 3b 11 d7 d8 1c f8 ee ed 2b 02 ba
       0.08842428 -0.09063489 0.033159107 -0.002210607 0.03758032 0.13042581 0.03758032 -0.09063489 -0.08842428 0.061897 -0.017684856 -0.03979093 -0.042001534 0.0950561 0.004421214 -0.1547425

while/MatMul i1 [150, 42] scale=0.022723714 zero_point=0
000000 fb f8 f6 f0 07 f4 0a ff 19 0b 00 17 fb 11 0b 03
       -0.11361857 -0.18178971 -0.22723714 -0.36357942 0.15906599 -0.27268457 0.22723714 -0.022723714 0.5680928 0.24996085 0.0 0.5226454 -0.11361857 0.38630313 0.24996085 0.06817114
000010 16 0d fe 0c 12 0c 0c 03 0e fe 14 0e 12 11 1c 07
       0.4999217 0.29540828 -0.045447428 0.27268457 0.40902686 0.27268457 0.27268457 0.06817114 0.31813198 -0.045447428 0.45447427 0.31813198 0.40902686 0.38630313 0.63626397 0.15906599
000020 13 0c 0c 0c 06 02 08 f8 0c fa 01 f8 f7 ed 07 fe
       0.43175057 0.27268457 0.27268457 0.27268457 0.13634229 0.045447428 0.18178971 -0.18178971 0.27268457 -0.13634229 0.022723714 -0.18178971 -0.20451343 -0.43175057 0.15906599 -0.045447428
000030 01 00 f6 04 f4 03 0f 13 09 0f 0b 03 e9 fd 09 0f
       0.022723714 0.0 -0.22723714 0.090894856 -0.27268457 0.06817114 0.34085572 0.43175057 0.20451343 0.34085572 0.24996085 0.06817114 -0.5226454 -0.06817114 0.20451343 0.34085572
000040 10 14 11 06 f1 0a 0e 1c 20 1a 2c 18 04 0d 19 13
       0.36357942 0.45447427 0.38630313 0.13634229 -0.34085572 0.22723714 0.31813198 0.63626397 0.72715884 0.59081656 0.9998434 0.54536915 0.090894856 0.29540828 0.5680928 0.43175057
000050 31 10 34 10 f8 00 03 fb f1 0a f9 15 f2 1e f9 16
       1.113462 0.36357942 1.1816331 0.36357942 -0.18178971 0.0 0.06817114 -0.11361857 -0.34085572 0.22723714 -0.15906599 0.477198 -0.31813198 0.68171144 -0.15906599 0.4999217
000060 ff 08 04 06 f8 f6 fd 27 02 18 fc 07 f8 00 f6 1d
       -0.022723714 0.18178971 0.090894856 0.13634229 -0.18178971 -0.22723714 -0.06817114 0.88622487 0.045447428 0.54536915 -0.090894856 0.15906599 -0.18178971 0.0 -0.22723714 0.6589877
000070 f6 1e f8 1b f9 0a ff 1d f7 1a f8 15 01 19 01 fe
       -0.22723714 0.68171144 -0.18178971 0.6135403 -0.15906599 0.22723714 -0.022723714 0.6589877 -0.20451343 0.59081656 -0.18178971 0.477198 0.022723714 0.5680928 0.022723714 -0.045447428
000080 19 e8 17 03 05 fe 00 0c f9 1f 06 0f ff ff ef f4
       0.5680928 -0.54536915 0.5226454 0.06817114 0.11361857 -0.045447428 0.0 0.27268457 -0.15906599 0.7044351 0.13634229 0.34085572 -0.022723714 -0.022723714 -0.38630313 -0.27268457
000090 f5 1e fd 11 ed f8 e8 eb e4 2c f9 11 f0 0a ed 05
       -0.24996085 0.68171144 -0.06817114 0.38630313 -0.43175057 -0.18178971 -0.54536915 -0.477198 -0.63626397 0.9998434 -0.15906599 0.38630313 -0.36357942 0.22723714 -0.43175057 0.11361857
0000a0 e0 18 f8 04 f2 f8 e4 ef 02 fd eb 12 f5 10 f0 0b
       -0.72715884 0.54536915 -0.18178971 0.090894856 -0.31813198 -0.18178971 -0.63626397 -0.38630313 0.045447428 -0.06817114 -0.477198 0.40902686 -0.24996085 0.36357942 -0.36357942 0.24996085
0000b0 f1 12 00 1b 08 1a fb 1c fb 23 08 1b 06 17 0a 17
       -0.34085572 0.40902686 0.0 0.6135403 0.18178971 0.59081656 -0.11361857 0.63626397 -0.11361857 0.79533 0.18178971 0.6135403 0.13634229 0.5226454 0.22723714 0.5226454
0000c0 11 20 14 10 0a 0c 1c 12 2a 18 0e 08 0b 09 1f 11
       0.38630313 0.72715884 0.45447427 0.36357942 0.22723714 0.27268457 0.63626397 0.40902686 0.954396 0.54536915 0.31813198 0.18178971 0.24996085 0.20451343 0.7044351 0.38630313
0000d0 38 13 08 05 07 24 fa 1b fc 11 f5 03 f5 15 fe 0d
       1.2725279 0.43175057 0.18178971 0.11361857 0.15906599 0.8180537 -0.13634229 0.6135403 -0.090894856 0.38630313 -0.24996085 0.06817114 -0.24996085 0.477198 -0.045447428 0.29540828
0000e0 09 09 04 ff f5 09 02 04 07 09 13 05 07 0c 0d f7
       0.20451343 0.20451343 0.090894856 -0.022723714 -0.24996085 0.20451343 0.045447428 0.090894856 0.15906599 0.20451343 0.43175057 0.11361857 0.15906599 0.27268457 0.29540828 -0.20451343
0000f0 1c fb 29 0c fd 02 0d ea 15 f2 28 fc fe fb 0c 09
       0.63626397 -0.11361857 0.9316723 0.27268457 -0.06817114 0.045447428 0.29540828 -0.4999217 0.477198 -0.31813198 0.90894854 -0.090894856 -0.045447428 -0.11361857 0.27268457 0.20451343

unstack6 f4 [300]
000000 1f 88 e6 3d 6c 5c cf be 89 ed de bc c6 0c 6c be
       0.11256432 -0.405002 -0.027212875 -0.23051748
000010 b5 77 05 bf 11 63 d7 bd ac 2e 22 bf f1 3c b5 bd
       -0.52135783 -0.10516942 -0.63352466 -0.08849514
000020 21 e1 a3 be e0 f3 28 3e 9b 00 29 bf 78 48 3b be
       -0.32007697 0.16499281 -0.6601655 -0.18289363
000030 63 f4 0f bf 44 81 a1 be 97 e3 52 bf 98 17 9a be
       -0.5623228 -0.31543934 -0.82378525 -0.30096126
000040 4c ab 3b be 8a f1 3a bc 35 33 26 bf 52 39 90 be
       -0.18327063 -0.011410126 -0.64921886 -0.28168732
000050 4f fc 33 bf 36 80 af bd 15 e9 86 be 06 aa cb be
       -0.7030687 -0.08569376 -0.26349702 -0.39778155
000060 e5 13 83 bc ab c6 6f bf 85 7d 38 3c e6 57 ad be
       -0.016000697 -0.9366252 0.011260395 -0.33856124
000070 e3 cf a0 be ae fa 64 3e 2e e5 2d bf 90 7f f5 bd
       -0.31408605 0.22361252 -0.67927825 -0.11987221
000080 2e 0f 9d be 1e c6 67 3d 06 68 9d 3b eb d9 85 be
       -0.30675644 0.056585424 0.0048036603 -0.2614282
000090 35 e8 b9 be 08 61 52 be 6f 05 d8 be 4b 02 db be
       -0.36309972 -0.20544827 -0.42191646 -0.42775187
0000a0 62 a7 86 be d7 87 1d be 32 8e 10 bf 1d a0 c8 be
       -0.26299578 -0.1538385 -0.5646697 -0.39184657
0000b0 28 fc 5a bd c7 15 8e be e0 71 b7 be e0 ea a8 be
       -0.05346313 -0.2775099 -0.35829067 -0.32991695
0000c0 6d 30 a4 be af c0 bc be 16 f4 10 bf 72 cc b6 be
       -0.32068196 -0.36865756 -0.56622446 -0.35702854
0000d0 bf 48 12 bf 2d 92 f0 be dd ed 06 bf 50 41 11 bf
       -0.5714225 -0.46986523 -0.527067 -0.56740284
0000e0 63 14 59 be 9d 42 15 bf 4d 15 b3 be b4 80 e6 be
       -0.21199183 -0.5830477 -0.3497719 -0.45020068
0000f0 54 bc 82 3d 95 4a 18 bf 8b d0 97 be a2 07 05 bf
       0.06383577 -0.59488803 -0.29651293 -0.5196477
000100 0f b2 5a bf df a7 a5 be 12 fc b0 be 91 0e b9 be
       -0.85427946 -0.32354638 -0.34567314 -0.36143926
000110 77 67 51 bf c8 46 bb bd ba 74 92 be 83 e2 96 3d
       -0.817985 -0.0914436 -0.2860468 0.073674224
000120 1a 40 c0 be 14 23 e2 be c1 ab d7 be 92 68 e2 bd
       -0.37548906 -0.44167387 -0.42123225 -0.110551015
000130 1c 21 0f bf ed 50 bc be 33 31 cd bd b9 92 a0 be
       -0.55909896 -0.3678049 -0.1001915 -0.3136194
000140 40 a5 fd be e0 88 99 be 78 6e 2d be 1e 46 83 be
       -0.49540138 -0.2998724 -0.16936672 -0.25639433
000150 da c9 b9 be 70 39 33 bf 22 0b 9a be b0 a5 8a 3e
       -0.36286813 -0.7000952 -0.3008662 0.27079535
000160 b6 d7 be be ed 58 31 bf 16 f1 0d bf 36 0f 08 bf
       -0.3727395 -0.69276315 -0.5544599 -0.5314821
000170 c1 8d 52 bf 82 90 10 bf d1 3c da be 13 9f 0b be
       -0.8224755 -0.564705 -0.42624524 -0.13634901
000180 3b 59 3b bf 4e 42 06 bf 8b df 26 bf 6c a6 00 bf
       -0.7318303 -0.5244492 -0.6518485 -0.5025394
000190 14 c3 3f bd 7d 22 d0 3d 73 b8 9c be 85 69 cb 3c
       -0.0468169 0.10162828 -0.30609474 0.02483059
0001a0 59 10 47 3e a9 22 8a 3d f2 ea fa 3e ac dc 5e bd
       0.1943983 0.06744892 0.49007374 -0.054409668
0001b0 71 2b 40 3d bf 58 a1 3d 21 26 f7 3c 3e 89 9c bd
       0.04691643 0.07878255 0.030169548 -0.07643364
0001c0 44 3d 1b 3e 2c 7d 82 be 00 ca 42 3d 60 df 81 bc
       0.1516009 -0.25486124 0.047555923 -0.015853584
0001d0 99 8b 80 be 9f 10 4b be ef 97 84 3d dc 08 50 3e
       -0.25106505 -0.19830559 0.064742915 0.2031588
0001e0 e4 6f 9b 3e 1d 51 31 bc be c1 a5 be f2 37 1c be
       0.30358803 -0.010822562 -0.32374376 -0.15255716
0001f0 05 b7 3a 3e ac af 0c be 96 94 ca 3c dc 36 97 3e
       0.18233879 -0.13738889 0.024729054 0.29534042
000200 de 61 23 bd 8b ca 86 3e 4f e1 6f 3d ad a1 56 bc
       -0.039888255 0.26326403 0.05856448 -0.01310007
000210 e1 a3 bf 3d 14 4b 15 be b4 56 58 3e 97 e0 fe 3a
       0.09357429 -0.14579421 0.21126825 0.0019445595
000220 05 be cb bd 36 4a 04 3e 0c ea dd 3d cf 6a 14 be
       -0.09948353 0.12918934 0.108356565 -0.14493869
000230 a4 75 e8 3d 0a b9 39 be 50 5c dd 3c 6f 40 af 3c
       0.11350563 -0.18136993 0.027021557 0.021393029
000240 57 cc 49 3e 41 62 b9 3e cf 9c d3 3d ad 0c 5b be
       0.19706856 0.36207774 0.10332643 -0.21391554
000250 ba a9 9a bd a6 bd b3 3a 26 f6 11 be af 48 85 3e
       -0.07551904 0.0013713136 -0.14254054 0.26032016
000260 b5 2f 17 3e 84 b6 ea bd 6b 0b 94 be 38 cb 64 3e
       0.14764293 -0.11460593 -0.2891496 0.22343147
000270 0f 2c 7f 3e f8 e7 57 be 80 b2 75 bd 5b 55 d1 3d
       0.24919151 -0.21084583 -0.059984684 0.102213584
000280 51 d3 28 3e 63 9b b8 bc 29 67 9b 3d d3 2e a1 be
       0.16486861 -0.022535032 0.075880356 -0.31481037
000290 e8 8c ae be 0f 7e 37 bd 26 10 7b be 60 b7 33 bd
       -0.34091878 -0.044797953 -0.24517879 -0.043876052
0002a0 4b 24 16 3d f8 21 65 3e b9 c3 66 be 9f 44 b4 3d
       0.036655705 0.2237624 -0.225356 0.08802151
0002b0 83 fd 17 bc 47 ef 3b 3d c8 02 3d bd 0d 88 f9 bd
       -0.0092767505 0.04588249 -0.04614523 -0.12184153
0002c0 af 39 76 3e cd 51 84 bc 2e d1 9c 3d dc 38 54 3d
       0.24045442 -0.016152287 0.07657085 0.051812038
0002d0 a3 1b b3 bc 51 61 76 3e 52 ac e6 bd 61 4d 20 3d
       -0.021863764 0.24060561 -0.11263336 0.039136294
0002e0 da ef 0c bc 6f 9a ab bd cb 3a 0a 3e e6 8d 3b 3e
       -0.008602107 -0.08379065 0.1349899 0.18315849
0002f0 f3 35 d4 3d 80 58 dc bd c1 04 0c 3e cb 8d cb 3d
       0.103618525 -0.107590675 0.13673688 0.09939154
000300 4c 91 27 3d c6 6e 5a 3e 94 70 90 3d 75 78 d2 3d
       0.04091005 0.21331319 0.070527226 0.102768816
000310 3c 06 30 3e 44 fc 9a 3e 34 c8 d5 3d 1c f8 87 3e
       0.17189878 0.30270588 0.10438576 0.2655648
000320 a4 56 80 bd 2c 15 28 3c a9 d6 98 be db 8d ea 3b
       -0.062665254 0.010258954 -0.29851273 0.007158024
000330 7c 14 2a be 25 b9 b8 3d f8 92 c1 3e 24 ba cb bd
       -0.16609377 0.090196885 0.3780744 -0.09947613
000340 a6 22 00 3c 34 e2 c1 bd 94 f8 5b 3d dc 91 a9 3c
       0.007820761 -0.09466973 0.05370386 0.020699434
000350 a2 73 be bd 0d 59 23 3e 75 e1 21 3b 79 f5 3d 3c
       -0.09299399 0.15951939 0.0024701033 0.01159417
000360 d4 a2 65 3e ba fe 35 be 67 04 72 bd ac 28 c8 bd
       0.22425395 -0.17772952 -0.05908623 -0.097733825
000370 46 3e 83 3e b4 02 13 3d 19 3c 94 be 8b 33 11 3e
       0.25633448 0.03589125 -0.289521 0.14179818
000380 05 d3 16 be ef 3b f6 3d eb 17 e7 3c 6d 93 56 3e
       -0.14728935 0.1202315 0.028209647 0.20954676
000390 92 3d a0 3d 08 4e 63 3e d8 fc b5 bd fd 0c b5 3b
       0.078242436 0.22197735 -0.08886117 0.00552523
0003a0 31 23 9a 3d 8c 58 ce 3d e2 ad 15 be b5 92 03 3d
       0.075262435 0.10075483 -0.14617112 0.032122333
0003b0 a4 57 a7 3d a7 86 d3 bd 05 35 d9 bd b3 34 f7 bd
       0.08171013 -0.10328417 -0.10605816 -0.120705985
0003c0 f0 c6 4e 3b 97 dd 26 3e 20 ee 03 bd 42 85 6d 3c
       0.0031551681 0.16295467 -0.032209516 0.014497103
0003d0 e5 7f 0c be 90 af 8c 3e e2 7e 42 3d 98 fe 32 be
       -0.13720663 0.27477694 0.047484286 -0.17479932
0003e0 cc 69 c7 bd d8 d0 1b bd ca e4 21 3e e0 83 39 3e
       -0.09736976 -0.038040966 0.15809932 0.18116713
0003f0 33 5b ef bd 7b e1 1d 3e 7c 87 9e 3e 03 f7 ba 3d
       -0.11687317 0.15418045 0.3096274 0.09129145
