GRU-main/model/keypoint_classifier/GRU_model_moving.tflite (tflite, 88928 bytes, 14 tensors)

sequential_2/dense_2/BiasAdd/ReadVariableOp f4 [38]
00000000: de6e b0be bff3 953e 6e83 cebe 4744 07bf
00000010: ecfc 593e d3d4 27bd 7820 e4bd 10e0 7bbe
00000020: 1907 d1bd 084e b13e ed44 4bbd 0f98 b93c
00000030: 8f6a 72bc f787 e53d 24b7 c23e ac0d 323e
00000040: bd67 023d ede4 8abd e822 aebe 7e98 1ebe
00000050: d253 64be 4c9b e93c 0eb5 df3e cca2 c6be
00000060: 33aa 383d c2c9 773e 8773 cfbc c65e 1abe
00000070: 8ade 4fbe d549 28be 098a 103e 6ba8 4cbd
00000080: 5198 d2be bec4 afbe 9ee6 5ebe c8be 6c3e
00000090: 3590 913d b5d9 d8bd
-0.34459585 0.29287526 -0.40334648 -0.5283856 0.21287888 -0.04097445 -0.111390054 -0.24597192
-0.10206432 0.34629846 -0.04962628 0.022655515 -0.014795913 0.11207574 0.3803035 0.17388028
0.031837214 -0.067819454 -0.34011006 -0.15487859 -0.222976 0.028516434 0.4369282 -0.3879608
0.04508419 0.24198058 -0.025323642 -0.15075216 -0.20299736 -0.16434415 0.14115156 -0.049965303
-0.41131833 -0.3432979 -0.21767661 0.23119652 0.071075834 -0.10588399

unstack f4 [150]
00000000: cbd7 a03e 9147 54bd b95f febe 7805 61be
00000010: 0037 fd3e fe92 0abf d9a4 01bf 882e ef3c
00000020: 5a5f 02bf 20d8 49bf 63e4 0dbf 88ad 97be
00000030: c291 f5be c7f3 0c3b 7901 04be 5a5a 973d
00000040: a901 0fbf 1522 07be 307a e6be 785a c93c
00000050: 5b3d a0be 57bc b4be 5dee 02be 8006 f6be
00000060: 02ad 1abe 494f 83bf 2805 a5be 2cd6 ebbe
00000070: 5e91 88bf add6 d9be c7a0 76be d01b d3bd
00000080: ffb1 42bf 2be0 e8be a22d f2be 1333 55bf
00000090: b27e bcbe 862a 97be e0d5 fabe b60a 81bd
000000a0: 1e53 a8be 6edf 2dbc ee85 e6be 49e1 24be
000000b0: fabf 95bd 781a b2be e347 bbbe f805 a1be
000000c0: ce76 8ebe 55a8 06bf b1ed 3bbc 8e28 0a3e
000000d0: 2694 7cbd 1df7 c9be ed63 d23e 0b61 a33e
000000e0: ca05 423e a090 5f3e db37 da3e bd79 59bd
000000f0: 352c 1d3e 3bc3 e43e 8d41 cd3c 0e58 56bd
00000100: c62d b9bd 4e7a 45bd 014c 763d 9a83 b5bc
00000110: 35d2 9fbd f47d 61be 6c53 033e 7f70 423e
00000120: 2a2f 263f 178f b0bc 34e8 2abe bdbb 0f3e
00000130: de26 0c3f 70a5 873e 107e 193e ea9c 183d
00000140: 81d1 5a3e 5af2 80be fcac 4abe deff b83e
00000150: 709f 393e 88a7 9cbd 28ea bf3e 4f1f debd
00000160: 35de 2c3e 972e e4bd fbcd ec3e 2780 13be
00000170: d500 4c3e d3b0 b0bd a4fd 58be fdad cd3d
00000180: af15 0f3e b782 69be 0416 0b3e b938 f33e
00000190: 5924 d33e 1027 5f3f 833a 6d3f 3b7f 31bc
000001a0: 3ab1 5fbf ff80 88bf 61b0 fcbe 21f0 4b3f
000001b0: 02e5 79bf abb8 b13e 3e65 f33e 9e15 563f
000001c0: 07e2 0dbf 1a66 953f eb0d 163f 617f 6cbe
000001d0: 0dd5 fdbe 1842 ab3e ee37 9abf c939 ccbe
000001e0: 5fef d13e e58e 1ebf 4e87 6b3f 0ff2 cdbe
000001f0: 38f5 0fbf 9a0c 113f 5d35 46bf 43de 2ebf
00000200: 3936 0bbf 4cd6 1e3f 9b22 f5be d6fd ba3e
00000210: ade0 c3be c7fe 6bbf a58a d13e 52b1 103f
00000220: 7cf0 823f 016f e3be 1037 3abf 66c1 d0be
00000230: 0901 44bf 2641 8ebe f7c5 00bf 1807 283f
00000240: 1931 f43e 35ba 6dbf b903 183f 56ee 0d3f
00000250: f98d 10bf e5a9 703f
0.31414637 -0.051826064 -0.49682406 -0.21974742 0.49456024 -0.5413054 -0.5064216 0.029196993
-0.50926745 -0.78845406 -0.55426615 -0.2962458 -0.47962767 0.0021507607 -0.12891187 0.0739028
-0.5586191 -0.13196595 -0.45015097 0.024579272 -0.3129681 -0.35299942 -0.12786241 -0.48051834
-0.1510506 -1.0258571 -0.32230496 -0.46061838 -1.0669363 -0.42546597 -0.24084769 -0.10308039
-0.7605285 -0.45483527 -0.4730044 -0.8328106 -0.3681541 -0.2952463 -0.489913 -0.06300871
-0.32875913 -0.010612352 -0.45024055 -0.16101564 -0.07312007 -0.3478582 -0.36578283 -0.31449866
-0.27825016 -0.52600604 -0.011470244 0.13492033 -0.061664723 -0.39446345 0.41091862 0.31909975
0.18947521 0.21832514 0.4262074 -0.053094614 0.15348895 0.446802 0.025055671 -0.05233007
-0.09041934 -0.048212342 0.060131077 -0.02215748 -0.07803766 -0.22020704 0.12824792 0.18988226
0.64915717 -0.021552606 -0.16690141 0.1403646 0.54746807 0.26493406 0.14989495 0.03725902
0.21368982 -0.251849 -0.19792551 0.3613271 0.18127227 -0.076491416 0.37483335 -0.108458154
0.1688164 -0.11141699 0.462509 -0.14404355 0.19922192 -0.086274765 -0.21190506 0.10042951
0.13973115 -0.2280377 0.13582617 0.47504213 0.4123867 0.8716898 0.92667407 -0.010833557
-0.873798 -1.0664366 -0.49353316 0.7966328 -0.97615063 0.34711203 0.4753818 0.83626735
-0.55423015 1.1671784 0.5861499 -0.23095466 -0.49576607 0.33448863 -1.2048318 -0.39887837
0.41002938 -0.6193679 0.92003334 -0.4022374 -0.5623355 0.56659853 -0.77425176 -0.68307894
-0.5437961 0.6204574 -0.47877964 0.36521786 -0.38257352 -0.92185634 0.4092609 0.5652057
1.022964 -0.44420627 -0.7274027 -0.4077255 -0.7656408 -0.2778408 -0.5030207 0.65635824
0.4769371 -0.92862254 0.5938068 0.55441797 -0.56466633 0.9400924

unstack1 f4 [150]
00000000: cbd7 a03e 9147 54bd b95f febe 7805 61be
00000010: 0037 fd3e fe92 0abf d9a4 01bf 882e ef3c
00000020: 5a5f 02bf 20d8 49bf 63e4 0dbf 88ad 97be
00000030: c291 f5be c7f3 0c3b 7901 04be 5a5a 973d
00000040: a901 0fbf 1522 07be 307a e6be 785a c93c
00000050: 5b3d a0be 57bc b4be 5dee 02be 8006 f6be
00000060: 02ad 1abe 494f 83bf 2805 a5be 2cd6 ebbe
00000070: 5e91 88bf add6 d9be c7a0 76be d01b d3bd
00000080: ffb1 42bf 2be0 e8be a22d f2be 1333 55bf
00000090: b27e bcbe 862a 97be e0d5 fabe b60a 81bd
000000a0: 1e53 a8be 6edf 2dbc ee85 e6be 49e1 24be
000000b0: fabf 95bd 781a b2be e347 bbbe f805 a1be
000000c0: ce76 8ebe 55a8 06bf b1ed 3bbc 8e28 0a3e
000000d0: 2694 7cbd 1df7 c9be ed63 d23e 0b61 a33e
000000e0: ca05 423e a090 5f3e db37 da3e bd79 59bd
000000f0: 352c 1d3e 3bc3 e43e 8d41 cd3c 0e58 56bd
00000100: c62d b9bd 4e7a 45bd 014c 763d 9a83 b5bc
00000110: 35d2 9fbd f47d 61be 6c53 033e 7f70 423e
00000120: 2a2f 263f 178f b0bc 34e8 2abe bdbb 0f3e
00000130: de26 0c3f 70a5 873e 107e 193e ea9c 183d
00000140: 81d1 5a3e 5af2 80be fcac 4abe deff b83e
00000150: 709f 393e 88a7 9cbd 28ea bf3e 4f1f debd
00000160: 35de 2c3e 972e e4bd fbcd ec3e 2780 13be
00000170: d500 4c3e d3b0 b0bd a4fd 58be fdad cd3d
00000180: af15 0f3e b782 69be 0416 0b3e b938 f33e
00000190: ee80 71bc ccd2 883d 4880 2ebd a070 a63e
000001a0: df16 aebe a6e3 3ebe 6915 27be 27f8 153e
000001b0: ff31 cbbe e175 853a 4fb6 3a3e dcc5 f83e
000001c0: 0968 19bd 3b32 18be 11e2 813c 435d 4ebb
000001d0: c601 f8bd 1cd2 4d3b 7dad 173e 45ee 593e
000001e0: 4ff5 033e 54c8 5ebe 9600 093f 4656 8dbb
000001f0: 6d8b 203e d511 063e c045 ebbe fb4e 63be
00000200: 3ae9 d6bd 9469 813d 1168 4ebe 19d4 93be
00000210: 8dcf 0f3e 9a6f babe 7c7e f53d c4ff 7f3d
00000220: 3aa8 623e 84b2 3b3e 4864 4fbe 03ae dd3d
00000230: e11c acbe 1dea e43d 413a 47be 2db9 a1bd
00000240: dd89 48be 84e5 50bd 4f1a 0b3f 3e5b 80be
00000250: b612 5abe a745 e33e
0.31414637 -0.051826064 -0.49682406 -0.21974742 0.49456024 -0.5413054 -0.5064216 0.029196993
-0.50926745 -0.78845406 -0.55426615 -0.2962458 -0.47962767 0.0021507607 -0.12891187 0.0739028
-0.5586191 -0.13196595 -0.45015097 0.024579272 -0.3129681 -0.35299942 -0.12786241 -0.48051834
-0.1510506 -1.0258571 -0.32230496 -0.46061838 -1.0669363 -0.42546597 -0.24084769 -0.10308039
-0.7605285 -0.45483527 -0.4730044 -0.8328106 -0.3681541 -0.2952463 -0.489913 -0.06300871
-0.32875913 -0.010612352 -0.45024055 -0.16101564 -0.07312007 -0.3478582 -0.36578283 -0.31449866
-0.27825016 -0.52600604 -0.011470244 0.13492033 -0.061664723 -0.39446345 0.41091862 0.31909975
0.18947521 0.21832514 0.4262074 -0.053094614 0.15348895 0.446802 0.025055671 -0.05233007
-0.09041934 -0.048212342 0.060131077 -0.02215748 -0.07803766 -0.22020704 0.12824792 0.18988226
0.64915717 -0.021552606 -0.16690141 0.1403646 0.54746807 0.26493406 0.14989495 0.03725902
0.21368982 -0.251849 -0.19792551 0.3613271 0.18127227 -0.076491416 0.37483335 -0.108458154
0.1688164 -0.11141699 0.462509 -0.14404355 0.19922192 -0.086274765 -0.21190506 0.10042951
0.13973115 -0.2280377 0.13582617 0.47504213 -0.014740212 0.06680831 -0.042602807 0.325078
-0.34001824 -0.18641528 -0.16316761 0.14645444 -0.39686581 0.0010182225 0.18233608 0.48588455
-0.03745273 -0.14862911 0.015854867 -0.0031488694 -0.12109713 0.0031405753 0.14812274 0.21282299
0.12886547 -0.21756107 0.5351652 -0.004313263 0.15678187 0.1309274 -0.45951653 -0.22198097
-0.10493703 0.063189656 -0.20156886 -0.28872755 0.14044018 -0.3641327 0.119870156 0.062499776
0.22134486 0.18329817 -0.20253098 0.10824206 -0.33615783 0.11177466 -0.19455816 -0.078966476
-0.1958384 -0.051000133 0.5433702 -0.25069612 -0.212962 0.44389078

unstack2 f4 [300]
00000000: 9bc9 67bf dd2c 4ebf 2c55 50bf 70a6 7abe
00000010: e7c2 1cbf e95d 11bf 5613 e3be 1064 fdbd
00000020: 6778 72bd 0e5f 2dbe c386 95be 7d03 33bf
00000030: f8c8 81bf 501c 10bf 4f51 45bf 45ea 39bf
00000040: 69aa 03bf be82 35bf 76a4 04bf cb45 6fbf
00000050: db66 5cbf 7d8a efbe 1a68 1dbf dcc7 17bf
00000060: be26 94be a581 74bf dc8d ffbe a7a3 64bf
00000070: a754 98be 8a33 2ebf 4a80 04bf 7db7 f8be
00000080: 9039 8fbe 9c22 26bf 4e3d d0be 9207 babe
00000090: ae2a 07bf 0669 52bf 5588 d3be 711f 3dbf
000000a0: 20f1 32bf 4292 9dbe 98ab e6be cf9c 82bf
000000b0: 8b8c c1be 4577 2abf b95f 07bf 05b4 b4be
000000c0: 501d 35bf 7c4f 1cbf 9caf e1be f7f2 04bf
000000d0: fb5e 3dbf 356a 32bf c54d 1fbf 63f6 0fbf
000000e0: 1bb2 babe a155 53bf 2c3e e8be e664 34bf
000000f0: fe48 0ebf 20fd 82bf b53c a4be 5aa4 52bf
00000100: 6d5e fbbe de19 d0be 804c 83be 0d0f 7bbf
00000110: ed66 42be 906d 4cbf c603 2abf e2ce 4fbf
00000120: 08ec 43bf 5807 52bf 8c0d 27bf 7cff f9be
00000130: 3b58 02bf 9823 d7be caec 44bf d4a6 26bf
00000140: 6680 adbe 59b3 1fbf f277 d7be 3d6d 7bbf
00000150: 2538 8dbf e26e afbe 4a46 1ebf 3b38 e5be
00000160: 20ba 02bf ee0e 30bf 9d2d c4be b9ed 1cbf
00000170: 41ff 17bf 2926 3ebf 5a36 4cbe 2f2a 27be
00000180: 08a8 5abf 4819 cabe 4b4c 19bf 2f06 46bf
00000190: 6a54 223e c439 833d 501b 03bd 10b8 0c3e
000001a0: db9b 04be 8af3 6bbe 0a37 a33d 360c 863e
000001b0: 25cf f0bd d3d5 163d 3edb 67bd 1086 07bd
000001c0: 80a3 8a3e c337 4d3d 10a5 923e 035a 583d
000001d0: 60cc fa3d 8c79 f03d b57b 963d 5271 80bd
000001e0: c71e 123d 6791 b4bd 868d 3fbc 308f cebe
000001f0: bbdd af3d 2ceb 973d ac86 ba3d 2d44 23be
00000200: 6f88 babd d75d 943d 5972 243d 7920 153e
00000210: 7724 bd3e ab52 c6bc fb2c b53c ab65 a1be
00000220: 1102 643e a1ad a1be e06f f23d 371b dbbd
00000230: 2c9e 5dbd fda4 943e d2b9 80be a98a 803d
00000240: eca7 02bd 5f9d de3d d2d3 64bb eb0d 773d
00000250: 6209 0bbe 78ce d63d 5193 823b ac2b 9f3e
00000260: 971a 013d e06a 6b3d 2908 3fbe 3da4 1fbe
00000270: 9f75 34be 8755 043e 2196 263e 15a9 113e
00000280: cea4 643e 1c54 9bbd 3718 56be 276f ca3d
00000290: da41 403c 0df2 c6bd 6fb1 a1bc 1349 35bd
000002a0: 8b82 0bbd 010c 4d3e ff9a a63d 6c0c 01be
000002b0: 7b12 b63e 6ebc 123d 619d 793e 113c 003f
000002c0: 303b c33d 74a3 b33e 108e 3fbe aa56 07be
000002d0: 67a7 e3be 282a 3c3d e04c ab3d 954e 10be
000002e0: 80a7 083e d478 bdbe 1b7b a8bc 4a29 3a3d
000002f0: 6ac3 ee3d 4eac d83c 861a f0bc cb84 773e
00000300: 4b0e 363e 97a3 afbe d60d 233d b3b7 403d
00000310: 42b3 c23e d7b6 9f3e cb2c 5cbd 747e 653e
00000320: e306 71bf 7614 f4be 935a 34bf 1680 f33e
00000330: f99e 19bf afcd 2abf 56ac 443f 3520 693f
00000340: 0224 fa3e 85c4 3abf 1964 fd3e 25da 52bf
00000350: 7f1c 5b3f c21a 353f e683 16bf 5f08 12bf
00000360: ed63 f53e 10f6 71bf 18b7 2d3f 45ca ad3e
00000370: 3650 edbe 527b 2a3f 3850 11bf 7e73 143e
00000380: 4fbc 70bf 43ce 7b3f 49a8 2cbf f4f5 08bf
00000390: 9387 ecbe 7c6d 01bf 0924 233f 260b 123f
000003a0: 8441 543f f5ee e93e 11fa 18bf 0e57 be3e
000003b0: 3eba 41bf 584c ce3e deb8 61bf b7ec 023f
000003c0: 89ec 05bf 213b 503f 8d08 a93e 1cd3 453f
000003d0: f175 31bf 8a3f 17bf 6379 62bf 6ded 2e3f
000003e0: 0951 f9be 230e 193f f6b2 4a3f 3433 38bf
000003f0: 2b37 d63e 1b77 46bf 370a 173f bb76 0e3f
-0.90542 -0.80537206 -0.8137996 -0.24477553 -0.612349 -0.5678392 -0.4435069 -0.12372601
-0.059196856 -0.16930792 -0.29204378 -0.699272 -1.0139456 -0.562932 -0.7707719 -0.7262309
-0.514319 -0.7090262 -0.5181345 -0.9346587 -0.86094445 -0.46785346 -0.6148697 -0.59289336
-0.28935808 -0.9551032 -0.49912918 -0.89312214 -0.29752085 -0.6804739 -0.51758254 -0.4857749
-0.27973604 -0.6489656 -0.40671772 -0.363339 -0.527995 -0.82191503 -0.4131495 -0.738761
-0.6989918 -0.30775648 -0.4505279 -1.0204104 -0.37802538 -0.6658824 -0.52880436 -0.35293594
-0.7074785 -0.61058784 -0.44079292 -0.51933235 -0.73973054 -0.6969331 -0.6222804 -0.5623533
-0.3646401 -0.82552534 -0.45359933 -0.7046646 -0.5558013 -1.0233498 -0.32077566 -0.8228203
-0.4909548 -0.40644735 -0.25644302 -0.9806984 -0.18984576 -0.7985468 -0.6641201 -0.81175053
-0.7653203 -0.82042456 -0.65255046 -0.48827732 -0.5091588 -0.42019343 -0.7692381 -0.6509831
-0.33887023 -0.6238304 -0.420837 -0.9821356 -1.1032759 -0.34264284 -0.61826 -0.44769463
-0.51065254 -0.6877278 -0.3831605 -0.61300236 -0.5937386 -0.7427698 -0.19942608 -0.16324686
-0.85412645 -0.39472413 -0.5988204 -0.77353185 0.15852514 0.06407502 -0.03200847 0.1374209
-0.12950079 -0.23042122 0.07969482 0.2618119 -0.1175826 0.036825012 -0.05660557 -0.033086836
0.27077866 0.050102007 0.28641558 0.052820217 0.12246013 0.11741933 0.07347814 -0.06271614
0.035673883 -0.08816796 -0.011691457 -0.40343618 0.085872136 0.07417902 0.09107718 -0.15943976
-0.09108054 0.07244461 0.040148113 0.14563169 0.36941883 -0.024209341 0.022116175 -0.3152288
0.22266413 -0.3157778 0.11837745 -0.1069855 -0.054105923 0.29032126 -0.2514177 0.06276447
-0.031898424 0.1086986 -0.0034916294 0.060316008 -0.13577798 0.104885995 0.0039848466 0.31088006
0.0315195 0.05747497 -0.18655457 -0.15589996 -0.17622994 0.12923251 0.16268207 0.14224656
0.22328493 -0.07584402 -0.20907675 0.09884482 0.01173445 -0.09714136 -0.019737927 -0.044259142
-0.034060042 0.2002411 0.08135032 -0.12602395 0.35560974 0.03582423 0.24376442 0.50091654
0.095327735 0.35085642 -0.18706536 -0.13216653 -0.44463655 0.04593864 0.08364272 -0.14092477
0.13345146 -0.37006247 -0.020566514 0.045449533 0.11658366 0.026449349 -0.029309522 0.2417175
0.1777889 -0.34304497 0.039808117 0.04705019 0.38027388 0.31194183 -0.053753655 0.2241152
-0.94151133 -0.4767186 -0.70450705 0.4755866 -0.600082 -0.667201 0.76825464 0.9106477
0.48855597 -0.72956115 0.4949043 -0.8236411 0.85590357 0.70743954 -0.5879501 -0.57044023
0.479278 -0.94516087 0.67857504 0.33943382 -0.4635026 0.6659442 -0.5676303 0.14497182
-0.94037336 0.98361605 -0.6744428 -0.53500295 -0.46197185 -0.50557685 0.6372686 0.5704826
0.8291247 0.45690122 -0.5975657 0.37175792 -0.7567481 0.4029262 -0.8817271 0.5114245
-0.5231405 0.81340224 0.33014336 0.7727525 -0.6932059 -0.5908133 -0.8846647 0.68331033
-0.48694637 0.59787196 0.7917932 -0.7195313 0.41838965 -0.7752549 0.5899996 0.5564992

unstack3 f4 [300]
00000000: 9bc9 67bf dd2c 4ebf 2c55 50bf 70a6 7abe
00000010: e7c2 1cbf e95d 11bf 5613 e3be 1064 fdbd
00000020: 6778 72bd 0e5f 2dbe c386 95be 7d03 33bf
00000030: f8c8 81bf 501c 10bf 4f51 45bf 45ea 39bf
00000040: 69aa 03bf be82 35bf 76a4 04bf cb45 6fbf
00000050: db66 5cbf 7d8a efbe 1a68 1dbf dcc7 17bf
00000060: be26 94be a581 74bf dc8d ffbe a7a3 64bf
00000070: a754 98be 8a33 2ebf 4a80 04bf 7db7 f8be
00000080: 9039 8fbe 9c22 26bf 4e3d d0be 9207 babe
00000090: ae2a 07bf 0669 52bf 5588 d3be 711f 3dbf
000000a0: 20f1 32bf 4292 9dbe 98ab e6be cf9c 82bf
000000b0: 8b8c c1be 4577 2abf b95f 07bf 05b4 b4be
000000c0: 501d 35bf 7c4f 1cbf 9caf e1be f7f2 04bf
000000d0: fb5e 3dbf 356a 32bf c54d 1fbf 63f6 0fbf
000000e0: 1bb2 babe a155 53bf 2c3e e8be e664 34bf
000000f0: fe48 0ebf 20fd 82bf b53c a4be 5aa4 52bf
00000100: 6d5e fbbe de19 d0be 804c 83be 0d0f 7bbf
00000110: ed66 42be 906d 4cbf c603 2abf e2ce 4fbf
00000120: 08ec 43bf 5807 52bf 8c0d 27bf 7cff f9be
00000130: 3b58 02bf 9823 d7be caec 44bf d4a6 26bf
00000140: 6680 adbe 59b3 1fbf f277 d7be 3d6d 7bbf
00000150: 2538 8dbf e26e afbe 4a46 1ebf 3b38 e5be
00000160: 20ba 02bf ee0e 30bf 9d2d c4be b9ed 1cbf
00000170: 41ff 17bf 2926 3ebf 5a36 4cbe 2f2a 27be
00000180: 08a8 5abf 4819 cabe 4b4c 19bf 2f06 46bf
00000190: 6a54 223e c439 833d 501b 03bd 10b8 0c3e
000001a0: db9b 04be 8af3 6bbe 0a37 a33d 360c 863e
000001b0: 25cf f0bd d3d5 163d 3edb 67bd 1086 07bd
000001c0: 80a3 8a3e c337 4d3d 10a5 923e 035a 583d
000001d0: 60cc fa3d 8c79 f03d b57b 963d 5271 80bd
000001e0: c71e 123d 6791 b4bd 868d 3fbc 308f cebe
000001f0: bbdd af3d 2ceb 973d ac86 ba3d 2d44 23be
00000200: 6f88 babd d75d 943d 5972 243d 7920 153e
00000210: 7724 bd3e ab52 c6bc fb2c b53c ab65 a1be
00000220: 1102 643e a1ad a1be e06f f23d 371b dbbd
00000230: 2c9e 5dbd fda4 943e d2b9 80be a98a 803d
00000240: eca7 02bd 5f9d de3d d2d3 64bb eb0d 773d
00000250: 6209 0bbe 78ce d63d 5193 823b ac2b 9f3e
00000260: 971a 013d e06a 6b3d 2908 3fbe 3da4 1fbe
00000270: 9f75 34be 8755 043e 2196 263e 15a9 113e
00000280: cea4 643e 1c54 9bbd 3718 56be 276f ca3d
00000290: da41 403c 0df2 c6bd 6fb1 a1bc 1349 35bd
000002a0: 8b82 0bbd 010c 4d3e ff9a a63d 6c0c 01be
000002b0: 7b12 b63e 6ebc 123d 619d 793e 113c 003f
000002c0: 303b c33d 74a3 b33e 108e 3fbe aa56 07be
000002d0: 67a7 e3be 282a 3c3d e04c ab3d 954e 10be
000002e0: 80a7 083e d478 bdbe 1b7b a8bc 4a29 3a3d
000002f0: 6ac3 ee3d 4eac d83c 861a f0bc cb84 773e
00000300: 4b0e 363e 97a3 afbe d60d 233d b3b7 403d
00000310: 42b3 c23e d7b6 9f3e cb2c 5cbd 747e 653e
00000320: 5a60 c7bd c7ed 82bd 2130 863d dd24 c23d
00000330: 0933 173e 08ee 773e 6847 a43d 3674 1e3e
00000340: 2582 08be b56b f43c 63fd 28bd 1d00 8d3d
00000350: 2a95 483e 5a7e 083b d7ab 6abe bb24 43bd
00000360: 2d46 043e e75e f1bc 05af 703d 0e8b e2bd
00000370: 32e1 513c 1247 39bd 1c4b 67bc 2bee dbbe
00000380: 8f53 5bbd a8e7 043d 662f 66bd f08c fd3d
00000390: 34cc aa3d b3ce a1bd 1d14 7b3d b5b1 8d3d
000003a0: 6d3e 973e 6a20 09bc 229a 6fbc 704c b6be
000003b0: 647f 92be d799 8dbe d54a fbbc 39ea 03be
000003c0: 8bdc 633d 59e5 3e3e 80c2 88be 14f4 37bc
000003d0: 81c5 ef3d 35a5 aabd 2e63 903d bfed fd3c
000003e0: fe3c 073e af9a 603d eef3 04bd 8097 98be
000003f0: 59b1 93bb 4ad3 50bc 0197 bdbe d66a 81be
-0.90542 -0.80537206 -0.8137996 -0.24477553 -0.612349 -0.5678392 -0.4435069 -0.12372601
-0.059196856 -0.16930792 -0.29204378 -0.699272 -1.0139456 -0.562932 -0.7707719 -0.7262309
-0.514319 -0.7090262 -0.5181345 -0.9346587 -0.86094445 -0.46785346 -0.6148697 -0.59289336
-0.28935808 -0.9551032 -0.49912918 -0.89312214 -0.29752085 -0.6804739 -0.51758254 -0.4857749
-0.27973604 -0.6489656 -0.40671772 -0.363339 -0.527995 -0.82191503 -0.4131495 -0.738761
-0.6989918 -0.30775648 -0.4505279 -1.0204104 -0.37802538 -0.6658824 -0.52880436 -0.35293594
-0.7074785 -0.61058784 -0.44079292 -0.51933235 -0.73973054 -0.6969331 -0.6222804 -0.5623533
-0.3646401 -0.82552534 -0.45359933 -0.7046646 -0.5558013 -1.0233498 -0.32077566 -0.8228203
-0.4909548 -0.40644735 -0.25644302 -0.9806984 -0.18984576 -0.7985468 -0.6641201 -0.81175053
-0.7653203 -0.82042456 -0.65255046 -0.48827732 -0.5091588 -0.42019343 -0.7692381 -0.6509831
-0.33887023 -0.6238304 -0.420837 -0.9821356 -1.1032759 -0.34264284 -0.61826 -0.44769463
-0.51065254 -0.6877278 -0.3831605 -0.61300236 -0.5937386 -0.7427698 -0.19942608 -0.16324686
-0.85412645 -0.39472413 -0.5988204 -0.77353185 0.15852514 0.06407502 -0.03200847 0.1374209
-0.12950079 -0.23042122 0.07969482 0.2618119 -0.1175826 0.036825012 -0.05660557 -0.033086836
0.27077866 0.050102007 0.28641558 0.052820217 0.12246013 0.11741933 0.07347814 -0.06271614
0.035673883 -0.08816796 -0.011691457 -0.40343618 0.085872136 0.07417902 0.09107718 -0.15943976
-0.09108054 0.07244461 0.040148113 0.14563169 0.36941883 -0.024209341 0.022116175 -0.3152288
0.22266413 -0.3157778 0.11837745 -0.1069855 -0.054105923 0.29032126 -0.2514177 0.06276447
-0.031898424 0.1086986 -0.0034916294 0.060316008 -0.13577798 0.104885995 0.0039848466 0.31088006
0.0315195 0.05747497 -0.18655457 -0.15589996 -0.17622994 0.12923251 0.16268207 0.14224656
0.22328493 -0.07584402 -0.20907675 0.09884482 0.01173445 -0.09714136 -0.019737927 -0.044259142
-0.034060042 0.2002411 0.08135032 -0.12602395 0.35560974 0.03582423 0.24376442 0.50091654
0.095327735 0.35085642 -0.18706536 -0.13216653 -0.44463655 0.04593864 0.08364272 -0.14092477
0.13345146 -0.37006247 -0.020566514 0.045449533 0.11658366 0.026449349 -0.029309522 0.2417175
0.1777889 -0.34304497 0.039808117 0.04705019 0.38027388 0.31194183 -0.053753655 0.2241152
-0.097351745 -0.06393009 0.065521486 0.09479687 0.14765562 0.24211895 0.08021432 0.15474018
-0.13330896 0.029836515 -0.041257273 0.06884787 0.19588152 0.0020827265 -0.22917114 -0.04764245
0.12917395 -0.029464198 0.05876066 -0.11061679 0.012810038 -0.045233794 -0.014117029 -0.42955145
-0.053546485 0.032447487 -0.056197546 0.12380397 0.0833973 -0.07900753 0.06129848 0.069186606
0.29539815 -0.0083695445 -0.0146241505 -0.35605192 -0.28612816 -0.27656433 -0.030675331 -0.12882318
0.055630248 0.18642177 -0.26710892 -0.011227626 0.11707593 -0.08332292 0.07050167 0.030997155
0.1320686 0.054835018 -0.032459192 -0.29803085 -0.0045072255 -0.012745688 -0.3702927 -0.25276822

sequential_2/dense_2/MatMul i1 [38, 100] scale=0.014674618 zero_point=0
00000000: 17f8 f906 0c0c 1ce1 ce27 042f 1e07 f912
00000010: 1ed5 d8e3 011b f3ff 03da 0ffb 03ea 0d23
00000020: 2705 d7e9 fddf d639 1f2f 070b 2d00 1309
00000030: 31f2 fb24 04d3 d603 1bec be0d dffc 122f
00000040: f9fa 08f1 0536 e8db 2be4 1d16 47f7 1f07
00000050: 3a0c 0cfd fedd 06f3 eaf7 661c dcde 0213
00000060: e1a8 1cc7 282f 1207 261d f6f1 e3f8 07db
00000070: e13a 01c4 201d f423 2025 fbe0 34ff fefe
00000080: 1a1c 263a 2615 27d3 e5c5 d144 e9f6 d617
00000090: 0ff5 1b47 28ee d0e7 d6c9 1e00 fde2 fff7
000000a0: 07e8 083d f922 fdea 13d3 3deb d6e6 0ee2
000000b0: 2512 f01b 212d fdf6 e3dc 0ed4 e40c 0815
000000c0: d3cd fc02 0ee0 0cc4 ff0e 192a f0c4 e3e4
000000d0: 2f04 fc22 0ae6 08ed ddda f0fe 1cfb 370e
000000e0: 0915 ecf9 dd0d f807 e4e0 100e 31d5 ea26
000000f0: fef4 0df9 cfc3 dadc f60e 4229 e04b dd05
0.33751622 -0.11739694 -0.102722324 0.088047706 0.17609541 0.17609541 0.4108893 -0.45491317
-0.7337309 0.5723101 0.05869847 0.68970704 0.44023854 0.102722324 -0.102722324 0.2641431
0.44023854 -0.63100857 -0.5869847 -0.42556393 0.014674618 0.3962147 -0.19077003 -0.014674618
0.044023853 -0.5576355 0.22011927 -0.07337309 0.044023853 -0.32284158 0.19077003 0.5136116
0.5723101 0.07337309 -0.60165936 -0.33751622 -0.044023853 -0.48426238 -0.61633396 0.8364532
0.45491317 0.68970704 0.102722324 0.16142079 0.66035783 0.0 0.27881774 0.13207155
0.71905625 -0.20544465 -0.07337309 0.5282862 0.05869847 -0.66035783 -0.61633396 0.044023853
0.3962147 -0.29349235 -0.96852475 0.19077003 -0.48426238 -0.05869847 0.2641431 0.68970704
-0.102722324 -0.088047706 0.11739694 -0.22011927 0.07337309 0.7924294 -0.35219082 -0.5429609
0.63100857 -0.4108893 0.42556393 0.32284158 1.0418979 -0.13207155 0.45491317 0.102722324
0.85112786 0.17609541 0.17609541 -0.044023853 -0.029349236 -0.5136116 0.088047706 -0.19077003
-0.32284158 -0.13207155 1.496811 0.4108893 -0.5282862 -0.498937 0.029349236 0.27881774
-0.45491317 -1.2913663 0.4108893 -0.8364532 0.5869847 0.68970704 0.2641431 0.102722324
0.5576355 0.42556393 -0.14674617 -0.22011927 -0.42556393 -0.11739694 0.102722324 -0.5429609
-0.45491317 0.85112786 0.014674618 -0.8804771 0.46958777 0.42556393 -0.17609541 0.5136116
0.46958777 0.5429609 -0.07337309 -0.46958777 0.7630801 -0.014674618 -0.029349236 -0.029349236
0.38154006 0.4108893 0.5576355 0.85112786 0.5576355 0.30816698 0.5723101 -0.66035783
-0.3962147 -0.86580247 -0.68970704 0.997874 -0.33751622 -0.14674617 -0.61633396 0.33751622
0.22011927 -0.16142079 0.3962147 1.0418979 0.5869847 -0.2641431 -0.70438164 -0.36686546
-0.61633396 -0.807104 0.44023854 0.0 -0.044023853 -0.44023854 -0.014674618 -0.13207155
0.102722324 -0.35219082 0.11739694 0.8951517 -0.102722324 0.498937 -0.044023853 -0.32284158
0.27881774 -0.66035783 0.8951517 -0.30816698 -0.61633396 -0.38154006 0.20544465 -0.44023854
0.5429609 0.2641431 -0.23479389 0.3962147 0.48426238 0.66035783 -0.044023853 -0.14674617
-0.42556393 -0.5282862 0.20544465 -0.64568317 -0.4108893 0.17609541 0.11739694 0.30816698
-0.66035783 -0.7484055 -0.05869847 0.029349236 0.20544465 -0.46958777 0.17609541 -0.8804771
-0.014674618 0.20544465 0.36686546 0.61633396 -0.23479389 -0.8804771 -0.42556393 -0.4108893
0.68970704 0.05869847 -0.05869847 0.498937 0.14674617 -0.38154006 0.11739694 -0.27881774
-0.5136116 -0.5576355 -0.23479389 -0.029349236 0.4108893 -0.07337309 0.807104 0.20544465
0.13207155 0.30816698 -0.29349235 -0.102722324 -0.5136116 0.19077003 -0.11739694 0.102722324
-0.4108893 -0.46958777 0.23479389 0.20544465 0.71905625 -0.63100857 -0.32284158 0.5576355
-0.029349236 -0.17609541 0.19077003 -0.102722324 -0.71905625 -0.8951517 -0.5576355 -0.5282862
-0.14674617 0.20544465 0.96852475 0.60165936 -0.46958777 1.1005963 -0.5136116 0.07337309

unstack4 f4 [150]
00000000: cbd7 a03e 9147 54bd b95f febe 7805 61be
00000010: 0037 fd3e fe92 0abf d9a4 01bf 882e ef3c
00000020: 5a5f 02bf 20d8 49bf 63e4 0dbf 88ad 97be
00000030: c291 f5be c7f3 0c3b 7901 04be 5a5a 973d
00000040: a901 0fbf 1522 07be 307a e6be 785a c93c
00000050: 5b3d a0be 57bc b4be 5dee 02be 8006 f6be
00000060: 02ad 1abe 494f 83bf 2805 a5be 2cd6 ebbe
00000070: 5e91 88bf add6 d9be c7a0 76be d01b d3bd
00000080: ffb1 42bf 2be0 e8be a22d f2be 1333 55bf
00000090: b27e bcbe 862a 97be e0d5 fabe b60a 81bd
000000a0: 1e53 a8be 6edf 2dbc ee85 e6be 49e1 24be
000000b0: fabf 95bd 781a b2be e347 bbbe f805 a1be
000000c0: ce76 8ebe 55a8 06bf b1ed 3bbc 8e28 0a3e
000000d0: 2694 7cbd 1df7 c9be ed63 d23e 0b61 a33e
000000e0: ca05 423e a090 5f3e db37 da3e bd79 59bd
000000f0: 352c 1d3e 3bc3 e43e 8d41 cd3c 0e58 56bd
00000100: c62d b9bd 4e7a 45bd 014c 763d 9a83 b5bc
00000110: 35d2 9fbd f47d 61be 6c53 033e 7f70 423e
00000120: 2a2f 263f 178f b0bc 34e8 2abe bdbb 0f3e
00000130: de26 0c3f 70a5 873e 107e 193e ea9c 183d
00000140: 81d1 5a3e 5af2 80be fcac 4abe deff b83e
00000150: 709f 393e 88a7 9cbd 28ea bf3e 4f1f debd
00000160: 35de 2c3e 972e e4bd fbcd ec3e 2780 13be
00000170: d500 4c3e d3b0 b0bd a4fd 58be fdad cd3d
00000180: af15 0f3e b782 69be 0416 0b3e b938 f33e
00000190: ee80 71bc ccd2 883d 4880 2ebd a070 a63e
000001a0: df16 aebe a6e3 3ebe 6915 27be 27f8 153e
000001b0: ff31 cbbe e175 853a 4fb6 3a3e dcc5 f83e
000001c0: 0968 19bd 3b32 18be 11e2 813c 435d 4ebb
000001d0: c601 f8bd 1cd2 4d3b 7dad 173e 45ee 593e
000001e0: 4ff5 033e 54c8 5ebe 9600 093f 4656 8dbb
000001f0: 6d8b 203e d511 063e c045 ebbe fb4e 63be
00000200: 3ae9 d6bd 9469 813d 1168 4ebe 19d4 93be
00000210: 8dcf 0f3e 9a6f babe 7c7e f53d c4ff 7f3d
00000220: 3aa8 623e 84b2 3b3e 4864 4fbe 03ae dd3d
00000230: e11c acbe 1dea e43d 413a 47be 2db9 a1bd
00000240: dd89 48be 84e5 50bd 4f1a 0b3f 3e5b 80be
00000250: b612 5abe a745 e33e
0.31414637 -0.051826064 -0.49682406 -0.21974742 0.49456024 -0.5413054 -0.5064216 0.029196993
-0.50926745 -0.78845406 -0.55426615 -0.2962458 -0.47962767 0.0021507607 -0.12891187 0.0739028
-0.5586191 -0.13196595 -0.45015097 0.024579272 -0.3129681 -0.35299942 -0.12786241 -0.48051834
-0.1510506 -1.0258571 -0.32230496 -0.46061838 -1.0669363 -0.42546597 -0.24084769 -0.10308039
-0.7605285 -0.45483527 -0.4730044 -0.8328106 -0.3681541 -0.2952463 -0.489913 -0.06300871
-0.32875913 -0.010612352 -0.45024055 -0.16101564 -0.07312007 -0.3478582 -0.36578283 -0.31449866
-0.27825016 -0.52600604 -0.011470244 0.13492033 -0.061664723 -0.39446345 0.41091862 0.31909975
0.18947521 0.21832514 0.4262074 -0.053094614 0.15348895 0.446802 0.025055671 -0.05233007
-0.09041934 -0.048212342 0.060131077 -0.02215748 -0.07803766 -0.22020704 0.12824792 0.18988226
0.64915717 -0.021552606 -0.16690141 0.1403646 0.54746807 0.26493406 0.14989495 0.03725902
0.21368982 -0.251849 -0.19792551 0.3613271 0.18127227 -0.076491416 0.37483335 -0.108458154
0.1688164 -0.11141699 0.462509 -0.14404355 0.19922192 -0.086274765 -0.21190506 0.10042951
0.13973115 -0.2280377 0.13582617 0.47504213 -0.014740212 0.06680831 -0.042602807 0.325078
-0.34001824 -0.18641528 -0.16316761 0.14645444 -0.39686581 0.0010182225 0.18233608 0.48588455
-0.03745273 -0.14862911 0.015854867 -0.0031488694 -0.12109713 0.0031405753 0.14812274 0.21282299
0.12886547 -0.21756107 0.5351652 -0.004313263 0.15678187 0.1309274 -0.45951653 -0.22198097
-0.10493703 0.063189656 -0.20156886 -0.28872755 0.14044018 -0.3641327 0.119870156 0.062499776
0.22134486 0.18329817 -0.20253098 0.10824206 -0.33615783 0.11177466 -0.19455816 -0.078966476
-0.1958384 -0.051000133 0.5433702 -0.25069612 -0.212962 0.44389078

unstack5 f4 [150]
00000000: cbd7 a03e 9147 54bd b95f febe 7805 61be
00000010: 0037 fd3e fe92 0abf d9a4 01bf 882e ef3c
00000020: 5a5f 02bf 20d8 49bf 63e4 0dbf 88ad 97be
00000030: c291 f5be c7f3 0c3b 7901 04be 5a5a 973d
00000040: a901 0fbf 1522 07be 307a e6be 785a c93c
00000050: 5b3d a0be 57bc b4be 5dee 02be 8006 f6be
00000060: 02ad 1abe 494f 83bf 2805 a5be 2cd6 ebbe
00000070: 5e91 88bf add6 d9be c7a0 76be d01b d3bd
00000080: ffb1 42bf 2be0 e8be a22d f2be 1333 55bf
00000090: b27e bcbe 862a 97be e0d5 fabe b60a 81bd
000000a0: 1e53 a8be 6edf 2dbc ee85 e6be 49e1 24be
000000b0: fabf 95bd 781a b2be e347 bbbe f805 a1be
000000c0: ce76 8ebe 55a8 06bf b1ed 3bbc 8e28 0a3e
000000d0: 2694 7cbd 1df7 c9be ed63 d23e 0b61 a33e
000000e0: ca05 423e a090 5f3e db37 da3e bd79 59bd
000000f0: 352c 1d3e 3bc3 e43e 8d41 cd3c 0e58 56bd
00000100: c62d b9bd 4e7a 45bd 014c 763d 9a83 b5bc
00000110: 35d2 9fbd f47d 61be 6c53 033e 7f70 423e
00000120: 2a2f 263f 178f b0bc 34e8 2abe bdbb 0f3e
00000130: de26 0c3f 70a5 873e 107e 193e ea9c 183d
00000140: 81d1 5a3e 5af2 80be fcac 4abe deff b83e
00000150: 709f 393e 88a7 9cbd 28ea bf3e 4f1f debd
00000160: 35de 2c3e 972e e4bd fbcd ec3e 2780 13be
00000170: d500 4c3e d3b0 b0bd a4fd 58be fdad cd3d
00000180: af15 0f3e b782 69be 0416 0b3e b938 f33e
00000190: 5924 d33e 1027 5f3f 833a 6d3f 3b7f 31bc
000001a0: 3ab1 5fbf ff80 88bf 61b0 fcbe 21f0 4b3f
000001b0: 02e5 79bf abb8 b13e 3e65 f33e 9e15 563f
000001c0: 07e2 0dbf 1a66 953f eb0d 163f 617f 6cbe
000001d0: 0dd5 fdbe 1842 ab3e ee37 9abf c939 ccbe
000001e0: 5fef d13e e58e 1ebf 4e87 6b3f 0ff2 cdbe
000001f0: 38f5 0fbf 9a0c 113f 5d35 46bf 43de 2ebf
00000200: 3936 0bbf 4cd6 1e3f 9b22 f5be d6fd ba3e
00000210: ade0 c3be c7fe 6bbf a58a d13e 52b1 103f
00000220: 7cf0 823f 016f e3be 1037 3abf 66c1 d0be
00000230: 0901 44bf 2641 8ebe f7c5 00bf 1807 283f
00000240: 1931 f43e 35ba 6dbf b903 183f 56ee 0d3f
00000250: f98d 10bf e5a9 703f
0.31414637 -0.051826064 -0.49682406 -0.21974742 0.49456024 -0.5413054 -0.5064216 0.029196993
-0.50926745 -0.78845406 -0.55426615 -0.2962458 -0.47962767 0.0021507607 -0.12891187 0.0739028
-0.5586191 -0.13196595 -0.45015097 0.024579272 -0.3129681 -0.35299942 -0.12786241 -0.48051834
-0.1510506 -1.0258571 -0.32230496 -0.46061838 -1.0669363 -0.42546597 -0.24084769 -0.10308039
-0.7605285 -0.45483527 -0.4730044 -0.8328106 -0.3681541 -0.2952463 -0.489913 -0.06300871
-0.32875913 -0.010612352 -0.45024055 -0.16101564 -0.07312007 -0.3478582 -0.36578283 -0.31449866
-0.27825016 -0.52600604 -0.011470244 0.13492033 -0.061664723 -0.39446345 0.41091862 0.31909975
0.18947521 0.21832514 0.4262074 -0.053094614 0.15348895 0.446802 0.025055671 -0.05233007
-0.09041934 -0.048212342 0.060131077 -0.02215748 -0.07803766 -0.22020704 0.12824792 0.18988226
0.64915717 -0.021552606 -0.16690141 0.1403646 0.54746807 0.26493406 0.14989495 0.03725902
0.21368982 -0.251849 -0.19792551 0.3613271 0.18127227 -0.076491416 0.37483335 -0.108458154
0.1688164 -0.11141699 0.462509 -0.14404355 0.19922192 -0.086274765 -0.21190506 0.10042951
0.13973115 -0.2280377 0.13582617 0.47504213 0.4123867 0.8716898 0.92667407 -0.010833557
-0.873798 -1.0664366 -0.49353316 0.7966328 -0.97615063 0.34711203 0.4753818 0.83626735
-0.55423015 1.1671784 0.5861499 -0.23095466 -0.49576607 0.33448863 -1.2048318 -0.39887837
0.41002938 -0.6193679 0.92003334 -0.4022374 -0.5623355 0.56659853 -0.77425176 -0.68307894
-0.5437961 0.6204574 -0.47877964 0.36521786 -0.38257352 -0.92185634 0.4092609 0.5652057
1.022964 -0.44420627 -0.7274027 -0.4077255 -0.7656408 -0.2778408 -0.5030207 0.65635824
0.4769371 -0.92862254 0.5938068 0.55441797 -0.56466633 0.9400924

while/MatMul_1 i1 [150, 50] scale=0.002340358 zero_point=0
00000000: 11c6 0ffe e4d9 5111 34ed 332a 00ff f103
00000010: f417 eb17 3de4 d814 1316 5011 0032 0b22
00000020: cfc8 c506 f0ff 241c 20ef d804 201b 3dcd
00000030: d7ee e9c9 f6f3 04c2 1028 0418 1df3 150c
00000040: fe25 e42a f1fc b723 f906 de06 fae5 0305
00000050: ff13 bc1e 33e4 1fb2 eb13 13fd d60d f42e
00000060: eefd 06d6 11df 4fea 17dc c8ef eb26 f9cb
00000070: ee13 ce36 bd0e ebe7 ba0b 2a0f 1f42 171a
00000080: f6de 1a33 15fe ca4a f31c 12fa f223 0124
00000090: f61e 19da e9eb 044a fa11 1115 ceb5 0e0f
000000a0: 241a dddb dde6 edf2 e6f0 c110 0119 2430
000000b0: 203c e112 dee9 2f2d 3fc9 e8f9 f8ea 0ffb
000000c0: ebf4 1a14 0bf7 d605 d3ed 1aef fef8 ecd6
000000d0: fa21 fe07 c707 2b10 f514 f1e8 19d9 f7cf
000000e0: 09fb ffec d9e5 1cca d14a 27fe 04f1 bde1
000000f0: 1d22 dde2 f600 e2f5 11ab e430 01f6 340d
0.039786085 -0.13574076 0.03510537 -0.004680716 -0.065530024 -0.09127396 0.189569 0.039786085
0.12169862 -0.0444668 0.11935826 0.09829503 0.0 -0.002340358 -0.03510537 0.007021074
-0.028084297 0.053828232 -0.049147516 0.053828232 0.14276184 -0.065530024 -0.09361432 0.04680716
0.0444668 0.051487874 0.18722863 0.039786085 0.0 0.1170179 0.025743937 0.07957217
-0.11467754 -0.13106005 -0.13808112 0.014042148 -0.037445728 -0.002340358 0.08425289 0.065530024
0.074891455 -0.039786085 -0.09361432 0.009361432 0.074891455 0.06318966 0.14276184 -0.11935826
-0.09595468 -0.042126443 -0.053828232 -0.12871969 -0.02340358 -0.030424654 0.009361432 -0.14510219
0.037445728 0.09361432 0.009361432 0.056168593 0.06787038 -0.030424654 0.049147516 0.028084297
-0.004680716 0.08659325 -0.065530024 0.09829503 -0.03510537 -0.009361432 -0.17084613 0.08191253
-0.016382506 0.014042148 -0.07957217 0.014042148 -0.014042148 -0.06318966 0.007021074 0.01170179
-0.002340358 0.0444668 -0.15914434 0.07021074 0.11935826 -0.065530024 0.072551094 -0.18254793
-0.049147516 0.0444668 0.0444668 -0.007021074 -0.09829503 0.030424654 -0.028084297 0.107656464
-0.042126443 -0.007021074 0.014042148 -0.09829503 0.039786085 -0.07723182 0.18488827 -0.051487874
0.053828232 -0.08425289 -0.13106005 -0.039786085 -0.049147516 0.0889336 -0.016382506 -0.12403897
-0.042126443 0.0444668 -0.1170179 0.12637933 -0.15680398 0.032765012 -0.049147516 -0.05850895
-0.16382506 0.025743937 0.09829503 0.03510537 0.072551094 0.15446363 0.053828232 0.06084931
-0.02340358 -0.07957217 0.06084931 0.11935826 0.049147516 -0.004680716 -0.12637933 0.1731865
-0.030424654 0.065530024 0.042126443 -0.014042148 -0.032765012 0.08191253 0.002340358 0.08425289
-0.02340358 0.07021074 0.05850895 -0.0889336 -0.053828232 -0.049147516 0.009361432 0.1731865
-0.014042148 0.039786085 0.039786085 0.049147516 -0.1170179 -0.17552684 0.032765012 0.03510537
0.08425289 0.06084931 -0.08191253 -0.08659325 -0.08191253 -0.06084931 -0.0444668 -0.032765012
-0.06084931 -0.037445728 -0.14744255 0.037445728 0.002340358 0.05850895 0.08425289 0.11233719
0.074891455 0.14042148 -0.072551094 0.042126443 -0.07957217 -0.053828232 0.109996825 0.10531611
0.14744255 -0.12871969 -0.056168593 -0.016382506 -0.018722864 -0.051487874 0.03510537 -0.01170179
-0.049147516 -0.028084297 0.06084931 0.04680716 0.025743937 -0.021063222 -0.09829503 0.01170179
-0.10531611 -0.0444668 0.06084931 -0.039786085 -0.004680716 -0.018722864 -0.04680716 -0.09829503
-0.014042148 0.07723182 -0.004680716 0.016382506 -0.13340041 0.016382506 0.100635394 0.037445728
-0.025743937 0.04680716 -0.03510537 -0.056168593 0.05850895 -0.09127396 -0.021063222 -0.11467754
0.021063222 -0.01170179 -0.002340358 -0.04680716 -0.09127396 -0.06318966 0.065530024 -0.12637933
-0.109996825 0.1731865 0.09127396 -0.004680716 0.009361432 -0.03510537 -0.15680398 -0.072551094
0.06787038 0.07957217 -0.08191253 -0.07021074 -0.02340358 0.0 -0.07021074 -0.025743937
0.039786085 -0.19893043 -0.065530024 0.11233719 0.002340358 -0.02340358 0.12169862 0.030424654

while/MatMul i1 [150, 56] scale=0.03362829 zero_point=0
00000000: 0102 07e5 01f2 07f6 0cfa fd05 0007 120a
00000010: 1c08 0a07 1a06 19fe 28f5 1b07 2406 2a06
00000020: 31fa 1b0e 1b0d 2c0b 3801 0400 fd03 f904
00000030: f5fc 0408 f110 e20e fffc 04f4 fffb 04fb
00000040: 0104 0200 01fd f8fe 01f4 0005 fa01 f805
00000050: fa03 fa07 fc04 00fb 01fa f708 fc02 0003
00000060: fbff 2408 33f8 3af8 3cfe 59f8 72fb 6b13
00000070: fe04 f01d f614 f013 f60f ff0f fc0b f707
00000080: fb05 0609 fe11 fd20 0929 1108 070b 0305
00000090: 040c 1503 0ffb 0400 0a04 fefa e212 d9f3
000000a0: eb0b ef07 f422 000d fc02 0a10 0410 040b
000000b0: fd09 000c fb0d fb14 fc16 ff05 fd08 0409
000000c0: 030b 0400 0102 0203 0003 0c05 0905 fd05
000000d0: fe10 0829 0c20 081d 030c fd04 f803 f4fb
000000e0: fe02 0600 0900 04f9 f8fb 230e 290d 2b05
000000f0: 2bed 2b11 170f 1d01 27fe 1513 f50b 0803
0.03362829 0.06725658 0.23539802 -0.9079638 0.03362829 -0.47079605 0.23539802 -0.33628288
0.40353948 -0.20176974 -0.10088487 0.16814144 0.0 0.23539802 0.6053092 0.33628288
0.9415921 0.2690263 0.33628288 0.23539802 0.8743355 0.20176974 0.84070724 -0.06725658
1.3451315 -0.36991116 0.9079638 0.23539802 1.2106184 0.20176974 1.4123881 0.20176974
1.6477861 -0.20176974 0.9079638 0.47079605 0.9079638 0.43716776 1.4796447 0.36991116
1.8831842 0.03362829 0.13451315 0.0 -0.10088487 0.10088487 -0.23539802 0.13451315
-0.36991116 -0.13451315 0.13451315 0.2690263 -0.50442433 0.5380526 -1.0088487 0.47079605
-0.03362829 -0.13451315 0.13451315 -0.40353948 -0.03362829 -0.16814144 0.13451315 -0.16814144
0.03362829 0.13451315 0.06725658 0.0 0.03362829 -0.10088487 -0.2690263 -0.06725658
0.03362829 -0.40353948 0.0 0.16814144 -0.20176974 0.03362829 -0.2690263 0.16814144
-0.20176974 0.10088487 -0.20176974 0.23539802 -0.13451315 0.13451315 0.0 -0.16814144
0.03362829 -0.20176974 -0.3026546 0.2690263 -0.13451315 0.06725658 0.0 0.10088487
-0.16814144 -0.03362829 1.2106184 0.2690263 1.7150427 -0.2690263 1.9504408 -0.2690263
2.0176973 -0.06725658 2.9929178 -0.2690263 3.8336248 -0.16814144 3.5982268 0.6389375
-0.06725658 0.13451315 -0.5380526 0.9752204 -0.33628288 0.67256576 -0.5380526 0.6389375
-0.33628288 0.50442433 -0.03362829 0.50442433 -0.13451315 0.36991116 -0.3026546 0.23539802
-0.16814144 0.16814144 0.20176974 0.3026546 -0.06725658 0.5716809 -0.10088487 1.0761052
0.3026546 1.3787599 0.5716809 0.2690263 0.23539802 0.36991116 0.10088487 0.16814144
0.13451315 0.40353948 0.70619404 0.10088487 0.50442433 -0.16814144 0.13451315 0.0
0.33628288 0.13451315 -0.06725658 -0.20176974 -1.0088487 0.6053092 -1.3115033 -0.43716776
-0.70619404 0.36991116 -0.5716809 0.23539802 -0.40353948 1.1433618 0.0 0.43716776
-0.13451315 0.06725658 0.33628288 0.5380526 0.13451315 0.5380526 0.13451315 0.36991116
-0.10088487 0.3026546 0.0 0.40353948 -0.16814144 0.43716776 -0.16814144 0.67256576
-0.13451315 0.7398223 -0.03362829 0.16814144 -0.10088487 0.2690263 0.13451315 0.3026546
0.10088487 0.36991116 0.13451315 0.0 0.03362829 0.06725658 0.06725658 0.10088487
0.0 0.10088487 0.40353948 0.16814144 0.3026546 0.16814144 -0.10088487 0.16814144
-0.06725658 0.5380526 0.2690263 1.3787599 0.40353948 1.0761052 0.2690263 0.9752204
0.10088487 0.40353948 -0.10088487 0.13451315 -0.2690263 0.10088487 -0.40353948 -0.16814144
-0.06725658 0.06725658 0.20176974 0.0 0.3026546 0.0 0.13451315 -0.23539802
-0.2690263 -0.16814144 1.1769902 0.47079605 1.3787599 0.43716776 1.4460164 0.16814144
1.4460164 -0.6389375 1.4460164 0.5716809 0.7734506 0.50442433 0.9752204 0.03362829
1.3115033 -0.06725658 0.70619404 0.6389375 -0.36991116 0.36991116 0.2690263 0.10088487

unstack6 f4 [300]
00000000: 9bc9 67bf dd2c 4ebf 2c55 50bf 70a6 7abe
00000010: e7c2 1cbf e95d 11bf 5613 e3be 1064 fdbd
00000020: 6778 72bd 0e5f 2dbe c386 95be 7d03 33bf
00000030: f8c8 81bf 501c 10bf 4f51 45bf 45ea 39bf
00000040: 69aa 03bf be82 35bf 76a4 04bf cb45 6fbf
00000050: db66 5cbf 7d8a efbe 1a68 1dbf dcc7 17bf
00000060: be26 94be a581 74bf dc8d ffbe a7a3 64bf
00000070: a754 98be 8a33 2ebf 4a80 04bf 7db7 f8be
00000080: 9039 8fbe 9c22 26bf 4e3d d0be 9207 babe
00000090: ae2a 07bf 0669 52bf 5588 d3be 711f 3dbf
000000a0: 20f1 32bf 4292 9dbe 98ab e6be cf9c 82bf
000000b0: 8b8c c1be 4577 2abf b95f 07bf 05b4 b4be
000000c0: 501d 35bf 7c4f 1cbf 9caf e1be f7f2 04bf
000000d0: fb5e 3dbf 356a 32bf c54d 1fbf 63f6 0fbf
000000e0: 1bb2 babe a155 53bf 2c3e e8be e664 34bf
000000f0: fe48 0ebf 20fd 82bf b53c a4be 5aa4 52bf
00000100: 6d5e fbbe de19 d0be 804c 83be 0d0f 7bbf
00000110: ed66 42be 906d 4cbf c603 2abf e2ce 4fbf
00000120: 08ec 43bf 5807 52bf 8c0d 27bf 7cff f9be
00000130: 3b58 02bf 9823 d7be caec 44bf d4a6 26bf
00000140: 6680 adbe 59b3 1fbf f277 d7be 3d6d 7bbf
00000150: 2538 8dbf e26e afbe 4a46 1ebf 3b38 e5be
00000160: 20ba 02bf ee0e 30bf 9d2d c4be b9ed 1cbf
00000170: 41ff 17bf 2926 3ebf 5a36 4cbe 2f2a 27be
00000180: 08a8 5abf 4819 cabe 4b4c 19bf 2f06 46bf
00000190: 6a54 223e c439 833d 501b 03bd 10b8 0c3e
000001a0: db9b 04be 8af3 6bbe 0a37 a33d 360c 863e
000001b0: 25cf f0bd d3d5 163d 3edb 67bd 1086 07bd
000001c0: 80a3 8a3e c337 4d3d 10a5 923e 035a 583d
000001d0: 60cc fa3d 8c79 f03d b57b 963d 5271 80bd
000001e0: c71e 123d 6791 b4bd 868d 3fbc 308f cebe
000001f0: bbdd af3d 2ceb 973d ac86 ba3d 2d44 23be
00000200: 6f88 babd d75d 943d 5972 243d 7920 153e
00000210: 7724 bd3e ab52 c6bc fb2c b53c ab65 a1be
00000220: 1102 643e a1ad a1be e06f f23d 371b dbbd
00000230: 2c9e 5dbd fda4 943e d2b9 80be a98a 803d
00000240: eca7 02bd 5f9d de3d d2d3 64bb eb0d 773d
00000250: 6209 0bbe 78ce d63d 5193 823b ac2b 9f3e
00000260: 971a 013d e06a 6b3d 2908 3fbe 3da4 1fbe
00000270: 9f75 34be 8755 043e 2196 263e 15a9 113e
00000280: cea4 643e 1c54 9bbd 3718 56be 276f ca3d
00000290: da41 403c 0df2 c6bd 6fb1 a1bc 1349 35bd
000002a0: 8b82 0bbd 010c 4d3e ff9a a63d 6c0c 01be
000002b0: 7b12 b63e 6ebc 123d 619d 793e 113c 003f
000002c0: 303b c33d 74a3 b33e 108e 3fbe aa56 07be
000002d0: 67a7 e3be 282a 3c3d e04c ab3d 954e 10be
000002e0: 80a7 083e d478 bdbe 1b7b a8bc 4a29 3a3d
000002f0: 6ac3 ee3d 4eac d83c 861a f0bc cb84 773e
00000300: 4b0e 363e 97a3 afbe d60d 233d b3b7 403d
00000310: 42b3 c23e d7b6 9f3e cb2c 5cbd 747e 653e
00000320: 5a60 c7bd c7ed 82bd 2130 863d dd24 c23d
00000330: 0933 173e 08ee 773e 6847 a43d 3674 1e3e
00000340: 2582 08be b56b f43c 63fd 28bd 1d00 8d3d
00000350: 2a95 483e 5a7e 083b d7ab 6abe bb24 43bd
00000360: 2d46 043e e75e f1bc 05af 703d 0e8b e2bd
00000370: 32e1 513c 1247 39bd 1c4b 67bc 2bee dbbe
00000380: 8f53 5bbd a8e7 043d 662f 66bd f08c fd3d
00000390: 34cc aa3d b3ce a1bd 1d14 7b3d b5b1 8d3d
000003a0: 6d3e 973e 6a20 09bc 229a 6fbc 704c b6be
000003b0: 647f 92be d799 8dbe d54a fbbc 39ea 03be
000003c0: 8bdc 633d 59e5 3e3e 80c2 88be 14f4 37bc
000003d0: 81c5 ef3d 35a5 aabd 2e63 903d bfed fd3c
000003e0: fe3c 073e af9a 603d eef3 04bd 8097 98be
000003f0: 59b1 93bb 4ad3 50bc 0197 bdbe d66a 81be
-0.90542 -0.80537206 -0.8137996 -0.24477553 -0.612349 -0.5678392 -0.4435069 -0.12372601
-0.059196856 -0.16930792 -0.29204378 -0.699272 -1.0139456 -0.562932 -0.7707719 -0.7262309
-0.514319 -0.7090262 -0.5181345 -0.9346587 -0.86094445 -0.46785346 -0.6148697 -0.59289336
-0.28935808 -0.9551032 -0.49912918 -0.89312214 -0.29752085 -0.6804739 -0.51758254 -0.4857749
-0.27973604 -0.6489656 -0.40671772 -0.363339 -0.527995 -0.82191503 -0.4131495 -0.738761
-0.6989918 -0.30775648 -0.4505279 -1.0204104 -0.37802538 -0.6658824 -0.52880436 -0.35293594
-0.7074785 -0.61058784 -0.44079292 -0.51933235 -0.73973054 -0.6969331 -0.6222804 -0.5623533
-0.3646401 -0.82552534 -0.45359933 -0.7046646 -0.5558013 -1.0233498 -0.32077566 -0.8228203
-0.4909548 -0.40644735 -0.25644302 -0.9806984 -0.18984576 -0.7985468 -0.6641201 -0.81175053
-0.7653203 -0.82042456 -0.65255046 -0.48827732 -0.5091588 -0.42019343 -0.7692381 -0.6509831
-0.33887023 -0.6238304 -0.420837 -0.9821356 -1.1032759 -0.34264284 -0.61826 -0.44769463
-0.51065254 -0.6877278 -0.3831605 -0.61300236 -0.5937386 -0.7427698 -0.19942608 -0.16324686
-0.85412645 -0.39472413 -0.5988204 -0.77353185 0.15852514 0.06407502 -0.03200847 0.1374209
-0.12950079 -0.23042122 0.07969482 0.2618119 -0.1175826 0.036825012 -0.05660557 -0.033086836
0.27077866 0.050102007 0.28641558 0.052820217 0.12246013 0.11741933 0.07347814 -0.06271614
0.035673883 -0.08816796 -0.011691457 -0.40343618 0.085872136 0.07417902 0.09107718 -0.15943976
-0.09108054 0.07244461 0.040148113 0.14563169 0.36941883 -0.024209341 0.022116175 -0.3152288
0.22266413 -0.3157778 0.11837745 -0.1069855 -0.054105923 0.29032126 -0.2514177 0.06276447
-0.031898424 0.1086986 -0.0034916294 0.060316008 -0.13577798 0.104885995 0.0039848466 0.31088006
0.0315195 0.05747497 -0.18655457 -0.15589996 -0.17622994 0.12923251 0.16268207 0.14224656
0.22328493 -0.07584402 -0.20907675 0.09884482 0.01173445 -0.09714136 -0.019737927 -0.044259142
-0.034060042 0.2002411 0.08135032 -0.12602395 0.35560974 0.03582423 0.24376442 0.50091654
0.095327735 0.35085642 -0.18706536 -0.13216653 -0.44463655 0.04593864 0.08364272 -0.14092477
0.13345146 -0.37006247 -0.020566514 0.045449533 0.11658366 0.026449349 -0.029309522 0.2417175
0.1777889 -0.34304497 0.039808117 0.04705019 0.38027388 0.31194183 -0.053753655 0.2241152
-0.097351745 -0.06393009 0.065521486 0.09479687 0.14765562 0.24211895 0.08021432 0.15474018
-0.13330896 0.029836515 -0.041257273 0.06884787 0.19588152 0.0020827265 -0.22917114 -0.04764245
0.12917395 -0.029464198 0.05876066 -0.11061679 0.012810038 -0.045233794 -0.014117029 -0.42955145
-0.053546485 0.032447487 -0.056197546 0.12380397 0.0833973 -0.07900753 0.06129848 0.069186606
0.29539815 -0.0083695445 -0.0146241505 -0.35605192 -0.28612816 -0.27656433 -0.030675331 -0.12882318
0.055630248 0.18642177 -0.26710892 -0.011227626 0.11707593 -0.08332292 0.07050167 0.030997155
0.1320686 0.054835018 -0.032459192 -0.29803085 -0.0045072255 -0.012745688 -0.3702927 -0.25276822
