GRU-main/model/keypoint_classifier/lstm_right_augmented.tflite (tflite, 102304 bytes, 10 tensors)

sequential_1/lstm/Read_2/ReadVariableOp f4 [200]
000000 84 7c d2 3e a1 ae b3 3e fc ac b4 3e c2 36 d1 3e
       0.41110623 0.3509417 0.35288227 0.4086209
000010 21 92 64 3f 34 ad 26 3d db b3 fd 3e b6 e2 d5 3e
       0.89285475 0.040692523 0.4955128 0.4177453
000020 a6 e3 8a 3e 82 4b 0c 3f 16 03 07 3f fe ff 48 3f
       0.27126807 0.54802716 0.52739084 0.78515613
000030 77 91 9a 3d 83 28 4b 3f 2e 21 ab 3e 55 6f 47 3e
       0.075472765 0.7935869 0.33423752 0.19476064
000040 60 4a 21 3f 2c 37 db 3e 09 f2 2b 3f dd 60 7e 3f
       0.6300411 0.4281553 0.6716619 0.9936655
000050 47 f3 03 3f 9b 21 66 3f 9c b2 51 3e 51 6c bc 3e
       0.51543087 0.8989503 0.2047829 0.3680139
000060 38 b7 97 3e 1c 2f 37 3f cf 58 99 3e 49 34 dc 3d
       0.29631972 0.7155626 0.29950568 0.1075216
000070 7e 50 2d 3f ba c0 c3 3e 49 21 cc 3c bb 32 27 3f
       0.67700946 0.38232976 0.024918215 0.65311784
000080 f3 d4 b0 3e 75 45 87 3e 9e f3 f7 3e 15 13 19 3f
       0.34537467 0.2642018 0.48428053 0.5979474
000090 ef 2e 15 3f c0 39 b2 3e 52 df 24 3f 09 77 e2 3e
       0.5827474 0.34809685 0.6440326 0.44231442
0000a0 70 2b 67 3e bd 72 43 3f 3e f4 02 3f db e5 94 3d
       0.22575164 0.7634695 0.51153934 0.07270404
0000b0 74 32 e6 3e 23 e6 b8 3d e0 43 1a 3f 64 ba c9 3e
       0.44960368 0.0902827 0.6025982 0.39400017
0000c0 20 0b 26 3f 71 a5 75 3e 00 00 80 3f 00 00 80 3f
       0.64860725 0.23988892 1.0 1.0
0000d0 00 00 80 3f 00 00 80 3f 00 00 80 3f 00 00 80 3f
       1.0 1.0 1.0 1.0
0000e0 00 00 80 3f 00 00 80 3f 00 00 80 3f 00 00 80 3f
       1.0 1.0 1.0 1.0
0000f0 00 00 80 3f 00 00 80 3f 00 00 80 3f 00 00 80 3f
       1.0 1.0 1.0 1.0
000100 00 00 80 3f 00 00 80 3f 00 00 80 3f 00 00 80 3f
       1.0 1.0 1.0 1.0
000110 00 00 80 3f 00 00 80 3f 00 00 80 3f 00 00 80 3f
       1.0 1.0 1.0 1.0
000120 00 00 80 3f 00 00 80 3f 00 00 80 3f 00 00 80 3f
       1.0 1.0 1.0 1.0
000130 00 00 80 3f 00 00 80 3f 00 00 80 3f 00 00 80 3f
       1.0 1.0 1.0 1.0
000140 00 00 80 3f 00 00 80 3f 00 00 80 3f 00 00 80 3f
       1.0 1.0 1.0 1.0
000150 00 00 80 3f 00 00 80 3f 00 00 80 3f 00 00 80 3f
       1.0 1.0 1.0 1.0
000160 00 00 80 3f 00 00 80 3f 00 00 80 3f 00 00 80 3f
       1.0 1.0 1.0 1.0
000170 00 00 80 3f 00 00 80 3f 00 00 80 3f 00 00 80 3f
       1.0 1.0 1.0 1.0
000180 00 00 80 3f 00 00 80 3f 00 00 80 3f 00 00 80 3f
       1.0 1.0 1.0 1.0
000190 34 77 40 be 13 4e b2 3b 7c a3 47 be 02 6b 5e bd
       -0.18795472 0.005441436 -0.19495958 -0.05430127
0001a0 b1 2d e8 bb 52 cc 07 3e 65 d4 4e 3e 37 f0 e4 bd
       -0.007085525 0.13261536 0.2019821 -0.1117863
0001b0 ef a7 c2 be 4a de 8e 3d 26 f3 43 3e 92 5e f9 bd
       -0.38018748 0.06975992 0.19135723 -0.12176241
0001c0 85 25 8b bc c5 b2 26 be da 5b 1c 3d 7b b5 a4 3d
       -0.016985664 -0.16279133 0.038173534 0.08042427
0001d0 1e bc 01 bc 20 24 06 3d 9a 37 36 3e 2e d6 52 3e
       -0.007918386 0.032749295 0.17794648 0.20589516
0001e0 79 e8 53 3e 38 6c e9 3d 67 c2 64 3d e3 f7 b4 bd
       0.2069415 0.11397594 0.05584946 -0.08836343
0001f0 f8 9e 9d bd d3 a5 28 3e 15 f9 02 3e 12 11 9a bd
       -0.076963365 0.16469507 0.1279033 -0.07522787
000200 1e e7 5b 3c 07 21 b9 3a 80 2f 09 3d 2b 46 11 3e
       0.013421802 0.0014124223 0.033492565 0.14186923
000210 c4 7b 6b be 10 de 44 3e 23 fe 1d be 4d 04 9c 3d
       -0.22996432 0.19225335 -0.15428977 0.07618008
000220 53 c9 8c 3d a0 bc 50 3e 3e 22 0a be 16 91 6d 3b
       0.06874337 0.20384455 -0.13489625 0.0036249808
000230 cc ef 80 3d 9a 91 05 be 82 48 50 bd 26 91 33 be
       0.062957376 -0.13043824 -0.0508504 -0.17535838
000240 8f 24 06 3e 9e dc 60 3e 92 ee 65 be a8 9e 48 bd
       0.13099883 0.21959159 -0.22454289 -0.04897943
000250 9c 5e 2c 3d a1 3a 7a 3e 19 9e bb 3e 67 bb 82 3e
       0.042082414 0.24436428 0.36644056 0.25533602
000260 4a 56 d6 3e 3b b0 dc 3e 38 89 5b 3f 50 eb b6 3d
       0.41862708 0.43103203 0.85756254 0.08931601
000270 ba 5c fe 3e a6 d3 c4 3e 05 3f b6 3e 61 f3 14 3f
       0.4968012 0.38442725 0.35594955 0.58183867
000280 f2 94 1b 3f e3 e8 4f 3f d3 79 2c 3e 43 6f 5d 3f
       0.6077415 0.8121473 0.16843347 0.86497897
000290 07 1a a4 3e f2 41 a7 3e 2c 5e 2e 3f f6 95 c6 3e
       0.32051107 0.326675 0.68112445 0.38786286
0002a0 32 a6 2e 3f 1b 99 76 3f 2a 6a 04 3f 32 d7 61 3f
       0.68222344 0.9632737 0.51724494 0.88218987
0002b0 a3 8c 8a 3d d2 b5 c0 3e e3 74 81 3e d2 cb 42 3f
       0.067651056 0.37638718 0.2528449 0.76092255
0002c0 ab 49 74 3e 5e 61 18 3e ef 44 35 3f d7 2c 9f 3e
       0.23856227 0.14880893 0.7080831 0.31088898
0002d0 da 32 c0 3c 02 c6 03 3f db 1d b7 3e d7 fd d2 3e
       0.023461748 0.5147401 0.35764965 0.4120929
0002e0 d6 73 f6 3e 56 43 19 3f 4e 5a 18 3f 37 48 b6 3e
       0.4813525 0.5986837 0.59512794 0.3560197
0002f0 95 a7 2b 3f 82 72 f4 3e f6 24 63 3e f7 94 44 3f
       0.67052585 0.47743613 0.22182068 0.767898
000300 48 60 07 3f e5 b7 5e 3d 6e d4 ea 3e 40 ef 67 3e
       0.5288129 0.054374594 0.45865196 0.2264986
000310 a4 8e 29 3f 02 58 bf 3e 52 d1 24 3f f0 ee 4c 3e
       0.6623328 0.37371832 0.643819 0.20013022

sequential_1/lstm_1/Read_2/ReadVariableOp f4 [400]
000000 9e f8 de 3e 9e 00 3b 3f 0f f9 d5 3e a8 80 00 3f
       0.43549055 0.73047817 0.4179158 0.50196314
000010 e3 e0 2d 3f ac 8f 93 3e 09 dd 77 3f 5f 07 15 3f
       0.67921275 0.2882055 0.9682165 0.5821437
000020 18 77 29 3f 18 80 1d 3f a2 c1 29 3f 63 ed c7 3e
       0.6619735 0.6152358 0.66311085 0.390483
000030 16 d9 f6 3e 8e fe 91 3e 25 37 d2 3e 0a 02 0d 3f
       0.48212498 0.28514522 0.41057697 0.55081236
000040 36 8b d0 3e e2 29 9f 3e 5a a1 3a 3f 81 67 15 3f
       0.4073121 0.31086642 0.7290245 0.5836106
000050 c6 c9 c4 3e a3 9b 9d 3e 90 94 24 3f c7 e1 05 3f
       0.3843519 0.30782804 0.6428919 0.52297634
000060 8b b5 06 3f 8a ab 0f 3f fa 22 26 3f 23 7f d3 3e
       0.5262076 0.5612112 0.6489712 0.41307935
000070 90 50 16 3f 94 62 2c 3f a8 29 cd 3e 8a 57 a2 3e
       0.5871668 0.6733792 0.40070844 0.31707412
000080 c4 83 50 3f 0e 32 c2 3e 09 2a 81 3f bd 5d d5 3e
       0.8145106 0.37928814 1.0090953 0.4167308
000090 93 28 b4 3e 22 bb be 3e 9d 56 0e 3f 34 d7 36 3f
       0.35187206 0.37252146 0.5560091 0.71422124
0000a0 9e a3 90 3e 60 9d 5b 3f 2f 23 a4 3e 48 ad 5a 3f
       0.2824983 0.8578701 0.32058093 0.85420656
0000b0 bf e8 de 3e ff 32 27 3f 71 11 df 3e 30 3d 81 3f
       0.43536946 0.6531219 0.43567994 1.0096798
0000c0 c4 a5 e6 3e cb 9f 40 3f 29 03 38 3e 68 5f 21 3e
       0.45048344 0.75243825 0.17969956 0.15759051
0000d0 98 78 3f 3f 12 15 30 3f b3 71 9d 3e 4b bd ef 3e
       0.74793386 0.6878215 0.30750808 0.46824107
0000e0 4c 62 00 3f f6 76 0c 3f 92 05 44 3f 4a e1 e3 3e
       0.5014999 0.5486902 0.76571 0.4450782
0000f0 15 72 4a 3f 36 59 be 3e 89 aa c3 3e 12 86 fd 3e
       0.79080325 0.37177438 0.38216045 0.4951635
000100 f1 28 a4 3e 08 46 0d 3f 92 cf 00 3f a7 c1 90 3e
       0.32062486 0.55184984 0.5031673 0.28272745
000110 60 a8 03 3f fd 12 c4 3e 3b 83 f1 3e 3e b4 0d 3f
       0.51428795 0.38295737 0.47170433 0.5535315
000120 a7 39 c0 3e 1c 3a 32 3f 4e 60 a4 3e f6 87 07 3f
       0.37543985 0.6961992 0.32104725 0.52941835
000130 57 6a da 3e 60 81 31 3e 2b 47 a5 3e 28 3a 23 3f
       0.42659256 0.17334509 0.3228086 0.63760614
000140 60 ea 11 3f 71 4c c1 3e 45 21 8f 3e aa 5d 19 3f
       0.5699825 0.37753633 0.2795507 0.59908545
000150 78 92 16 3f 49 00 84 3e 4c b7 0b 3f 18 ec 2b 3e
       0.58817244 0.25781468 0.54576564 0.16789281
000160 2b 69 89 3e 25 53 29 3f 6a af 8f 3e 06 55 14 3f
       0.2683805 0.66142493 0.28063518 0.57942235
000170 af 8e 40 3f dc 2e 00 3f b8 8f ef 3e 34 c0 4e 3e
       0.7521772 0.500715 0.46789336 0.20190507
000180 0d 87 bb 3e 4d c0 f5 3e ae 80 9a 3e c9 0c 98 3e
       0.36626473 0.47998276 0.301763 0.29697254
000190 00 00 80 3f 00 00 80 3f 00 00 80 3f 00 00 80 3f
       1.0 1.0 1.0 1.0
0001a0 00 00 80 3f 00 00 80 3f 00 00 80 3f 00 00 80 3f
       1.0 1.0 1.0 1.0
0001b0 00 00 80 3f 00 00 80 3f 00 00 80 3f 00 00 80 3f
       1.0 1.0 1.0 1.0
0001c0 00 00 80 3f 00 00 80 3f 00 00 80 3f 00 00 80 3f
       1.0 1.0 1.0 1.0
0001d0 00 00 80 3f 00 00 80 3f 00 00 80 3f 00 00 80 3f
       1.0 1.0 1.0 1.0
0001e0 00 00 80 3f 00 00 80 3f 00 00 80 3f 00 00 80 3f
       1.0 1.0 1.0 1.0
0001f0 00 00 80 3f 00 00 80 3f 00 00 80 3f 00 00 80 3f
       1.0 1.0 1.0 1.0
000200 00 00 80 3f 00 00 80 3f 00 00 80 3f 00 00 80 3f
       1.0 1.0 1.0 1.0
000210 00 00 80 3f 00 00 80 3f 00 00 80 3f 00 00 80 3f
       1.0 1.0 1.0 1.0
000220 00 00 80 3f 00 00 80 3f 00 00 80 3f 00 00 80 3f
       1.0 1.0 1.0 1.0
000230 00 00 80 3f 00 00 80 3f 00 00 80 3f 00 00 80 3f
       1.0 1.0 1.0 1.0
000240 00 00 80 3f 00 00 80 3f 00 00 80 3f 00 00 80 3f
       1.0 1.0 1.0 1.0
000250 00 00 80 3f 00 00 80 3f 00 00 80 3f 00 00 80 3f
       1.0 1.0 1.0 1.0
000260 00 00 80 3f 00 00 80 3f 00 00 80 3f 00 00 80 3f
       1.0 1.0 1.0 1.0
000270 00 00 80 3f 00 00 80 3f 00 00 80 3f 00 00 80 3f
       1.0 1.0 1.0 1.0
000280 00 00 80 3f 00 00 80 3f 00 00 80 3f 00 00 80 3f
       1.0 1.0 1.0 1.0
000290 00 00 80 3f 00 00 80 3f 00 00 80 3f 00 00 80 3f
       1.0 1.0 1.0 1.0
0002a0 00 00 80 3f 00 00 80 3f 00 00 80 3f 00 00 80 3f
       1.0 1.0 1.0 1.0
0002b0 00 00 80 3f 00 00 80 3f 00 00 80 3f 00 00 80 3f
       1.0 1.0 1.0 1.0
0002c0 00 00 80 3f 00 00 80 3f 00 00 80 3f 00 00 80 3f
       1.0 1.0 1.0 1.0
0002d0 00 00 80 3f 00 00 80 3f 00 00 80 3f 00 00 80 3f
       1.0 1.0 1.0 1.0
0002e0 00 00 80 3f 00 00 80 3f 00 00 80 3f 00 00 80 3f
       1.0 1.0 1.0 1.0
0002f0 00 00 80 3f 00 00 80 3f 00 00 80 3f 00 00 80 3f
       1.0 1.0 1.0 1.0
000300 00 00 80 3f 00 00 80 3f 00 00 80 3f 00 00 80 3f
       1.0 1.0 1.0 1.0
000310 00 00 80 3f 00 00 80 3f 00 00 80 3f 00 00 80 3f
       1.0 1.0 1.0 1.0
000320 b4 84 24 bc 5b e1 30 be 99 48 25 be 86 0d 9a bb
       -0.0100414045 -0.17273466 -0.16140975 -0.004701319
000330 ac fb 4a bd 5f 36 89 3e 29 8f 84 3e c1 40 ab bc
       -0.04955642 0.26799294 0.25890473 -0.0209049
000340 2d 56 98 3d 59 af 99 bd a0 fc af 3d fa f7 c4 3e
       0.07438312 -0.07504148 0.08593106 0.3847044
000350 67 74 0f be 4c 62 6c 3e a9 87 a9 bc 44 63 2a be
       -0.14009248 0.23084372 -0.02069457 -0.1663943
000360 c7 fb b4 bb 71 37 0d 3d d6 29 13 bf a9 82 8f bd
       -0.0055231783 0.0344767 -0.5748571 -0.07007343
000370 a5 0d 50 3e 77 60 3b 3c 7b 34 a7 be a4 fb aa bd
       0.20317705 0.011436573 -0.32657227 -0.08348778
000380 9f 10 15 3d b9 3c 7a 3d 80 13 d0 3d 61 c5 83 bd
       0.036392804 0.061093066 0.10159969 -0.064341314
000390 4b 6b 44 be 59 fa 3f be f4 12 72 be 07 f8 f3 bd
       -0.19181554 -0.18747844 -0.23640043 -0.11912542
0003a0 93 d1 a3 3d 76 6d 58 bd 27 88 1d 3e 9a 6e 2e be
       0.079989575 -0.052838765 0.15383969 -0.17034379
0003b0 17 1a cb 3d f1 25 3b be c7 9a 49 3e e4 71 fc bd
       0.099170856 -0.18276192 0.19687949 -0.123264104
0003c0 7f c7 d9 bd e1 dc 63 be b0 72 4a 3c bb 44 2f bc
       -0.10633754 -0.22252227 0.012356445 -0.010697539
0003d0 16 ad 42 be c1 1b 3b 3e 25 22 0a 3e 2c a7 b8 3d
       -0.1901134 0.18272306 0.13489588 0.090162605
0003e0 ed 6b b5 3d 58 87 12 be bc 1c 48 3d cf cf cf bd
       0.08858476 -0.14309442 0.04885553 -0.10147058
0003f0 66 66 ed bc 73 b5 80 3e 4e 82 39 be 3a cc 6b be
       -0.028979491 0.25138435 -0.18116114 -0.23027125

sequential_1/dense_1/BiasAdd/ReadVariableOp f4 [25]
000000 f9 3a 05 be 90 d8 89 be 13 63 7e be 49 1f a6 3d
       -0.13010778 -0.26923037 -0.24842481 0.08111436
000010 73 46 7e 3e 2d 64 ae 3d e4 9b e8 bd b5 6a 7c bd
       0.24831562 0.08515201 -0.11357859 -0.0616252
000020 9e b5 7a 3e 10 28 4e 3e 94 80 0f be fd e4 c4 bd
       0.24483344 0.2013247 -0.14013892 -0.096139885
000030 f9 ad 45 be 6a f1 83 bd 9b ae c9 be 88 82 96 3e
       -0.19304647 -0.064425305 -0.39391026 0.29396462
000040 9a 31 bc 3b a7 a0 8f bd 38 6c 38 3e 5e 43 61 3d
       0.0057432177 -0.07013064 0.18010032 0.054995887
000050 71 4c 25 bd 66 72 20 be 0a b6 8a 3e b8 e7 34 be
       -0.040356103 -0.1566864 0.2709201 -0.17666519
000060 6c ad 9c 3d
       0.07650265

sequential_1/dense_1/MatMul i1 [25, 100] scale=0.008222094 zero_point=0
000000 1b 12 12 1c d0 0f c4 ec 20 34 b4 c3 1e 1d d5 ea
       0.22199653 0.14799769 0.14799769 0.23021862 -0.3946605 0.123331405 -0.49332562 -0.16444188 0.263107 0.4275489 -0.6248791 -0.5015477 0.24666281 0.23844072 -0.35355005 -0.18088606
000010 f1 0e e7 09 01 f7 c9 52 39 28 f1 19 3a 18 31 cb
       -0.123331405 0.11510931 -0.20555234 0.073998846 0.008222094 -0.073998846 -0.45221516 0.6742117 0.46865934 0.32888377 -0.123331405 0.20555234 0.47688144 0.19733025 0.4028826 -0.43577096
000020 1b 05 1e 41 e5 e2 a6 ee 03 33 30 dc d2 11 1d 1f
       0.22199653 0.04111047 0.24666281 0.5344361 -0.22199653 -0.24666281 -0.73998845 -0.14799769 0.024666281 0.41932678 0.3946605 -0.29599538 -0.37821633 0.13977559 0.23844072 0.2548849
000030 06 4b 42 1f 1f a0 e3 eb ad 0b 1f f7 ce e2 f5 ca
       0.049332563 0.616657 0.5426582 0.2548849 0.2548849 -0.789321 -0.23844072 -0.17266397 -0.6824338 0.09044303 0.2548849 -0.073998846 -0.41110468 -0.24666281 -0.09044303 -0.44399306
000040 09 24 e4 fc 23 e6 d8 ca b1 fa f3 1c 22 d4 ef df
       0.073998846 0.29599538 -0.23021862 -0.032888375 0.28777328 -0.21377444 -0.32888377 -0.44399306 -0.64954543 -0.049332563 -0.10688722 0.23021862 0.27955118 -0.36177212 -0.13977559 -0.2713291
000050 fa 1d 1d 19 0a cd 07 0f ca 0f 0b f7 d3 48 17 b5
       -0.049332563 0.23844072 0.23844072 0.20555234 0.08222094 -0.41932678 0.057554655 0.123331405 -0.44399306 0.123331405 0.09044303 -0.073998846 -0.36999422 0.59199077 0.18910816 -0.616657
000060 d2 1a fe 28 ce 2f 0a 0b 06 f8 9d 3d fc 26 36 11
       -0.37821633 0.21377444 -0.016444188 0.32888377 -0.41110468 0.3864384 0.08222094 0.09044303 0.049332563 -0.06577675 -0.8139873 0.5015477 -0.032888375 0.31243956 0.44399306 0.13977559
000070 21 f6 23 05 b2 da 3b 07 d8 d8 2f ea f9 a9 c2 19
       0.2713291 -0.08222094 0.28777328 0.04111047 -0.6413233 -0.31243956 0.48510355 0.057554655 -0.32888377 -0.32888377 0.3864384 -0.18088606 -0.057554655 -0.71532214 -0.5097698 0.20555234
000080 f1 7c ef 05 e7 41 d4 0e 0f eb 1c 41 08 66 c5 2b
       -0.123331405 1.0195396 -0.13977559 0.04111047 -0.20555234 0.5344361 -0.36177212 0.11510931 0.123331405 -0.17266397 0.23021862 0.5344361 0.06577675 0.83865356 -0.48510355 0.35355005
000090 44 e7 b6 00 1d df 0c 27 66 0a 3d 31 eb fc f0 f8
       0.55910236 -0.20555234 -0.6084349 0.0 0.23844072 -0.2713291 0.098665126 0.32066166 0.83865356 0.08222094 0.5015477 0.4028826 -0.17266397 -0.032888375 -0.1315535 -0.06577675
0000a0 f4 dc 1c 33 1c 25 dd d7 06 ca 18 2a f2 b7 06 f9
       -0.098665126 -0.29599538 0.23021862 0.41932678 0.23021862 0.30421746 -0.28777328 -0.33710584 0.049332563 -0.44399306 0.19733025 0.34532794 -0.11510931 -0.6002129 0.049332563 -0.057554655
0000b0 35 ea 24 2e ec 2d 2e bd f0 0e 0f b4 df c6 de bf
       0.43577096 -0.18088606 0.29599538 0.37821633 -0.16444188 0.36999422 0.37821633 -0.5508803 -0.1315535 0.11510931 0.123331405 -0.6248791 -0.2713291 -0.47688144 -0.27955118 -0.5344361
0000c0 db f3 2f a7 24 fd 03 f6 08 37 43 28 ba 0c f6 22
       -0.30421746 -0.10688722 0.3864384 -0.73176634 0.29599538 -0.024666281 0.024666281 -0.08222094 0.06577675 0.45221516 0.5508803 0.32888377 -0.57554656 0.098665126 -0.08222094 0.27955118
0000d0 d3 0d fd b5 26 f1 f5 e2 df 0e f3 da ea b8 dd 37
       -0.36999422 0.10688722 -0.024666281 -0.616657 0.31243956 -0.123331405 -0.09044303 -0.24666281 -0.2713291 0.11510931 -0.10688722 -0.31243956 -0.18088606 -0.59199077 -0.28777328 0.45221516
0000e0 31 03 cc 25 08 26 47 4f 06 27 ca ee 05 0d 03 0e
       0.4028826 0.024666281 -0.4275489 0.30421746 0.06577675 0.31243956 0.58376867 0.64954543 0.049332563 0.32066166 -0.44399306 -0.14799769 0.04111047 0.10688722 0.024666281 0.11510931
0000f0 10 0e 12 dc 20 2a c9 d0 d8 dc d2 41 02 24 f5 68
       0.1315535 0.11510931 0.14799769 -0.29599538 0.263107 0.34532794 -0.45221516 -0.3946605 -0.32888377 -0.29599538 -0.37821633 0.5344361 0.016444188 0.29599538 -0.09044303 0.8550978

sequential_1/lstm/Read_2/ReadVariableOp1 f4 [200]
000000 84 7c d2 3e a1 ae b3 3e fc ac b4 3e c2 36 d1 3e
       0.41110623 0.3509417 0.35288227 0.4086209
000010 21 92 64 3f 34 ad 26 3d db b3 fd 3e b6 e2 d5 3e
       0.89285475 0.040692523 0.4955128 0.4177453
000020 a6 e3 8a 3e 82 4b 0c 3f 16 03 07 3f fe ff 48 3f
       0.27126807 0.54802716 0.52739084 0.78515613
000030 77 91 9a 3d 83 28 4b 3f 2e 21 ab 3e 55 6f 47 3e
       0.075472765 0.7935869 0.33423752 0.19476064
000040 60 4a 21 3f 2c 37 db 3e 09 f2 2b 3f dd 60 7e 3f
       0.6300411 0.4281553 0.6716619 0.9936655
000050 47 f3 03 3f 9b 21 66 3f 9c b2 51 3e 51 6c bc 3e
       0.51543087 0.8989503 0.2047829 0.3680139
000060 38 b7 97 3e 1c 2f 37 3f cf 58 99 3e 49 34 dc 3d
       0.29631972 0.7155626 0.29950568 0.1075216
000070 7e 50 2d 3f ba c0 c3 3e 49 21 cc 3c bb 32 27 3f
       0.67700946 0.38232976 0.024918215 0.65311784
000080 f3 d4 b0 3e 75 45 87 3e 9e f3 f7 3e 15 13 19 3f
       0.34537467 0.2642018 0.48428053 0.5979474
000090 ef 2e 15 3f c0 39 b2 3e 52 df 24 3f 09 77 e2 3e
       0.5827474 0.34809685 0.6440326 0.44231442
0000a0 70 2b 67 3e bd 72 43 3f 3e f4 02 3f db e5 94 3d
       0.22575164 0.7634695 0.51153934 0.07270404
0000b0 74 32 e6 3e 23 e6 b8 3d e0 43 1a 3f 64 ba c9 3e
       0.44960368 0.0902827 0.6025982 0.39400017
0000c0 20 0b 26 3f 71 a5 75 3e 00 00 80 3f 00 00 80 3f
       0.64860725 0.23988892 1.0 1.0
0000d0 00 00 80 3f 00 00 80 3f 00 00 80 3f 00 00 80 3f
       1.0 1.0 1.0 1.0
0000e0 00 00 80 3f 00 00 80 3f 00 00 80 3f 00 00 80 3f
       1.0 1.0 1.0 1.0
0000f0 00 00 80 3f 00 00 80 3f 00 00 80 3f 00 00 80 3f
       1.0 1.0 1.0 1.0
000100 00 00 80 3f 00 00 80 3f 00 00 80 3f 00 00 80 3f
       1.0 1.0 1.0 1.0
000110 00 00 80 3f 00 00 80 3f 00 00 80 3f 00 00 80 3f
       1.0 1.0 1.0 1.0
000120 00 00 80 3f 00 00 80 3f 00 00 80 3f 00 00 80 3f
       1.0 1.0 1.0 1.0
000130 00 00 80 3f 00 00 80 3f 00 00 80 3f 00 00 80 3f
       1.0 1.0 1.0 1.0
000140 00 00 80 3f 00 00 80 3f 00 00 80 3f 00 00 80 3f
       1.0 1.0 1.0 1.0
000150 00 00 80 3f 00 00 80 3f 00 00 80 3f 00 00 80 3f
       1.0 1.0 1.0 1.0
000160 00 00 80 3f 00 00 80 3f 00 00 80 3f 00 00 80 3f
       1.0 1.0 1.0 1.0
000170 00 00 80 3f 00 00 80 3f 00 00 80 3f 00 00 80 3f
       1.0 1.0 1.0 1.0
000180 00 00 80 3f 00 00 80 3f 00 00 80 3f 00 00 80 3f
       1.0 1.0 1.0 1.0
000190 34 77 40 be 13 4e b2 3b 7c a3 47 be 02 6b 5e bd
       -0.18795472 0.005441436 -0.19495958 -0.05430127
0001a0 b1 2d e8 bb 52 cc 07 3e 65 d4 4e 3e 37 f0 e4 bd
       -0.007085525 0.13261536 0.2019821 -0.1117863
0001b0 ef a7 c2 be 4a de 8e 3d 26 f3 43 3e 92 5e f9 bd
       -0.38018748 0.06975992 0.19135723 -0.12176241
0001c0 85 25 8b bc c5 b2 26 be da 5b 1c 3d 7b b5 a4 3d
       -0.016985664 -0.16279133 0.038173534 0.08042427
0001d0 1e bc 01 bc 20 24 06 3d 9a 37 36 3e 2e d6 52 3e
       -0.007918386 0.032749295 0.17794648 0.20589516
0001e0 79 e8 53 3e 38 6c e9 3d 67 c2 64 3d e3 f7 b4 bd
       0.2069415 0.11397594 0.05584946 -0.08836343
0001f0 f8 9e 9d bd d3 a5 28 3e 15 f9 02 3e 12 11 9a bd
       -0.076963365 0.16469507 0.1279033 -0.07522787
000200 1e e7 5b 3c 07 21 b9 3a 80 2f 09 3d 2b 46 11 3e
       0.013421802 0.0014124223 0.033492565 0.14186923
000210 c4 7b 6b be 10 de 44 3e 23 fe 1d be 4d 04 9c 3d
       -0.22996432 0.19225335 -0.15428977 0.07618008
000220 53 c9 8c 3d a0 bc 50 3e 3e 22 0a be 16 91 6d 3b
       0.06874337 0.20384455 -0.13489625 0.0036249808
000230 cc ef 80 3d 9a 91 05 be 82 48 50 bd 26 91 33 be
       0.062957376 -0.13043824 -0.0508504 -0.17535838
000240 8f 24 06 3e 9e dc 60 3e 92 ee 65 be a8 9e 48 bd
       0.13099883 0.21959159 -0.22454289 -0.04897943
000250 9c 5e 2c 3d a1 3a 7a 3e 19 9e bb 3e 67 bb 82 3e
       0.042082414 0.24436428 0.36644056 0.25533602
000260 4a 56 d6 3e 3b b0 dc 3e 38 89 5b 3f 50 eb b6 3d
       0.41862708 0.43103203 0.85756254 0.08931601
000270 ba 5c fe 3e a6 d3 c4 3e 05 3f b6 3e 61 f3 14 3f
       0.4968012 0.38442725 0.35594955 0.58183867
000280 f2 94 1b 3f e3 e8 4f 3f d3 79 2c 3e 43 6f 5d 3f
       0.6077415 0.8121473 0.16843347 0.86497897
000290 07 1a a4 3e f2 41 a7 3e 2c 5e 2e 3f f6 95 c6 3e
       0.32051107 0.326675 0.68112445 0.38786286
0002a0 32 a6 2e 3f 1b 99 76 3f 2a 6a 04 3f 32 d7 61 3f
       0.68222344 0.9632737 0.51724494 0.88218987
0002b0 a3 8c 8a 3d d2 b5 c0 3e e3 74 81 3e d2 cb 42 3f
       0.067651056 0.37638718 0.2528449 0.76092255
0002c0 ab 49 74 3e 5e 61 18 3e ef 44 35 3f d7 2c 9f 3e
       0.23856227 0.14880893 0.7080831 0.31088898
0002d0 da 32 c0 3c 02 c6 03 3f db 1d b7 3e d7 fd d2 3e
       0.023461748 0.5147401 0.35764965 0.4120929
0002e0 d6 73 f6 3e 56 43 19 3f 4e 5a 18 3f 37 48 b6 3e
       0.4813525 0.5986837 0.59512794 0.3560197
0002f0 95 a7 2b 3f 82 72 f4 3e f6 24 63 3e f7 94 44 3f
       0.67052585 0.47743613 0.22182068 0.767898
000300 48 60 07 3f e5 b7 5e 3d 6e d4 ea 3e 40 ef 67 3e
       0.5288129 0.054374594 0.45865196 0.2264986
000310 a4 8e 29 3f 02 58 bf 3e 52 d1 24 3f f0 ee 4c 3e
       0.6623328 0.37371832 0.643819 0.20013022

while/MatMul_11 i1 [200, 50] scale=0.0020681217 zero_point=0
000000 1a ec 42 1e f5 f5 ec d7 17 f1 d1 cb 17 1d 04 0d
       0.053771164 -0.041362435 0.13649604 0.062043652 -0.022749338 -0.022749338 -0.041362435 -0.08479299 0.047566798 -0.031021826 -0.09720172 -0.109610446 0.047566798 0.059975527 0.008272487 0.026885582
000010 f2 c1 1d fa f7 eb ed 0b b3 f8 de d9 40 f3 e1 1a
       -0.028953703 -0.13029167 0.059975527 -0.01240873 -0.018613094 -0.043430556 -0.039294314 0.022749338 -0.15924537 -0.016544973 -0.070316136 -0.080656745 0.13235979 -0.026885582 -0.06411177 0.053771164
000020 d9 4d ea 14 ef cc 18 12 db e6 01 12 12 09 f9 f3
       -0.080656745 0.15924537 -0.045498677 0.041362435 -0.035158068 -0.10754233 0.04963492 0.03722619 -0.0765205 -0.053771164 0.0020681217 0.03722619 0.03722619 0.018613094 -0.014476852 -0.026885582
000030 ed 24 ee dc f1 f1 10 2a 00 f6 f1 0b 43 36 e5 05
       -0.039294314 0.07445238 -0.03722619 -0.07445238 -0.031021826 -0.031021826 0.033089947 0.08686111 0.0 -0.020681217 -0.031021826 0.022749338 0.13856415 0.11167857 -0.055839285 0.010340609
000040 1f 02 07 f5 23 df 1d f8 f1 f5 1a ea 05 da d3 b2
       0.06411177 0.0041362434 0.014476852 -0.022749338 0.07238426 -0.06824802 0.059975527 -0.016544973 -0.031021826 -0.022749338 0.053771164 -0.045498677 0.010340609 -0.07858863 -0.09306548 -0.16131349
000050 29 5a eb 26 dc 04 03 fd c5 36 ec f7 07 ed ff 00
       0.08479299 0.18613096 -0.043430556 0.07858863 -0.07445238 0.008272487 0.006204365 -0.006204365 -0.12201918 0.11167857 -0.041362435 -0.018613094 0.014476852 -0.039294314 -0.0020681217 0.0
000060 38 1a 36 91 34 ec d8 23 02 0b 1b b9 ce 05 f8 38
       0.11581481 0.053771164 0.11167857 -0.22956151 0.10754233 -0.041362435 -0.08272487 0.07238426 0.0041362434 0.022749338 0.055839285 -0.14683664 -0.10340609 0.010340609 -0.016544973 0.11581481
000070 1a 14 e2 0e fa 02 f5 eb 2b fa 06 36 3b fd 26 ef
       0.053771164 0.041362435 -0.062043652 0.028953703 -0.01240873 0.0041362434 -0.022749338 -0.043430556 0.088929236 -0.01240873 0.01240873 0.11167857 0.12201918 -0.006204365 0.07858863 -0.035158068
000080 e6 fc e9 d7 ef e1 eb 26 e5 fc dd ed e0 ed 20 0d
       -0.053771164 -0.008272487 -0.047566798 -0.08479299 -0.035158068 -0.06411177 -0.043430556 0.07858863 -0.055839285 -0.008272487 -0.07238426 -0.039294314 -0.066179894 -0.039294314 0.066179894 0.026885582
000090 0c 11 49 1e 01 1f 37 0c fa 37 d8 0f d0 19 23 d1
       0.02481746 0.035158068 0.15097289 0.062043652 0.0020681217 0.06411177 0.113746695 0.02481746 -0.01240873 0.113746695 -0.08272487 0.031021826 -0.09926984 0.051703043 0.07238426 -0.09720172
0000a0 13 ed f5 d6 08 dc f0 16 ce 2d 04 f1 27 db d5 0e
       0.039294314 -0.039294314 -0.022749338 -0.08686111 0.016544973 -0.07445238 -0.033089947 0.045498677 -0.10340609 0.09306548 0.008272487 -0.031021826 0.080656745 -0.0765205 -0.088929236 0.028953703
0000b0 e3 da 21 fb 19 03 26 d2 1e e4 e7 0c 33 2d e0 0f
       -0.059975527 -0.07858863 0.06824802 -0.010340609 0.051703043 0.006204365 0.07858863 -0.095133595 0.062043652 -0.057907406 -0.051703043 0.02481746 0.105474204 0.09306548 -0.066179894 0.031021826
0000c0 fc 09 04 d2 fc 2d ec fd 1b 1e f4 ec ff 03 3b 18
       -0.008272487 0.018613094 0.008272487 -0.095133595 -0.008272487 0.09306548 -0.041362435 -0.006204365 0.055839285 0.062043652 -0.02481746 -0.041362435 -0.0020681217 0.006204365 0.12201918 0.04963492
0000d0 0a e6 b9 20 fe 2d 09 f1 e0 05 16 cc 1f 05 ba dc
       0.020681217 -0.053771164 -0.14683664 0.066179894 -0.0041362434 0.09306548 0.018613094 -0.031021826 -0.066179894 0.010340609 0.045498677 -0.10754233 0.06411177 0.010340609 -0.14476852 -0.07445238
0000e0 e1 40 cf e9 c4 fa 07 e5 07 e6 21 ee da 11 d8 a4
       -0.06411177 0.13235979 -0.10133796 -0.047566798 -0.124087304 -0.01240873 0.014476852 -0.055839285 0.014476852 -0.053771164 0.06824802 -0.03722619 -0.07858863 0.035158068 -0.08272487 -0.19026719
0000f0 ec fa cf cb 0f ff ed 41 fb fd 02 f0 e9 e7 d4 f9
       -0.041362435 -0.01240873 -0.10133796 -0.109610446 0.031021826 -0.0020681217 -0.039294314 0.1344279 -0.010340609 -0.006204365 0.0041362434 -0.033089947 -0.047566798 -0.051703043 -0.09099735 -0.014476852

while/MatMul i1 [200, 42] scale=0.009252063 zero_point=0
000000 08 00 a4 cb b8 c5 a8 c2 a7 d1 b1 e0 a7 e0 b5 b6
       0.074016504 0.0 -0.8511898 -0.49035934 -0.66614854 -0.54587173 -0.81418157 -0.5736279 -0.8234336 -0.43484697 -0.730913 -0.29606602 -0.8234336 -0.29606602 -0.6939047 -0.6846527
000010 bc ae c9 d0 cb ce b2 d5 ba b2 f1 f0 e0 e0 c6 d4
       -0.62914026 -0.75866914 -0.50886345 -0.444099 -0.49035934 -0.46260315 -0.7216609 -0.3978387 -0.6476444 -0.7216609 -0.13878095 -0.14803301 -0.29606602 -0.29606602 -0.53661966 -0.40709078
000020 c3 de 39 e9 f7 f5 d5 f2 c5 d0 fe ff f9 fd dc e3
       -0.5643758 -0.31457013 0.5273676 -0.21279745 -0.08326857 -0.101772696 -0.3978387 -0.12952888 -0.54587173 -0.444099 -0.018504126 -0.009252063 -0.06476444 -0.027756188 -0.33307427 -0.26830983
000030 f6 c6 ee de eb a2 02 c1 e0 c1 fa be 07 9d ef bc
       -0.09252063 -0.53661966 -0.16653714 -0.31457013 -0.19429332 -0.86969393 0.018504126 -0.58287996 -0.29606602 -0.58287996 -0.055512376 -0.6106362 0.06476444 -0.91595423 -0.15728506 -0.62914026
000040 fe d0 f8 d3 17 9c fe bb 16 b8 2f c8 27 95 10 ac
       -0.018504126 -0.444099 -0.074016504 -0.41634282 0.21279745 -0.9252063 -0.018504126 -0.6383923 0.20354539 -0.66614854 0.43484697 -0.5181155 0.36083046 -0.98997074 0.14803301 -0.7771733
000050 1d c7 1f c6 fc 0a fd 2b 08 ec f8 ea ed e8 eb ac
       0.26830983 -0.5273676 0.28681394 -0.53661966 -0.037008252 0.09252063 -0.027756188 0.3978387 0.074016504 -0.18504126 -0.074016504 -0.20354539 -0.17578919 -0.2220495 -0.19429332 -0.7771733
000060 e4 a2 fc 9b ec a9 f7 a7 fd b9 f6 be eb c2 fb a8
       -0.25905776 -0.86969393 -0.037008252 -0.9344584 -0.18504126 -0.8049295 -0.08326857 -0.8234336 -0.027756188 -0.6568965 -0.09252063 -0.6106362 -0.19429332 -0.5736279 -0.046260316 -0.81418157
000070 19 be 0a bf 00 d0 05 a8 15 b7 16 b0 12 c7 10 0d
       0.23130158 -0.6106362 0.09252063 -0.6013841 0.0 -0.444099 0.046260316 -0.81418157 0.19429332 -0.6754006 0.20354539 -0.74016505 0.16653714 -0.5273676 0.14803301 0.120276816
000080 a8 ea b2 ce ac ec bd e2 b5 e4 b4 d0 d2 dc ce d6
       -0.81418157 -0.20354539 -0.7216609 -0.46260315 -0.7771733 -0.18504126 -0.61988825 -0.2775619 -0.6939047 -0.25905776 -0.70315677 -0.444099 -0.4255949 -0.33307427 -0.46260315 -0.38858664
000090 ca ce d3 ca c1 eb bd d0 d5 da db c9 d8 d8 e2 cf
       -0.4996114 -0.46260315 -0.41634282 -0.4996114 -0.58287996 -0.19429332 -0.61988825 -0.444099 -0.3978387 -0.35157838 -0.34232634 -0.50886345 -0.37008253 -0.37008253 -0.2775619 -0.45335108
0000a0 0f db 01 cb 07 ed 0a f0 fa 04 a3 e8 ac e8 a9 f5
       0.13878095 -0.34232634 0.009252063 -0.49035934 0.06476444 -0.17578919 0.09252063 -0.14803301 -0.055512376 0.037008252 -0.86044186 -0.2220495 -0.7771733 -0.2220495 -0.8049295 -0.101772696
0000b0 cb e1 97 c7 a7 d8 ae d8 b2 de c3 dc bc d1 ca ec
       -0.49035934 -0.28681394 -0.9714666 -0.5273676 -0.8234336 -0.37008253 -0.75866914 -0.37008253 -0.7216609 -0.31457013 -0.5643758 -0.33307427 -0.62914026 -0.43484697 -0.4996114 -0.18504126
0000c0 d9 f9 f3 ce dc ef d2 d8 c2 d9 2e cd ed e9 f4 f9
       -0.36083046 -0.06476444 -0.120276816 -0.46260315 -0.33307427 -0.15728506 -0.4255949 -0.37008253 -0.5736279 -0.36083046 0.4255949 -0.47185522 -0.17578919 -0.21279745 -0.11102475 -0.06476444
0000d0 de f4 04 0d e7 e8 cc f1 e2 ea fe 13 af f3 de e9
       -0.31457013 -0.11102475 0.037008252 0.120276816 -0.23130158 -0.2220495 -0.48110726 -0.13878095 -0.2775619 -0.20354539 -0.018504126 0.17578919 -0.7494171 -0.120276816 -0.31457013 -0.21279745
0000e0 df e7 f0 f4 c2 ff db fc c2 04 d6 03 b8 f4 a9 ec
       -0.3053181 -0.23130158 -0.14803301 -0.11102475 -0.5736279 -0.009252063 -0.34232634 -0.037008252 -0.5736279 0.037008252 -0.38858664 0.027756188 -0.66614854 -0.11102475 -0.8049295 -0.18504126
0000f0 9a fb ac f7 fd 10 bb 07 d0 1a c0 1e 0d f6 e6 f0
       -0.94371045 -0.046260316 -0.7771733 -0.08326857 -0.027756188 0.14803301 -0.6383923 0.06476444 -0.444099 0.24055363 -0.59213203 0.2775619 0.120276816 -0.09252063 -0.24055363 -0.14803301

sequential_1/lstm_1/Read_2/ReadVariableOp1 f4 [400]
000000 9e f8 de 3e 9e 00 3b 3f 0f f9 d5 3e a8 80 00 3f
       0.43549055 0.73047817 0.4179158 0.50196314
000010 e3 e0 2d 3f ac 8f 93 3e 09 dd 77 3f 5f 07 15 3f
       0.67921275 0.2882055 0.9682165 0.5821437
000020 18 77 29 3f 18 80 1d 3f a2 c1 29 3f 63 ed c7 3e
       0.6619735 0.6152358 0.66311085 0.390483
000030 16 d9 f6 3e 8e fe 91 3e 25 37 d2 3e 0a 02 0d 3f
       0.48212498 0.28514522 0.41057697 0.55081236
000040 36 8b d0 3e e2 29 9f 3e 5a a1 3a 3f 81 67 15 3f
       0.4073121 0.31086642 0.7290245 0.5836106
000050 c6 c9 c4 3e a3 9b 9d 3e 90 94 24 3f c7 e1 05 3f
       0.3843519 0.30782804 0.6428919 0.52297634
000060 8b b5 06 3f 8a ab 0f 3f fa 22 26 3f 23 7f d3 3e
       0.5262076 0.5612112 0.6489712 0.41307935
000070 90 50 16 3f 94 62 2c 3f a8 29 cd 3e 8a 57 a2 3e
       0.5871668 0.6733792 0.40070844 0.31707412
000080 c4 83 50 3f 0e 32 c2 3e 09 2a 81 3f bd 5d d5 3e
       0.8145106 0.37928814 1.0090953 0.4167308
000090 93 28 b4 3e 22 bb be 3e 9d 56 0e 3f 34 d7 36 3f
       0.35187206 0.37252146 0.5560091 0.71422124
0000a0 9e a3 90 3e 60 9d 5b 3f 2f 23 a4 3e 48 ad 5a 3f
       0.2824983 0.8578701 0.32058093 0.85420656
0000b0 bf e8 de 3e ff 32 27 3f 71 11 df 3e 30 3d 81 3f
       0.43536946 0.6531219 0.43567994 1.0096798
0000c0 c4 a5 e6 3e cb 9f 40 3f 29 03 38 3e 68 5f 21 3e
       0.45048344 0.75243825 0.17969956 0.15759051
0000d0 98 78 3f 3f 12 15 30 3f b3 71 9d 3e 4b bd ef 3e
       0.74793386 0.6878215 0.30750808 0.46824107
0000e0 4c 62 00 3f f6 76 0c 3f 92 05 44 3f 4a e1 e3 3e
       0.5014999 0.5486902 0.76571 0.4450782
0000f0 15 72 4a 3f 36 59 be 3e 89 aa c3 3e 12 86 fd 3e
       0.79080325 0.37177438 0.38216045 0.4951635
000100 f1 28 a4 3e 08 46 0d 3f 92 cf 00 3f a7 c1 90 3e
       0.32062486 0.55184984 0.5031673 0.28272745
000110 60 a8 03 3f fd 12 c4 3e 3b 83 f1 3e 3e b4 0d 3f
       0.51428795 0.38295737 0.47170433 0.5535315
000120 a7 39 c0 3e 1c 3a 32 3f 4e 60 a4 3e f6 87 07 3f
       0.37543985 0.6961992 0.32104725 0.52941835
000130 57 6a da 3e 60 81 31 3e 2b 47 a5 3e 28 3a 23 3f
       0.42659256 0.17334509 0.3228086 0.63760614
000140 60 ea 11 3f 71 4c c1 3e 45 21 8f 3e aa 5d 19 3f
       0.5699825 0.37753633 0.2795507 0.59908545
000150 78 92 16 3f 49 00 84 3e 4c b7 0b 3f 18 ec 2b 3e
       0.58817244 0.25781468 0.54576564 0.16789281
000160 2b 69 89 3e 25 53 29 3f 6a af 8f 3e 06 55 14 3f
       0.2683805 0.66142493 0.28063518 0.57942235
000170 af 8e 40 3f dc 2e 00 3f b8 8f ef 3e 34 c0 4e 3e
       0.7521772 0.500715 0.46789336 0.20190507
000180 0d 87 bb 3e 4d c0 f5 3e ae 80 9a 3e c9 0c 98 3e
       0.36626473 0.47998276 0.301763 0.29697254
000190 00 00 80 3f 00 00 80 3f 00 00 80 3f 00 00 80 3f
       1.0 1.0 1.0 1.0
0001a0 00 00 80 3f 00 00 80 3f 00 00 80 3f 00 00 80 3f
       1.0 1.0 1.0 1.0
0001b0 00 00 80 3f 00 00 80 3f 00 00 80 3f 00 00 80 3f
       1.0 1.0 1.0 1.0
0001c0 00 00 80 3f 00 00 80 3f 00 00 80 3f 00 00 80 3f
       1.0 1.0 1.0 1.0
0001d0 00 00 80 3f 00 00 80 3f 00 00 80 3f 00 00 80 3f
       1.0 1.0 1.0 1.0
0001e0 00 00 80 3f 00 00 80 3f 00 00 80 3f 00 00 80 3f
       1.0 1.0 1.0 1.0
0001f0 00 00 80 3f 00 00 80 3f 00 00 80 3f 00 00 80 3f
       1.0 1.0 1.0 1.0
000200 00 00 80 3f 00 00 80 3f 00 00 80 3f 00 00 80 3f
       1.0 1.0 1.0 1.0
000210 00 00 80 3f 00 00 80 3f 00 00 80 3f 00 00 80 3f
       1.0 1.0 1.0 1.0
000220 00 00 80 3f 00 00 80 3f 00 00 80 3f 00 00 80 3f
       1.0 1.0 1.0 1.0
000230 00 00 80 3f 00 00 80 3f 00 00 80 3f 00 00 80 3f
       1.0 1.0 1.0 1.0
000240 00 00 80 3f 00 00 80 3f 00 00 80 3f 00 00 80 3f
       1.0 1.0 1.0 1.0
000250 00 00 80 3f 00 00 80 3f 00 00 80 3f 00 00 80 3f
       1.0 1.0 1.0 1.0
000260 00 00 80 3f 00 00 80 3f 00 00 80 3f 00 00 80 3f
       1.0 1.0 1.0 1.0
000270 00 00 80 3f 00 00 80 3f 00 00 80 3f 00 00 80 3f
       1.0 1.0 1.0 1.0
000280 00 00 80 3f 00 00 80 3f 00 00 80 3f 00 00 80 3f
       1.0 1.0 1.0 1.0
000290 00 00 80 3f 00 00 80 3f 00 00 80 3f 00 00 80 3f
       1.0 1.0 1.0 1.0
0002a0 00 00 80 3f 00 00 80 3f 00 00 80 3f 00 00 80 3f
       1.0 1.0 1.0 1.0
0002b0 00 00 80 3f 00 00 80 3f 00 00 80 3f 00 00 80 3f
       1.0 1.0 1.0 1.0
0002c0 00 00 80 3f 00 00 80 3f 00 00 80 3f 00 00 80 3f
       1.0 1.0 1.0 1.0
0002d0 00 00 80 3f 00 00 80 3f 00 00 80 3f 00 00 80 3f
       1.0 1.0 1.0 1.0
0002e0 00 00 80 3f 00 00 80 3f 00 00 80 3f 00 00 80 3f
       1.0 1.0 1.0 1.0
0002f0 00 00 80 3f 00 00 80 3f 00 00 80 3f 00 00 80 3f
       1.0 1.0 1.0 1.0
000300 00 00 80 3f 00 00 80 3f 00 00 80 3f 00 00 80 3f
       1.0 1.0 1.0 1.0
000310 00 00 80 3f 00 00 80 3f 00 00 80 3f 00 00 80 3f
       1.0 1.0 1.0 1.0
000320 b4 84 24 bc 5b e1 30 be 99 48 25 be 86 0d 9a bb
       -0.0100414045 -0.17273466 -0.16140975 -0.004701319
000330 ac fb 4a bd 5f 36 89 3e 29 8f 84 3e c1 40 ab bc
       -0.04955642 0.26799294 0.25890473 -0.0209049
000340 2d 56 98 3d 59 af 99 bd a0 fc af 3d fa f7 c4 3e
       0.07438312 -0.07504148 0.08593106 0.3847044
000350 67 74 0f be 4c 62 6c 3e a9 87 a9 bc 44 63 2a be
       -0.14009248 0.23084372 -0.02069457 -0.1663943
000360 c7 fb b4 bb 71 37 0d 3d d6 29 13 bf a9 82 8f bd
       -0.0055231783 0.0344767 -0.5748571 -0.07007343
000370 a5 0d 50 3e 77 60 3b 3c 7b 34 a7 be a4 fb aa bd
       0.20317705 0.011436573 -0.32657227 -0.08348778
000380 9f 10 15 3d b9 3c 7a 3d 80 13 d0 3d 61 c5 83 bd
       0.036392804 0.061093066 0.10159969 -0.064341314
000390 4b 6b 44 be 59 fa 3f be f4 12 72 be 07 f8 f3 bd
       -0.19181554 -0.18747844 -0.23640043 -0.11912542
0003a0 93 d1 a3 3d 76 6d 58 bd 27 88 1d 3e 9a 6e 2e be
       0.079989575 -0.052838765 0.15383969 -0.17034379
0003b0 17 1a cb 3d f1 25 3b be c7 9a 49 3e e4 71 fc bd
       0.099170856 -0.18276192 0.19687949 -0.123264104
0003c0 7f c7 d9 bd e1 dc 63 be b0 72 4a 3c bb 44 2f bc
       -0.10633754 -0.22252227 0.012356445 -0.010697539
0003d0 16 ad 42 be c1 1b 3b 3e 25 22 0a 3e 2c a7 b8 3d
       -0.1901134 0.18272306 0.13489588 0.090162605
0003e0 ed 6b b5 3d 58 87 12 be bc 1c 48 3d cf cf cf bd
       0.08858476 -0.14309442 0.04885553 -0.10147058
0003f0 66 66 ed bc 73 b5 80 3e 4e 82 39 be 3a cc 6b be
       -0.028979491 0.25138435 -0.18116114 -0.23027125

while/MatMul_14 i1 [400, 100] scale=0.0016516336 zero_point=0
000000 0a 1f d7 f5 ef 04 f3 e5 03 f5 f2 09 f2 ee 18 f7
       0.016516337 0.051200643 -0.06771698 -0.01816797 -0.028077772 0.0066065346 -0.021471238 -0.04459411 0.004954901 -0.01816797 -0.023122871 0.014864703 -0.023122871 -0.029729405 0.03963921 -0.014864703
000010 08 d9 21 10 f0 0a 26 02 16 0c ef 29 eb 29 bc e4
       0.013213069 -0.06441371 0.05450391 0.026426138 -0.026426138 0.016516337 0.06276208 0.0033032673 0.03633594 0.019819604 -0.028077772 0.06771698 -0.034684308 0.06771698 -0.11231109 -0.046245743
000020 ed 05 e9 1d e8 32 ea f5 00 0b 07 ee d2 dc 05 ee
       -0.03138104 0.008258169 -0.037987575 0.047897376 -0.03963921 0.082581684 -0.03633594 -0.01816797 0.0 0.01816797 0.011561436 -0.029729405 -0.07597515 -0.05945881 0.008258169 -0.029729405
000030 fc dc e1 06 a7 05 0c f3 00 0b 0d 20 23 f1 12 03
       -0.0066065346 -0.05945881 -0.051200643 0.009909802 -0.1469954 0.008258169 0.019819604 -0.021471238 0.0 0.01816797 0.021471238 0.052852277 0.057807177 -0.024774505 0.029729405 0.004954901
000040 f5 f6 ed f9 e4 e8 fc 08 c5 fd e8 2f f1 df 2f f0
       -0.01816797 -0.016516337 -0.03138104 -0.011561436 -0.046245743 -0.03963921 -0.0066065346 0.013213069 -0.09744638 -0.004954901 -0.03963921 0.07762678 -0.024774505 -0.05450391 0.07762678 -0.026426138
000050 32 d6 4c e1 11 ec f5 df 18 10 06 d6 ef 15 1f e0
       0.082581684 -0.069368616 0.12552416 -0.051200643 0.028077772 -0.033032674 -0.01816797 -0.05450391 0.03963921 0.026426138 0.009909802 -0.069368616 -0.028077772 0.034684308 0.051200643 -0.052852277
000060 3d cf 38 16 d5 19 df de 26 01 28 0c f9 33 fa 14
       0.10074965 -0.08093005 0.092491485 0.03633594 -0.071020246 0.041290842 -0.05450391 -0.056155544 0.06276208 0.0016516336 0.06606535 0.019819604 -0.011561436 0.084233314 -0.009909802 0.033032674
000070 30 b9 dc fb fb 06 e1 e9 0e 17 df f5 1e ed 34 00
       0.07927842 -0.11726599 -0.05945881 -0.008258169 -0.008258169 0.009909802 -0.051200643 -0.037987575 0.023122871 0.037987575 -0.05450391 -0.01816797 0.04954901 -0.03138104 0.08588495 0.0
000080 2a 0a f4 15 f0 0e f8 2c 15 01 bc 36 02 f6 d7 12
       0.069368616 0.016516337 -0.019819604 0.034684308 -0.026426138 0.023122871 -0.013213069 0.07267188 0.034684308 0.0016516336 -0.11231109 0.08918822 0.0033032673 -0.016516337 -0.06771698 0.029729405
000090 1b f8 03 05 21 1f 06 d3 d8 da 13 db ef f4 f1 0d
       0.04459411 -0.013213069 0.004954901 0.008258169 0.05450391 0.051200643 0.009909802 -0.07432351 -0.06606535 -0.06276208 0.03138104 -0.061110444 -0.028077772 -0.019819604 -0.024774505 0.021471238
0000a0 e5 e7 26 d8 eb 23 25 11 d7 08 f6 02 fc 10 05 1d
       -0.04459411 -0.041290842 0.06276208 -0.06606535 -0.034684308 0.057807177 0.061110444 0.028077772 -0.06771698 0.013213069 -0.016516337 0.0033032673 -0.0066065346 0.026426138 0.008258169 0.047897376
0000b0 08 ea 15 34 20 f0 29 db 02 f2 fe ea 02 18 06 2e
       0.013213069 -0.03633594 0.034684308 0.08588495 0.052852277 -0.026426138 0.06771698 -0.061110444 0.0033032673 -0.023122871 -0.0033032673 -0.03633594 0.0033032673 0.03963921 0.009909802 0.07597515
0000c0 27 ff fd f5 16 0e 23 22 00 10 f4 2c ed 26 02 43
       0.06441371 -0.0016516336 -0.004954901 -0.01816797 0.03633594 0.023122871 0.057807177 0.056155544 0.0 0.026426138 -0.019819604 0.07267188 -0.03138104 0.06276208 0.0033032673 0.11065946
0000d0 fa 03 f3 15 c9 cf ea 41 31 f7 e7 21 07 ed fa 39
       -0.009909802 0.004954901 -0.021471238 0.034684308 -0.09083985 -0.08093005 -0.03633594 0.10735619 0.08093005 -0.014864703 -0.041290842 0.05450391 0.011561436 -0.03138104 -0.009909802 0.094143115
0000e0 f8 2a 11 04 22 f4 1e 08 fb f7 2a 01 07 44 05 12
       -0.013213069 0.069368616 0.028077772 0.0066065346 0.056155544 -0.019819604 0.04954901 0.013213069 -0.008258169 -0.014864703 0.069368616 0.0016516336 0.011561436 0.11231109 0.008258169 0.029729405
0000f0 00 11 db fa 08 2d 1e e1 d6 ec 10 e4 07 02 fc 2b
       0.0 0.028077772 -0.061110444 -0.009909802 0.013213069 0.07432351 0.04954901 -0.051200643 -0.069368616 -0.033032674 0.026426138 -0.046245743 0.011561436 0.0033032673 -0.0066065346 0.071020246

while/MatMul2 i1 [400, 50] scale=0.01107143 zero_point=0
000000 0b 2e 01 f5 18 dc 2b f9 0a 18 0a 0e f5 0d 25 1e
       0.12178572 0.50928575 0.01107143 -0.12178572 0.26571432 -0.39857146 0.47607148 -0.07750001 0.110714294 0.26571432 0.110714294 0.15500002 -0.12178572 0.14392859 0.4096429 0.3321429
000010 20 02 fe f5 f1 e7 f2 e0 11 dc ee 10 d3 05 f0 f4
       0.35428575 0.02214286 -0.02214286 -0.12178572 -0.16607144 -0.27678573 -0.15500002 -0.35428575 0.1882143 -0.39857146 -0.19928573 0.17714287 -0.49821433 0.055357147 -0.17714287 -0.13285716
000020 d3 01 04 0c e4 09 05 23 d8 df d6 ef fa f7 f4 29
       -0.49821433 0.01107143 0.04428572 0.13285716 -0.31000003 0.099642865 0.055357147 0.38750005 -0.44285718 -0.3653572 -0.46500003 -0.1882143 -0.06642858 -0.099642865 -0.13285716 0.45392862
000030 e2 ee 26 f2 29 01 f2 e6 25 08 1f fa d5 21 fd 15
       -0.3321429 -0.19928573 0.42071432 -0.15500002 0.45392862 0.01107143 -0.15500002 -0.28785717 0.4096429 0.08857144 0.3432143 -0.06642858 -0.47607148 0.3653572 -0.03321429 0.23250002
000040 13 0a 1d fe cf c9 e2 c4 05 01 08 d9 d9 11 fd 1d
       0.21035716 0.110714294 0.32107145 -0.02214286 -0.5425001 -0.6089286 -0.3321429 -0.6642858 0.055357147 0.01107143 0.08857144 -0.43178576 -0.43178576 0.1882143 -0.03321429 0.32107145
000050 07 fd e1 cd 23 f2 0f fa 33 f3 e3 05 d2 13 f1 ca
       0.07750001 -0.03321429 -0.3432143 -0.5646429 0.38750005 -0.15500002 0.16607144 -0.06642858 0.5646429 -0.14392859 -0.32107145 0.055357147 -0.50928575 0.21035716 -0.16607144 -0.5978572
000060 09 12 eb e6 1a e3 15 49 c4 ff 0c 33 3c 08 f9 50
       0.099642865 0.19928573 -0.23250002 -0.28785717 0.28785717 -0.32107145 0.23250002 0.80821437 -0.6642858 -0.01107143 0.13285716 0.5646429 0.6642858 0.08857144 -0.07750001 0.88571435
000070 18 05 ed d9 2e 0d f7 a2 df ef cd dd e7 da 0c 09
       0.26571432 0.055357147 -0.21035716 -0.43178576 0.50928575 0.14392859 -0.099642865 -1.0407144 -0.3653572 -0.1882143 -0.5646429 -0.38750005 -0.27678573 -0.42071432 0.13285716 0.099642865
000080 01 1d db f5 dc d2 25 e4 e0 e3 3c 05 ea ee fb 37
       0.01107143 0.32107145 -0.4096429 -0.12178572 -0.39857146 -0.50928575 0.4096429 -0.31000003 -0.35428575 -0.32107145 0.6642858 0.055357147 -0.24357145 -0.19928573 -0.055357147 0.6089286
000090 0c e3 46 f9 d4 f1 df e5 06 ec 15 d0 29 e9 10 0c
       0.13285716 -0.32107145 0.7750001 -0.07750001 -0.4871429 -0.16607144 -0.3653572 -0.2989286 0.06642858 -0.22142859 0.23250002 -0.53142864 0.45392862 -0.25464287 0.17714287 0.13285716
0000a0 31 15 fe 04 2d 0c 2d 0d fa c5 d7 0b ef f1 23 e1
       0.5425001 0.23250002 -0.02214286 0.04428572 0.49821433 0.13285716 0.49821433 0.14392859 -0.06642858 -0.65321434 -0.45392862 0.12178572 -0.1882143 -0.16607144 0.38750005 -0.3432143
0000b0 d5 35 cd ff 1f eb d5 0d 14 2b ea e2 f1 26 ca f3
       -0.47607148 0.5867858 -0.5646429 -0.01107143 0.3432143 -0.23250002 -0.47607148 0.14392859 0.22142859 0.47607148 -0.24357145 -0.3321429 -0.16607144 0.42071432 -0.5978572 -0.14392859
0000c0 cc 17 f3 f5 f5 37 d8 db f7 f6 ef f4 21 e1 20 ec
       -0.57571435 0.25464287 -0.14392859 -0.12178572 -0.12178572 0.6089286 -0.44285718 -0.4096429 -0.099642865 -0.110714294 -0.1882143 -0.13285716 0.3653572 -0.3432143 0.35428575 -0.22142859
0000d0 19 1b 32 07 e6 42 1d 05 39 f8 14 d1 ce 03 ee f6
       0.27678573 0.2989286 0.55357146 0.07750001 -0.28785717 0.7307144 0.32107145 0.055357147 0.6310715 -0.08857144 0.22142859 -0.5203572 -0.55357146 0.03321429 -0.19928573 -0.110714294
0000e0 24 d3 e8 13 bc fd 05 c0 e4 ff 1a f5 ee fa f9 2c
       0.39857146 -0.49821433 -0.26571432 0.21035716 -0.7528572 -0.03321429 0.055357147 -0.7085715 -0.31000003 -0.01107143 0.28785717 -0.12178572 -0.19928573 -0.06642858 -0.07750001 0.4871429
0000f0 e3 ea dd f8 e8 ee eb 25 d4 e0 01 ec f3 10 e3 02
       -0.32107145 -0.24357145 -0.38750005 -0.08857144 -0.26571432 -0.19928573 -0.23250002 0.4096429 -0.4871429 -0.35428575 0.01107143 -0.22142859 -0.14392859 0.17714287 -0.32107145 0.02214286
