GRU-main/model/keypoint_classifier/lstm_right_11.tflite (tflite, 102304 bytes, 10 tensors)

sequential_3/lstm/Read_2/ReadVariableOp f4 [200]
00000000: a703 3e3e 45b3 a63e c59d 873e beff 7f3e
00000010: a1bd 463e 1ab2 b83e c0d3 b83e c1fb b33e
00000020: 6aef a23e bd8b b53e 6caa 983e bc97 6c3e
00000030: 53e9 903e d44e b53e d116 6a3e 8580 993e
00000040: 22e7 2f3e 2a8d b03e cb6c 9b3e e2b6 793e
00000050: 7033 ba3e e79c b23e 0871 ab3e 0c37 7c3e
00000060: 41d2 733e fb87 bc3e 1c4a 9a3e 0647 5a3e
00000070: d5ce b23e 67e3 923e 2cbb 833e 23a0 9f3e
00000080: 3af2 983e 006c 903e a73d 3d3e e398 873e
00000090: 526c 883e b494 753e 6ce5 8b3e 1c4e 903e
000000a0: 5bf4 b53e e4f3 963e d864 ad3e b440 2c3e
000000b0: cb7f c03e cc5e 963e 26e2 9c3e 0dc9 ba3e
000000c0: 2e2d 933e 9473 ab3e 0000 803f 0000 803f
000000d0: 0000 803f 0000 803f 0000 803f 0000 803f
000000e0: 0000 803f 0000 803f 0000 803f 0000 803f
000000f0: 0000 803f 0000 803f 0000 803f 0000 803f
00000100: 0000 803f 0000 803f 0000 803f 0000 803f
00000110: 0000 803f 0000 803f 0000 803f 0000 803f
00000120: 0000 803f 0000 803f 0000 803f 0000 803f
00000130: 0000 803f 0000 803f 0000 803f 0000 803f
00000140: 0000 803f 0000 803f 0000 803f 0000 803f
00000150: 0000 803f 0000 803f 0000 803f 0000 803f
00000160: 0000 803f 0000 803f 0000 803f 0000 803f
00000170: 0000 803f 0000 803f 0000 803f 0000 803f
00000180: 0000 803f 0000 803f 0000 803f 0000 803f
00000190: 05bf 2abe aebc debd c533 2a3c df5d 273d
000001a0: 4007 153d 2998 92bd d9c9 7cbc 155f ef3d
000001b0: 46da 793d e908 89bd 58ff b0bd cd2c 73bd
000001c0: e7fa 413d 5b4e 643d 0ff2 1fbe 4e13 b1bc
000001d0: c07c a73c 7389 d4bd d99c 42bd 073d c4bd
000001e0: 8a29 3b3e d718 44bd d676 a33e f496 fc3c
000001f0: d82b a1bd f15a bbbd 36ae e33d b892 0a3e
00000200: 7d66 1ebd fdc9 253d 824a 87bd 66a8 113e
00000210: aa84 cfbd 52f1 c6ba 30dc a0bd be4b d93d
00000220: 4a6f 06bb 28a0 223d 4179 08be b86a 09bd
00000230: 92f7 49be 793e abbd 95b3 293d 10d8 0dbe
00000240: d0e1 a8bc a9cf 063d 0bf9 bbbd 9710 d1bd
00000250: 88a3 a1bd 48aa 0ebe dfb2 453e 41ba a93e
00000260: 268c 8b3e 1fe9 903e f6f5 4c3e 36a0 b93e
00000270: 0a7b c03e ac60 ac3e 9122 a63e 49d1 bc3e
00000280: e324 913e d82c 703e ba76 993e dc2e b83e
00000290: cf8c 693e df47 9f3e fb26 473e 1e58 b83e
000002a0: 6c04 963e 0ee4 863e 256e c23e 5e2f b73e
000002b0: eeea ad3e b088 873e 728f 803e 788e be3e
000002c0: 4feb 8f3e b4c4 793e 6d08 b03e 140b 993e
000002d0: 371b 633e 4ca1 9f3e 1ea2 9e3e 3a1c 8e3e
000002e0: 4850 643e 2db6 753e a465 8f3e c949 763e
000002f0: 1286 913e 7cdb 9b3e 228c b13e 6464 a93e
00000300: 1f81 af3e c182 3a3e cdd9 b43e 2f1a 933e
00000310: f1c6 a33e 7f1f ac3e 54b1 973e aeaf ac3e
0.18556081 0.32558647 0.26487556 0.24999902 0.19408275 0.3607338 0.36099052 0.3515301
0.31823283 0.35458174 0.29817522 0.23104757 0.28303012 0.35411704 0.22860266 0.29980865
0.17178014 0.344827 0.3035644 0.2438617 0.3636737 0.34885332 0.33484674 0.24630374
0.23810674 0.36822495 0.30134666 0.21316156 0.34923425 0.2868912 0.25728738 0.31176862
0.29872304 0.28207397 0.1848055 0.2648383 0.26645142 0.23982507 0.27323472 0.28184593
0.3553799 0.2948295 0.33866 0.16821557 0.37597498 0.293692 0.30641288 0.36481515
0.28745407 0.33486617 1.0 1.0 1.0 1.0 1.0 1.0
1.0 1.0 1.0 1.0 1.0 1.0 1.0 1.0
1.0 1.0 1.0 1.0 1.0 1.0 1.0 1.0
1.0 1.0 1.0 1.0 1.0 1.0 1.0 1.0
1.0 1.0 1.0 1.0 1.0 1.0 1.0 1.0
1.0 1.0 1.0 1.0 1.0 1.0 1.0 1.0
1.0 1.0 1.0 1.0 -0.1667443 -0.108758315 0.010388319 0.040861007
0.036383867 -0.071579285 -0.015428984 0.11688057 0.060999177 -0.066911526 -0.08642453 -0.059368897
0.04735842 0.055738788 -0.15619682 -0.02161565 0.020445228 -0.10377779 -0.047512863 -0.095819525
0.18277565 -0.04787525 0.31926602 0.030833699 -0.07869691 -0.09148205 0.111172125 0.13532531
-0.03867196 0.040475834 -0.06606008 0.14224395 -0.101327255 -0.001517812 -0.078544974 0.1061015
-0.002051311 0.03970352 -0.13327505 -0.03354904 -0.19723347 -0.08361525 0.04143103 -0.13851953
-0.020615488 0.032912884 -0.091783606 -0.102082424 -0.07892519 -0.13932145 0.19306515 0.33149913
0.27255362 0.28302857 0.20015702 0.36255044 0.3759387 0.33667505 0.32448247 0.36878422
0.28348455 0.23454607 0.29973394 0.3597325 0.2280762 0.3110952 0.19448464 0.36004728
0.2930025 0.26345867 0.3797466 0.35778326 0.339683 0.26471472 0.2510944 0.3721807
0.28109214 0.24391443 0.34381428 0.29891264 0.2217835 0.31177747 0.3098306 0.2775591
0.2229625 0.23995276 0.28007233 0.24051584 0.284226 0.3044089 0.34677225 0.33084404
0.342782 0.18213941 0.3532242 0.28730914 0.31987718 0.3361778 0.29627478 0.33727783

sequential_3/lstm_1/Read_2/ReadVariableOp f4 [400]
00000000: 88ac b93e 01b7 853e b6e1 163e c786 b13e
00000010: 19fa a43e 9c61 ef3d b97d 303e d0a3 1f3e
00000020: b453 873e 1337 4e3e 7e64 a13e 38c7 0b3e
00000030: b94d b43e 6b9d 9c3e 6516 bf3d 9f5c a63e
00000040: acd8 4a3e 6395 833e 5690 8a3e 45da 8f3e
00000050: 78e4 cf3d 41c3 833e 2aa6 9f3e 1196 623e
00000060: 7a2d 8f3e 2341 783e 191a 383e fa96 a13e
00000070: 2191 af3e 76c4 7f3e d92f 7a3e 396f 103e
00000080: 6b98 903e d290 c23d 4e6f ae3e 3b8c ed3d
00000090: 0c54 cf3d d938 773e 4109 113e d798 603e
000000a0: 46a3 7a3e 8fcb 3e3e a1b8 843e ab74 843e
000000b0: 7f4b 523e 188f 8e3e 0542 1d3e 6827 8e3d
000000c0: e72a 963e f5ee 953e 1f58 e43d 1eef 433d
000000d0: c456 4d3e ef90 4c3e 9a6f 653e fc2d 303e
000000e0: b335 943e 6e7b 9a3e 41d0 ad3e ae25 8b3e
000000f0: bfd4 633e c2ea 263e b420 4c3e 7020 9b3e
00000100: 4dcc 5e3e 46e4 723e 8fc4 753e 87b5 673e
00000110: 1b4a a93e ab5d 8a3e e27b c63e a806 253e
00000120: 89a4 b03e 3fbe b93e c56a 7d3e cb4d 053e
00000130: b57c 403e c7fb 743e dca8 923e 5cac 5b3e
00000140: b0d5 4a3e cba1 ac3e 28e1 9f3e c21d c53e
00000150: a87f 483e fe4d ed3d 748a a73e 87cf 8e3e
00000160: c934 d23d dea9 403e 6c00 953e 6c8c ee3d
00000170: 3302 973e 88eb 913e 6292 513e 71b9 b83e
00000180: ce1b 963e 9934 963e c06a 883e 2a9c 4a3e
00000190: 0000 803f 0000 803f 0000 803f 0000 803f
000001a0: 0000 803f 0000 803f 0000 803f 0000 803f
000001b0: 0000 803f 0000 803f 0000 803f 0000 803f
000001c0: 0000 803f 0000 803f 0000 803f 0000 803f
000001d0: 0000 803f 0000 803f 0000 803f 0000 803f
000001e0: 0000 803f 0000 803f 0000 803f 0000 803f
000001f0: 0000 803f 0000 803f 0000 803f 0000 803f
00000200: 0000 803f 0000 803f 0000 803f 0000 803f
00000210: 0000 803f 0000 803f 0000 803f 0000 803f
00000220: 0000 803f 0000 803f 0000 803f 0000 803f
00000230: 0000 803f 0000 803f 0000 803f 0000 803f
00000240: 0000 803f 0000 803f 0000 803f 0000 803f
00000250: 0000 803f 0000 803f 0000 803f 0000 803f
00000260: 0000 803f 0000 803f 0000 803f 0000 803f
00000270: 0000 803f 0000 803f 0000 803f 0000 803f
00000280: 0000 803f 0000 803f 0000 803f 0000 803f
00000290: 0000 803f 0000 803f 0000 803f 0000 803f
000002a0: 0000 803f 0000 803f 0000 803f 0000 803f
000002b0: 0000 803f 0000 803f 0000 803f 0000 803f
000002c0: 0000 803f 0000 803f 0000 803f 0000 803f
000002d0: 0000 803f 0000 803f 0000 803f 0000 803f
000002e0: 0000 803f 0000 803f 0000 803f 0000 803f
000002f0: 0000 803f 0000 803f 0000 803f 0000 803f
00000300: 0000 803f 0000 803f 0000 803f 0000 803f
00000310: 0000 803f 0000 803f 0000 803f 0000 803f
00000320: b49f cb3d 53a7 d5bd 5c1b 58be f2e2 0fbd
00000330: 8f52 023d d6e0 303e 58e5 a93d 2287 c3bd
00000340: 28d5 edbb a574 85bd 518d 833a d2ef 3d3d
00000350: 0b15 ad3d 4217 6b3d 5174 12bd 26a7 2a3d
00000360: 18cc 243e 3434 38bc f0e6 53be e08e 11be
00000370: 2532 3fbd 5514 89bd 1aff 16be 96d1 05be
00000380: ad02 05be 36ce c0bc e608 1bbd 19fb 5b3d
00000390: 043c b1bd d60a 43be 017c 3a3d ae06 5fbd
000003a0: 7c42 39bc d63e 6bbd 84ac d6bd 480a 343d
000003b0: 032c abbd 070e 9cbd caf0 ac3d b132 1ebe
000003c0: 8285 7e3d a8e2 c43d 6965 033e 5755 56bc
000003d0: a08f 03bd db8b 5d3b f159 1ebe 923b 23bd
000003e0: e15c 933c ad0b aebc 25cb 17bd 2bbc 0cbe
000003f0: 588e 223d fb6c c4bd 4e27 aebd c59b c13d
0.36264443 0.26116183 0.1473454 0.3467314 0.3222206 0.116885394 0.1723546 0.15589833
0.26431048 0.20138197 0.31521982 0.13650215 0.35215548 0.3058885 0.09330443 0.3249254
0.19809216 0.2569991 0.27063245 0.28096214 0.10150999 0.25734904 0.3118146 0.22127558
0.27964383 0.24243598 0.17978705 0.31560498 0.34290412 0.24977288 0.24432315 0.14104928
0.28241286 0.095002785 0.34069294 0.115990125 0.101234525 0.2414278 0.14163686 0.21933304
0.24476346 0.18632339 0.2592211 0.2587026 0.20536612 0.27843547 0.15357216 0.0694111
0.29329607 0.29283872 0.1114962 0.04783546 0.2005263 0.19977163 0.22405854 0.17205042
0.2894722 0.30172294 0.33947948 0.27177185 0.22249125 0.1630049 0.1993435 0.30298185
0.21757622 0.23719892 0.24000762 0.22627841 0.3306435 0.27024588 0.3876639 0.1611582
0.3450053 0.3627796 0.2474776 0.13017957 0.18797572 0.2392417 0.28644454 0.21452469
0.19808078 0.33717188 0.31226468 0.38499266 0.19579947 0.115871415 0.3272282 0.27892706
0.10263974 0.18814799 0.29101884 0.11647877 0.29493865 0.2850001 0.20465997 0.3607898
0.29318088 0.29337004 0.26643944 0.19786134 1.0 1.0 1.0 1.0
1.0 1.0 1.0 1.0 1.0 1.0 1.0 1.0
1.0 1.0 1.0 1.0 1.0 1.0 1.0 1.0
1.0 1.0 1.0 1.0 1.0 1.0 1.0 1.0
1.0 1.0 1.0 1.0 1.0 1.0 1.0 1.0
1.0 1.0 1.0 1.0 1.0 1.0 1.0 1.0
1.0 1.0 1.0 1.0 1.0 1.0 1.0 1.0
1.0 1.0 1.0 1.0 1.0 1.0 1.0 1.0
1.0 1.0 1.0 1.0 1.0 1.0 1.0 1.0
1.0 1.0 1.0 1.0 1.0 1.0 1.0 1.0
1.0 1.0 1.0 1.0 1.0 1.0 1.0 1.0
1.0 1.0 1.0 1.0 1.0 1.0 1.0 1.0
1.0 1.0 1.0 1.0 1.0 1.0 1.0 1.0
0.0994257 -0.10432305 -0.21104187 -0.03512854 0.031817015 0.17273268 0.08295697 -0.09547259
-0.007258076 -0.06516389 0.0010036622 0.04637129 0.08451279 0.057395227 -0.03575546 0.04166331
0.1609348 -0.011242915 -0.20693564 -0.14214659 -0.04667868 -0.06693331 -0.14745751 -0.13068232
-0.12989302 -0.023535829 -0.037850283 0.053706262 -0.08654025 -0.19047102 0.045528416 -0.05444973
-0.011307355 -0.057432972 -0.104821235 0.043955117 -0.08358004 -0.07619863 0.08444364 -0.15449025
0.06213904 0.09613544 0.12831654 -0.01308187 -0.032119393 0.0033805284 -0.15463997 -0.039851733
0.017988624 -0.021245802 -0.037058968 -0.13743655 0.03968653 -0.09591099 -0.085035905 0.09453539

sequential_3/dense_3/BiasAdd/ReadVariableOp f4 [25]
00000000: d548 0abe 803a cbbd 6b79 b4bd a24c cd3d
00000010: 05ff 23be 49de ab3c 305d 1ebd 9af9 35bd
00000020: 23d3 a33d 64d6 de3c 12db 003d 95cd ec3d
00000030: 14a4 4fbc a01c 17bd 478b febd eb28 ef3d
00000040: 584c 9d3d 1e66 56bd 3ed9 b1bc 5d6d 453e
00000050: 43fe 723c 7340 d6bc eebc 4dbd 6ef4 b4bc
00000060: 75ea 843c
-0.13504346 -0.09923267 -0.08812221 0.10024382 -0.16015251 0.020980017 -0.03866309 -0.04442749
0.079992555 0.027201839 0.03145892 0.11562649 -0.012673397 -0.036892533 -0.12428909 0.11677726
0.07680577 -0.05234348 -0.021710034 0.1928 0.0148311285 -0.026153779 -0.050229006 -0.02208921
0.01622508

sequential_3/dense_3/MatMul i1 [25, 100] scale=0.0050901673 zero_point=0
00000000: e13f 0b18 1fd2 a940 4237 e0ea d70f 00e8
00000010: e431 def6 2b33 ce4b d0f1 57e0 5306 2843
00000020: 342b 2cef 4416 f5f2 2efe b146 24f6 2dec
00000030: 3a24 3a2b 0743 16ef 13ab 2af6 d527 2c17
00000040: 25d5 eeff fdf5 1dd8 e1b3 34e3 cfaa 3d12
00000050: cfdd 422a dac0 e7b3 d414 17d7 f4de efb5
00000060: ba15 4411 0507 23ee c725 34eb c8e9 26e0
00000070: 08d2 cc28 2ffb 4119 3415 2032 2afc 2e46
00000080: c1f7 edbd d120 bcdb d3d6 19e0 b1d1 dcc8
00000090: 431a d600 d7e7 1df6 1d25 d3e9 1a09 e825
000000a0: 12e6 cdd2 ef13 5dfe 2417 16eb 665e e8e3
000000b0: 26f2 f02e e0f2 d6f7 bbcd 0944 ddc2 21d0
000000c0: 1ffc 09f2 3703 b422 fbf0 0ee3 00bf f740
000000d0: bc36 ef19 bd2d 3546 d625 2325 4c3c 2ec0
000000e0: e12e c535 ac3f c21e 0ae5 2453 f047 19f3
000000f0: dafa f02e e04a f9c9 e2d4 cc20 22d2 38e7
-0.15779519 0.32068053 0.05599184 0.12216401 0.15779519 -0.2341477 -0.44284454 0.3257707
0.33595103 0.2799592 -0.16288535 -0.11198368 -0.20869686 0.07635251 0.0 -0.12216401
-0.14252469 0.2494182 -0.17306569 -0.050901674 0.2188772 0.25959852 -0.25450838 0.38176253
-0.24432802 -0.07635251 0.44284454 -0.16288535 0.4224839 0.030541003 0.2036067 0.3410412
0.2646887 0.2188772 0.22396736 -0.086532846 0.34613138 0.11198368 -0.05599184 -0.071262345
0.2341477 -0.010180335 -0.4021232 0.3563117 0.18324602 -0.050901674 0.22905752 -0.10180335
0.2952297 0.18324602 0.2952297 0.2188772 0.035631172 0.3410412 0.11198368 -0.086532846
0.09671318 -0.43266422 0.21378702 -0.050901674 -0.2188772 0.19851652 0.22396736 0.11707385
0.1883362 -0.2188772 -0.09162301 -0.0050901673 -0.015270501 -0.05599184 0.14761485 -0.2036067
-0.15779519 -0.3919429 0.2646887 -0.14761485 -0.2494182 -0.4377544 0.3105002 0.09162301
-0.2494182 -0.17815585 0.33595103 0.21378702 -0.19342636 -0.3257707 -0.12725419 -0.3919429
-0.22396736 0.10180335 0.11707385 -0.20869686 -0.061082006 -0.17306569 -0.086532846 -0.38176253
-0.3563117 0.10689351 0.34613138 0.086532846 0.025450837 0.035631172 0.17815585 -0.09162301
-0.29013953 0.1883362 0.2646887 -0.10689351 -0.28504938 -0.11707385 0.19342636 -0.16288535
0.04072134 -0.2341477 -0.2646887 0.2036067 0.23923786 -0.025450837 0.33086088 0.12725419
0.2646887 0.10689351 0.16288535 0.25450838 0.21378702 -0.02036067 0.2341477 0.3563117
-0.32068053 -0.045811504 -0.09671318 -0.3410412 -0.23923786 0.16288535 -0.34613138 -0.1883362
-0.22905752 -0.21378702 0.12725419 -0.16288535 -0.4021232 -0.23923786 -0.18324602 -0.28504938
0.3410412 0.13234435 -0.21378702 0.0 -0.20869686 -0.12725419 0.14761485 -0.050901674
0.14761485 0.1883362 -0.22905752 -0.11707385 0.13234435 0.045811504 -0.12216401 0.1883362
0.09162301 -0.13234435 -0.25959852 -0.2341477 -0.086532846 0.09671318 0.47338554 -0.010180335
0.18324602 0.11707385 0.11198368 -0.10689351 0.51919705 0.47847572 -0.12216401 -0.14761485
0.19342636 -0.071262345 -0.08144268 0.2341477 -0.16288535 -0.071262345 -0.21378702 -0.045811504
-0.35122153 -0.25959852 0.045811504 0.34613138 -0.17815585 -0.31559038 0.16797552 -0.24432802
0.15779519 -0.02036067 0.045811504 -0.071262345 0.2799592 0.015270501 -0.3868527 0.17306569
-0.025450837 -0.08144268 0.071262345 -0.14761485 0.0 -0.33086088 -0.045811504 0.3257707
-0.34613138 0.27486902 -0.086532846 0.12725419 -0.3410412 0.22905752 0.26977888 0.3563117
-0.21378702 0.1883362 0.17815585 0.1883362 0.3868527 0.30541003 0.2341477 -0.3257707
-0.15779519 0.2341477 -0.30031988 0.26977888 -0.42757404 0.32068053 -0.31559038 0.15270501
0.050901674 -0.13743451 0.18324602 0.4224839 -0.08144268 0.3614019 0.12725419 -0.066172175
-0.19342636 -0.030541003 -0.08144268 0.2341477 -0.16288535 0.3766724 -0.035631172 -0.2799592
-0.15270501 -0.22396736 -0.2646887 0.16288535 0.17306569 -0.2341477 0.28504938 -0.12725419

sequential_3/lstm/Read_2/ReadVariableOp1 f4 [200]
00000000: a703 3e3e 45b3 a63e c59d 873e beff 7f3e
00000010: a1bd 463e 1ab2 b83e c0d3 b83e c1fb b33e
00000020: 6aef a23e bd8b b53e 6caa 983e bc97 6c3e
00000030: 53e9 903e d44e b53e d116 6a3e 8580 993e
00000040: 22e7 2f3e 2a8d b03e cb6c 9b3e e2b6 793e
00000050: 7033 ba3e e79c b23e 0871 ab3e 0c37 7c3e
00000060: 41d2 733e fb87 bc3e 1c4a 9a3e 0647 5a3e
00000070: d5ce b23e 67e3 923e 2cbb 833e 23a0 9f3e
00000080: 3af2 983e 006c 903e a73d 3d3e e398 873e
00000090: 526c 883e b494 753e 6ce5 8b3e 1c4e 903e
000000a0: 5bf4 b53e e4f3 963e d864 ad3e b440 2c3e
000000b0: cb7f c03e cc5e 963e 26e2 9c3e 0dc9 ba3e
000000c0: 2e2d 933e 9473 ab3e 0000 803f 0000 803f
000000d0: 0000 803f 0000 803f 0000 803f 0000 803f
000000e0: 0000 803f 0000 803f 0000 803f 0000 803f
000000f0: 0000 803f 0000 803f 0000 803f 0000 803f
00000100: 0000 803f 0000 803f 0000 803f 0000 803f
00000110: 0000 803f 0000 803f 0000 803f 0000 803f
00000120: 0000 803f 0000 803f 0000 803f 0000 803f
00000130: 0000 803f 0000 803f 0000 803f 0000 803f
00000140: 0000 803f 0000 803f 0000 803f 0000 803f
00000150: 0000 803f 0000 803f 0000 803f 0000 803f
00000160: 0000 803f 0000 803f 0000 803f 0000 803f
00000170: 0000 803f 0000 803f 0000 803f 0000 803f
00000180: 0000 803f 0000 803f 0000 803f 0000 803f
00000190: 05bf 2abe aebc debd c533 2a3c df5d 273d
000001a0: 4007 153d 2998 92bd d9c9 7cbc 155f ef3d
000001b0: 46da 793d e908 89bd 58ff b0bd cd2c 73bd
000001c0: e7fa 413d 5b4e 643d 0ff2 1fbe 4e13 b1bc
000001d0: c07c a73c 7389 d4bd d99c 42bd 073d c4bd
000001e0: 8a29 3b3e d718 44bd d676 a33e f496 fc3c
000001f0: d82b a1bd f15a bbbd 36ae e33d b892 0a3e
00000200: 7d66 1ebd fdc9 253d 824a 87bd 66a8 113e
00000210: aa84 cfbd 52f1 c6ba 30dc a0bd be4b d93d
00000220: 4a6f 06bb 28a0 223d 4179 08be b86a 09bd
00000230: 92f7 49be 793e abbd 95b3 293d 10d8 0dbe
00000240: d0e1 a8bc a9cf 063d 0bf9 bbbd 9710 d1bd
00000250: 88a3 a1bd 48aa 0ebe dfb2 453e 41ba a93e
00000260: 268c 8b3e 1fe9 903e f6f5 4c3e 36a0 b93e
00000270: 0a7b c03e ac60 ac3e 9122 a63e 49d1 bc3e
00000280: e324 913e d82c 703e ba76 993e dc2e b83e
00000290: cf8c 693e df47 9f3e fb26 473e 1e58 b83e
000002a0: 6c04 963e 0ee4 863e 256e c23e 5e2f b73e
000002b0: eeea ad3e b088 873e 728f 803e 788e be3e
000002c0: 4feb 8f3e b4c4 793e 6d08 b03e 140b 993e
000002d0: 371b 633e 4ca1 9f3e 1ea2 9e3e 3a1c 8e3e
000002e0: 4850 643e 2db6 753e a465 8f3e c949 763e
000002f0: 1286 913e 7cdb 9b3e 228c b13e 6464 a93e
00000300: 1f81 af3e c182 3a3e cdd9 b43e 2f1a 933e
00000310: f1c6 a33e 7f1f ac3e 54b1 973e aeaf ac3e
0.18556081 0.32558647 0.26487556 0.24999902 0.19408275 0.3607338 0.36099052 0.3515301
0.31823283 0.35458174 0.29817522 0.23104757 0.28303012 0.35411704 0.22860266 0.29980865
0.17178014 0.344827 0.3035644 0.2438617 0.3636737 0.34885332 0.33484674 0.24630374
0.23810674 0.36822495 0.30134666 0.21316156 0.34923425 0.2868912 0.25728738 0.31176862
0.29872304 0.28207397 0.1848055 0.2648383 0.26645142 0.23982507 0.27323472 0.28184593
0.3553799 0.2948295 0.33866 0.16821557 0.37597498 0.293692 0.30641288 0.36481515
0.28745407 0.33486617 1.0 1.0 1.0 1.0 1.0 1.0
1.0 1.0 1.0 1.0 1.0 1.0 1.0 1.0
1.0 1.0 1.0 1.0 1.0 1.0 1.0 1.0
1.0 1.0 1.0 1.0 1.0 1.0 1.0 1.0
1.0 1.0 1.0 1.0 1.0 1.0 1.0 1.0
1.0 1.0 1.0 1.0 1.0 1.0 1.0 1.0
1.0 1.0 1.0 1.0 -0.1667443 -0.108758315 0.010388319 0.040861007
0.036383867 -0.071579285 -0.015428984 0.11688057 0.060999177 -0.066911526 -0.08642453 -0.059368897
0.04735842 0.055738788 -0.15619682 -0.02161565 0.020445228 -0.10377779 -0.047512863 -0.095819525
0.18277565 -0.04787525 0.31926602 0.030833699 -0.07869691 -0.09148205 0.111172125 0.13532531
-0.03867196 0.040475834 -0.06606008 0.14224395 -0.101327255 -0.001517812 -0.078544974 0.1061015
-0.002051311 0.03970352 -0.13327505 -0.03354904 -0.19723347 -0.08361525 0.04143103 -0.13851953
-0.020615488 0.032912884 -0.091783606 -0.102082424 -0.07892519 -0.13932145 0.19306515 0.33149913
0.27255362 0.28302857 0.20015702 0.36255044 0.3759387 0.33667505 0.32448247 0.36878422
0.28348455 0.23454607 0.29973394 0.3597325 0.2280762 0.3110952 0.19448464 0.36004728
0.2930025 0.26345867 0.3797466 0.35778326 0.339683 0.26471472 0.2510944 0.3721807
0.28109214 0.24391443 0.34381428 0.29891264 0.2217835 0.31177747 0.3098306 0.2775591
0.2229625 0.23995276 0.28007233 0.24051584 0.284226 0.3044089 0.34677225 0.33084404
0.342782 0.18213941 0.3532242 0.28730914 0.31987718 0.3361778 0.29627478 0.33727783

while/MatMul_11 i1 [200, 50] scale=0.0025599175 zero_point=0
00000000: 3609 ed2f ff04 fb9c e713 cccb e612 26d7
00000010: fe07 1902 1e1f 03e2 e40c 2a12 fa17 1008
00000020: cebc 17fe f1e3 f7ea 01f8 fb0c 09e8 251c
00000030: 2412 0fd3 cbf9 1301 1902 0203 13f7 2cef
00000040: f0dc 221a 09dc 1f14 e112 1b13 12fc 1320
00000050: 1a22 0b0d 361c 210c 12b9 dceb 6614 13f1
00000060: d6dc e6f9 dfc1 2de6 ca12 1017 ddd1 f702
00000070: fde9 df43 fae5 fc01 2b0d 2d48 e10d 1fe7
00000080: 2c05 07f8 f3bb 10d3 06f1 06ed fcf3 f02c
00000090: 01f0 0b09 f416 f4e1 0d10 cf29 f8f7 c8f5
000000a0: 2bd8 fe17 1e15 0f1b db1e 0ae8 f5d8 daec
000000b0: cbfb e1e0 18fa 04f7 e3fd 0c27 fff2 0720
000000c0: ffc8 121d 0e05 040b 211d 1708 0319 fded
000000d0: feec f814 5dd2 0b3e 0820 f540 d9de 04d6
000000e0: 2901 28fc 0518 03fb ddff 06fc 03e3 cae3
000000f0: 1514 1117 d4ee f4f6 e0ec d6f8 0126 eed6
0.13823554 0.023039257 -0.048638433 0.120316125 -0.0025599175 0.01023967 -0.012799587 -0.25599176
-0.06399794 0.048638433 -0.13311571 -0.13567562 -0.066557854 0.046078514 0.09727687 -0.10495662
-0.005119835 0.017919423 0.06399794 0.005119835 0.07679752 0.079357445 0.0076797525 -0.07679752
-0.07167769 0.03071901 0.107516535 0.046078514 -0.015359505 0.0588781 0.04095868 0.02047934
-0.12799588 -0.1740744 0.0588781 -0.005119835 -0.03839876 -0.07423761 -0.023039257 -0.056318186
0.0025599175 -0.02047934 -0.012799587 0.03071901 0.023039257 -0.06143802 0.09471695 0.07167769
0.09215703 0.046078514 0.03839876 -0.11519629 -0.13567562 -0.017919423 0.048638433 0.0025599175
0.06399794 0.005119835 0.005119835 0.0076797525 0.048638433 -0.023039257 0.11263637 -0.0435186
-0.04095868 -0.09215703 0.0870372 0.066557854 0.023039257 -0.09215703 0.079357445 0.05119835
-0.079357445 0.046078514 0.06911777 0.048638433 0.046078514 -0.01023967 0.048638433 0.08191736
0.066557854 0.0870372 0.028159093 0.033278927 0.13823554 0.07167769 0.084477276 0.03071901
0.046078514 -0.18175414 -0.09215703 -0.053758267 0.2611116 0.05119835 0.048638433 -0.03839876
-0.107516535 -0.09215703 -0.066557854 -0.017919423 -0.084477276 -0.1612748 0.11519629 -0.066557854
-0.13823554 0.046078514 0.04095868 0.0588781 -0.08959711 -0.120316125 -0.023039257 0.005119835
-0.0076797525 -0.0588781 -0.084477276 0.17151447 -0.015359505 -0.06911777 -0.01023967 0.0025599175
0.11007645 0.033278927 0.11519629 0.18431406 -0.079357445 0.033278927 0.079357445 -0.06399794
0.11263637 0.012799587 0.017919423 -0.02047934 -0.033278927 -0.17663431 0.04095868 -0.11519629
0.015359505 -0.03839876 0.015359505 -0.048638433 -0.01023967 -0.033278927 -0.04095868 0.11263637
0.0025599175 -0.04095868 0.028159093 0.023039257 -0.03071901 0.056318186 -0.03071901 -0.079357445
0.033278927 0.04095868 -0.12543596 0.10495662 -0.02047934 -0.023039257 -0.14335538 -0.028159093
0.11007645 -0.1023967 -0.005119835 0.0588781 0.07679752 0.053758267 0.03839876 0.06911777
-0.09471695 0.07679752 0.025599174 -0.06143802 -0.028159093 -0.1023967 -0.09727687 -0.05119835
-0.13567562 -0.012799587 -0.079357445 -0.08191736 0.06143802 -0.015359505 0.01023967 -0.023039257
-0.07423761 -0.0076797525 0.03071901 0.09983678 -0.0025599175 -0.035838846 0.017919423 0.08191736
-0.0025599175 -0.14335538 0.046078514 0.07423761 0.035838846 0.012799587 0.01023967 0.028159093
0.084477276 0.07423761 0.0588781 0.02047934 0.0076797525 0.06399794 -0.0076797525 -0.048638433
-0.005119835 -0.05119835 -0.02047934 0.05119835 0.23807234 -0.1177562 0.028159093 0.15871489
0.02047934 0.08191736 -0.028159093 0.16383472 -0.09983678 -0.0870372 0.01023967 -0.107516535
0.10495662 0.0025599175 0.1023967 -0.01023967 0.012799587 0.06143802 0.0076797525 -0.012799587
-0.08959711 -0.0025599175 0.015359505 -0.01023967 0.0076797525 -0.07423761 -0.13823554 -0.07423761
0.053758267 0.05119835 0.0435186 0.0588781 -0.11263637 -0.046078514 -0.03071901 -0.025599174
-0.08191736 -0.05119835 -0.107516535 -0.02047934 0.0025599175 0.09727687 -0.046078514 -0.107516535

while/MatMul i1 [200, 42] scale=0.004410061 zero_point=0
00000000: ddfa b4b9 cad1 f5c2 f3dd 03ba dcec fbf8
00000010: 05df 0dc3 fdd6 12d8 0ce1 59bc 2db4 03d0
00000020: 34ea 3ac0 38ac 34ca 20c7 dffa c4ba a7bb
00000030: c0dd daf5 a0b8 b3ab aec9 b3b3 bbbc cdaf
00000040: ccc3 d4eb b2c2 e6da b0e9 e4d2 44e6 f1c7
00000050: 0ee1 06e5 0cf4 c0c6 b3e4 adc5 c9fa a8b0
00000060: a5ca a8b3 cdd3 c3b5 b0c7 bac6 c2d1 ecde
00000070: b7ff b6ca ded9 23ea c7e6 c2f8 cfe7 e8e2
00000080: a6e3 aada b4e5 b404 c9d1 d7e1 e6c5 bcc1
00000090: dbc0 f0e7 faf9 cfd4 c2c4 db07 dc25 b542
000000a0: e5d8 f30a a526 b80b ff21 b6cf d9c4 e9b8
000000b0: e0e1 d6c2 b0b2 a6d7 bde4 cdb3 aac3 adee
000000c0: b1e9 eecd eaca e9e7 acf7 43d9 17da 1fbe
000000d0: 1bec e5e0 cfbd c1e7 c0dc d8c9 d2e1 ade6
000000e0: dced cbe6 d1de b5b5 dfd4 d5f3 e9a9 dce6
000000f0: ced9 bfe6 1acc 10b5 f9b9 e1d4 ef11 beac
-0.15435214 -0.026460366 -0.33516464 -0.31311435 -0.2381433 -0.20727287 -0.04851067 -0.2734238
-0.057330795 -0.15435214 0.013230183 -0.3087043 -0.1587622 -0.088201225 -0.022050306 -0.03528049
0.022050306 -0.14553201 0.057330795 -0.26901373 -0.013230183 -0.18522257 0.0793811 -0.17640245
0.052920733 -0.1367119 0.39249542 -0.29988414 0.19845274 -0.33516464 0.013230183 -0.21168293
0.22932318 -0.09702134 0.25578353 -0.2822439 0.24696341 -0.37044513 0.22932318 -0.2381433
0.14112195 -0.25137347 -0.14553201 -0.026460366 -0.26460367 -0.3087043 -0.39249542 -0.3042942
-0.2822439 -0.15435214 -0.16758232 -0.04851067 -0.42336586 -0.3175244 -0.3395747 -0.3748552
-0.36162502 -0.24255335 -0.3395747 -0.3395747 -0.3042942 -0.29988414 -0.22491312 -0.35721496
-0.22932318 -0.26901373 -0.19404268 -0.09261128 -0.34398475 -0.2734238 -0.11466159 -0.16758232
-0.3528049 -0.10143141 -0.123481706 -0.20286281 0.29988414 -0.11466159 -0.06615092 -0.25137347
0.061740853 -0.1367119 0.026460366 -0.11907165 0.052920733 -0.052920733 -0.2822439 -0.25578353
-0.3395747 -0.123481706 -0.36603507 -0.26019362 -0.24255335 -0.026460366 -0.38808537 -0.3528049
-0.40131557 -0.2381433 -0.38808537 -0.3395747 -0.22491312 -0.19845274 -0.26901373 -0.33075458
-0.3528049 -0.25137347 -0.3087043 -0.25578353 -0.2734238 -0.20727287 -0.088201225 -0.14994207
-0.32193446 -0.004410061 -0.32634452 -0.2381433 -0.14994207 -0.17199238 0.15435214 -0.09702134
-0.25137347 -0.11466159 -0.2734238 -0.03528049 -0.21609299 -0.11025152 -0.105841465 -0.13230184
-0.39690548 -0.12789176 -0.37926525 -0.16758232 -0.33516464 -0.11907165 -0.33516464 0.017640244
-0.24255335 -0.20727287 -0.18081251 -0.1367119 -0.11466159 -0.26019362 -0.29988414 -0.27783385
-0.16317226 -0.2822439 -0.07056098 -0.11025152 -0.026460366 -0.030870426 -0.21609299 -0.19404268
-0.2734238 -0.26460367 -0.16317226 0.030870426 -0.1587622 0.16317226 -0.33075458 0.29106402
-0.11907165 -0.17640245 -0.057330795 0.044100612 -0.40131557 0.16758232 -0.3175244 0.04851067
-0.004410061 0.14553201 -0.32634452 -0.21609299 -0.17199238 -0.26460367 -0.10143141 -0.3175244
-0.14112195 -0.1367119 -0.18522257 -0.2734238 -0.3528049 -0.34398475 -0.39690548 -0.18081251
-0.29547408 -0.123481706 -0.22491312 -0.3395747 -0.37926525 -0.26901373 -0.36603507 -0.0793811
-0.3483948 -0.10143141 -0.0793811 -0.22491312 -0.09702134 -0.2381433 -0.10143141 -0.11025152
-0.37044513 -0.03969055 0.29547408 -0.17199238 0.10143141 -0.16758232 0.1367119 -0.29106402
0.11907165 -0.088201225 -0.11907165 -0.14112195 -0.21609299 -0.29547408 -0.27783385 -0.11025152
-0.2822439 -0.1587622 -0.17640245 -0.24255335 -0.20286281 -0.1367119 -0.36603507 -0.11466159
-0.1587622 -0.08379116 -0.23373324 -0.11466159 -0.20727287 -0.14994207 -0.33075458 -0.33075458
-0.14553201 -0.19404268 -0.18963262 -0.057330795 -0.10143141 -0.3836753 -0.1587622 -0.11466159
-0.22050305 -0.17199238 -0.28665397 -0.11466159 0.11466159 -0.22932318 0.07056098 -0.33075458
-0.030870426 -0.31311435 -0.1367119 -0.19404268 -0.074971035 0.074971035 -0.29106402 -0.37044513

sequential_3/lstm_1/Read_2/ReadVariableOp1 f4 [400]
00000000: 88ac b93e 01b7 853e b6e1 163e c786 b13e
00000010: 19fa a43e 9c61 ef3d b97d 303e d0a3 1f3e
00000020: b453 873e 1337 4e3e 7e64 a13e 38c7 0b3e
00000030: b94d b43e 6b9d 9c3e 6516 bf3d 9f5c a63e
00000040: acd8 4a3e 6395 833e 5690 8a3e 45da 8f3e
00000050: 78e4 cf3d 41c3 833e 2aa6 9f3e 1196 623e
00000060: 7a2d 8f3e 2341 783e 191a 383e fa96 a13e
00000070: 2191 af3e 76c4 7f3e d92f 7a3e 396f 103e
00000080: 6b98 903e d290 c23d 4e6f ae3e 3b8c ed3d
00000090: 0c54 cf3d d938 773e 4109 113e d798 603e
000000a0: 46a3 7a3e 8fcb 3e3e a1b8 843e ab74 843e
000000b0: 7f4b 523e 188f 8e3e 0542 1d3e 6827 8e3d
000000c0: e72a 963e f5ee 953e 1f58 e43d 1eef 433d
000000d0: c456 4d3e ef90 4c3e 9a6f 653e fc2d 303e
000000e0: b335 943e 6e7b 9a3e 41d0 ad3e ae25 8b3e
000000f0: bfd4 633e c2ea 263e b420 4c3e 7020 9b3e
00000100: 4dcc 5e3e 46e4 723e 8fc4 753e 87b5 673e
00000110: 1b4a a93e ab5d 8a3e e27b c63e a806 253e
00000120: 89a4 b03e 3fbe b93e c56a 7d3e cb4d 053e
00000130: b57c 403e c7fb 743e dca8 923e 5cac 5b3e
00000140: b0d5 4a3e cba1 ac3e 28e1 9f3e c21d c53e
00000150: a87f 483e fe4d ed3d 748a a73e 87cf 8e3e
00000160: c934 d23d dea9 403e 6c00 953e 6c8c ee3d
00000170: 3302 973e 88eb 913e 6292 513e 71b9 b83e
00000180: ce1b 963e 9934 963e c06a 883e 2a9c 4a3e
00000190: 0000 803f 0000 803f 0000 803f 0000 803f
000001a0: 0000 803f 0000 803f 0000 803f 0000 803f
000001b0: 0000 803f 0000 803f 0000 803f 0000 803f
000001c0: 0000 803f 0000 803f 0000 803f 0000 803f
000001d0: 0000 803f 0000 803f 0000 803f 0000 803f
000001e0: 0000 803f 0000 803f 0000 803f 0000 803f
000001f0: 0000 803f 0000 803f 0000 803f 0000 803f
00000200: 0000 803f 0000 803f 0000 803f 0000 803f
00000210: 0000 803f 0000 803f 0000 803f 0000 803f
00000220: 0000 803f 0000 803f 0000 803f 0000 803f
00000230: 0000 803f 0000 803f 0000 803f 0000 803f
00000240: 0000 803f 0000 803f 0000 803f 0000 803f
00000250: 0000 803f 0000 803f 0000 803f 0000 803f
00000260: 0000 803f 0000 803f 0000 803f 0000 803f
00000270: 0000 803f 0000 803f 0000 803f 0000 803f
00000280: 0000 803f 0000 803f 0000 803f 0000 803f
00000290: 0000 803f 0000 803f 0000 803f 0000 803f
000002a0: 0000 803f 0000 803f 0000 803f 0000 803f
000002b0: 0000 803f 0000 803f 0000 803f 0000 803f
000002c0: 0000 803f 0000 803f 0000 803f 0000 803f
000002d0: 0000 803f 0000 803f 0000 803f 0000 803f
000002e0: 0000 803f 0000 803f 0000 803f 0000 803f
000002f0: 0000 803f 0000 803f 0000 803f 0000 803f
00000300: 0000 803f 0000 803f 0000 803f 0000 803f
00000310: 0000 803f 0000 803f 0000 803f 0000 803f
00000320: b49f cb3d 53a7 d5bd 5c1b 58be f2e2 0fbd
00000330: 8f52 023d d6e0 303e 58e5 a93d 2287 c3bd
00000340: 28d5 edbb a574 85bd 518d 833a d2ef 3d3d
00000350: 0b15 ad3d 4217 6b3d 5174 12bd 26a7 2a3d
00000360: 18cc 243e 3434 38bc f0e6 53be e08e 11be
00000370: 2532 3fbd 5514 89bd 1aff 16be 96d1 05be
00000380: ad02 05be 36ce c0bc e608 1bbd 19fb 5b3d
00000390: 043c b1bd d60a 43be 017c 3a3d ae06 5fbd
000003a0: 7c42 39bc d63e 6bbd 84ac d6bd 480a 343d
000003b0: 032c abbd 070e 9cbd caf0 ac3d b132 1ebe
000003c0: 8285 7e3d a8e2 c43d 6965 033e 5755 56bc
000003d0: a08f 03bd db8b 5d3b f159 1ebe 923b 23bd
000003e0: e15c 933c ad0b aebc 25cb 17bd 2bbc 0cbe
000003f0: 588e 223d fb6c c4bd 4e27 aebd c59b c13d
0.36264443 0.26116183 0.1473454 0.3467314 0.3222206 0.116885394 0.1723546 0.15589833
0.26431048 0.20138197 0.31521982 0.13650215 0.35215548 0.3058885 0.09330443 0.3249254
0.19809216 0.2569991 0.27063245 0.28096214 0.10150999 0.25734904 0.3118146 0.22127558
0.27964383 0.24243598 0.17978705 0.31560498 0.34290412 0.24977288 0.24432315 0.14104928
0.28241286 0.095002785 0.34069294 0.115990125 0.101234525 0.2414278 0.14163686 0.21933304
0.24476346 0.18632339 0.2592211 0.2587026 0.20536612 0.27843547 0.15357216 0.0694111
0.29329607 0.29283872 0.1114962 0.04783546 0.2005263 0.19977163 0.22405854 0.17205042
0.2894722 0.30172294 0.33947948 0.27177185 0.22249125 0.1630049 0.1993435 0.30298185
0.21757622 0.23719892 0.24000762 0.22627841 0.3306435 0.27024588 0.3876639 0.1611582
0.3450053 0.3627796 0.2474776 0.13017957 0.18797572 0.2392417 0.28644454 0.21452469
0.19808078 0.33717188 0.31226468 0.38499266 0.19579947 0.115871415 0.3272282 0.27892706
0.10263974 0.18814799 0.29101884 0.11647877 0.29493865 0.2850001 0.20465997 0.3607898
0.29318088 0.29337004 0.26643944 0.19786134 1.0 1.0 1.0 1.0
1.0 1.0 1.0 1.0 1.0 1.0 1.0 1.0
1.0 1.0 1.0 1.0 1.0 1.0 1.0 1.0
1.0 1.0 1.0 1.0 1.0 1.0 1.0 1.0
1.0 1.0 1.0 1.0 1.0 1.0 1.0 1.0
1.0 1.0 1.0 1.0 1.0 1.0 1.0 1.0
1.0 1.0 1.0 1.0 1.0 1.0 1.0 1.0
1.0 1.0 1.0 1.0 1.0 1.0 1.0 1.0
1.0 1.0 1.0 1.0 1.0 1.0 1.0 1.0
1.0 1.0 1.0 1.0 1.0 1.0 1.0 1.0
1.0 1.0 1.0 1.0 1.0 1.0 1.0 1.0
1.0 1.0 1.0 1.0 1.0 1.0 1.0 1.0
1.0 1.0 1.0 1.0 1.0 1.0 1.0 1.0
0.0994257 -0.10432305 -0.21104187 -0.03512854 0.031817015 0.17273268 0.08295697 -0.09547259
-0.007258076 -0.06516389 0.0010036622 0.04637129 0.08451279 0.057395227 -0.03575546 0.04166331
0.1609348 -0.011242915 -0.20693564 -0.14214659 -0.04667868 -0.06693331 -0.14745751 -0.13068232
-0.12989302 -0.023535829 -0.037850283 0.053706262 -0.08654025 -0.19047102 0.045528416 -0.05444973
-0.011307355 -0.057432972 -0.104821235 0.043955117 -0.08358004 -0.07619863 0.08444364 -0.15449025
0.06213904 0.09613544 0.12831654 -0.01308187 -0.032119393 0.0033805284 -0.15463997 -0.039851733
0.017988624 -0.021245802 -0.037058968 -0.13743655 0.03968653 -0.09591099 -0.085035905 0.09453539

while/MatMul_14 i1 [400, 100] scale=0.0016919688 zero_point=0
00000000: 20f0 1cf1 dc2b 08fe c5ff d602 1f07 e133
00000010: da1f f4e8 1f05 08ee e91a 0328 d4fd 2f00
00000020: 28e5 0a01 5218 d503 17fd af10 fdf0 c51c
00000030: fc45 ce16 31fb e3d0 ed18 fb48 2b33 efed
00000040: de02 ebeb fd06 08cc fcd3 2300 19ce 17fa
00000050: efcc f701 02f5 0920 fce2 061b 1d29 101a
00000060: 252b f3ff eaf7 0c5c 1ffe effd d004 ff1a
00000070: 09dc 01fc 0926 fa19 d408 d712 c807 2cc3
00000080: 2af0 0afc 1422 03ed 2815 f408 3c03 0407
00000090: f3f5 ebe0 c9d9 2f3c 05d8 e003 fb20 32f1
000000a0: dedb 0c0a 05fa d7f4 dde9 ffd9 d6e9 e22e
000000b0: 223e fe00 fdb5 f30f 2c03 2f01 1402 e9e8
000000c0: 001d e1d0 0215 e231 0229 22d3 d905 f501
000000d0: 12f2 0f05 0ef8 c5fe 2ce0 1ae0 f8de 14e5
000000e0: d5f6 1006 2af3 1129 f4ff 3539 0d1f 1be6
000000f0: 11e4 fae9 400d f7a6 2105 05ef 0a2a 2825
0.054143 -0.0270715 0.047375124 -0.025379531 -0.060910877 0.07275466 0.01353575 -0.0033839375
-0.09982616 -0.0016919688 -0.07106269 0.0033839375 0.052451033 0.011843781 -0.052451033 0.086290404
-0.064294815 0.052451033 -0.020303626 -0.04060725 0.052451033 0.008459844 0.01353575 -0.030455438
-0.03891528 0.04399119 0.0050759064 0.06767875 -0.074446626 -0.0050759064 0.079522535 0.0
0.06767875 -0.045683157 0.016919687 0.0016919688 0.13874143 0.04060725 -0.07275466 0.0050759064
0.03891528 -0.0050759064 -0.13704947 0.0270715 -0.0050759064 -0.0270715 -0.09982616 0.047375124
-0.006767875 0.116745844 -0.08459844 0.037223313 0.08290647 -0.008459844 -0.049067095 -0.0812145
-0.032147408 0.04060725 -0.008459844 0.12182175 0.07275466 0.086290404 -0.02876347 -0.032147408
-0.05752694 0.0033839375 -0.035531346 -0.035531346 -0.0050759064 0.010151813 0.01353575 -0.08798238
-0.006767875 -0.07613859 0.059218906 0.0 0.04229922 -0.08459844 0.03891528 -0.010151813
-0.02876347 -0.08798238 -0.015227719 0.0016919688 0.0033839375 -0.018611657 0.015227719 0.054143
-0.006767875 -0.050759062 0.010151813 0.045683157 0.049067095 0.06937072 0.0270715 0.04399119
0.06260285 0.07275466 -0.021995595 -0.0016919688 -0.037223313 -0.015227719 0.020303626 0.15566112
0.052451033 -0.0033839375 -0.02876347 -0.0050759064 -0.0812145 0.006767875 -0.0016919688 0.04399119
0.015227719 -0.060910877 0.0016919688 -0.006767875 0.015227719 0.064294815 -0.010151813 0.04229922
-0.074446626 0.01353575 -0.06937072 0.030455438 -0.09475025 0.011843781 0.074446626 -0.10321009
0.07106269 -0.0270715 0.016919687 -0.006767875 0.033839375 0.05752694 0.0050759064 -0.032147408
0.06767875 0.035531346 -0.020303626 0.01353575 0.101518124 0.0050759064 0.006767875 0.011843781
-0.021995595 -0.018611657 -0.035531346 -0.054143 -0.09305828 -0.06598678 0.079522535 0.101518124
0.008459844 -0.06767875 -0.054143 0.0050759064 -0.008459844 0.054143 0.08459844 -0.025379531
-0.05752694 -0.06260285 0.020303626 0.016919687 0.008459844 -0.010151813 -0.06937072 -0.020303626
-0.059218906 -0.03891528 -0.0016919688 -0.06598678 -0.07106269 -0.03891528 -0.050759062 0.07783056
0.05752694 0.10490207 -0.0033839375 0.0 -0.0050759064 -0.12689766 -0.021995595 0.025379531
0.074446626 0.0050759064 0.079522535 0.0016919688 0.033839375 0.0033839375 -0.03891528 -0.04060725
0.0 0.049067095 -0.052451033 -0.0812145 0.0033839375 0.035531346 -0.050759062 0.08290647
0.0033839375 0.06937072 0.05752694 -0.07613859 -0.06598678 0.008459844 -0.018611657 0.0016919688
0.030455438 -0.023687562 0.025379531 0.008459844 0.023687562 -0.01353575 -0.09982616 -0.0033839375
0.074446626 -0.054143 0.04399119 -0.054143 -0.01353575 -0.05752694 0.033839375 -0.045683157
-0.07275466 -0.016919687 0.0270715 0.010151813 0.07106269 -0.021995595 0.02876347 0.06937072
-0.020303626 -0.0016919688 0.089674346 0.09644222 0.021995595 0.052451033 0.045683157 -0.04399119
0.02876347 -0.047375124 -0.010151813 -0.03891528 0.108286 0.021995595 -0.015227719 -0.15227719
0.055834968 0.008459844 0.008459844 -0.02876347 0.016919687 0.07106269 0.06767875 0.06260285

while/MatMul2 i1 [400, 50] scale=0.004992674 zero_point=0
00000000: 08d1 07c0 e9c1 dde8 11e7 27e6 4215 33d0
00000010: fe1e d6f7 3539 2af2 13c4 2df8 cffe 3018
00000020: 06c9 03cb ddd1 39fb ccd4 ca06 d544 b719
00000030: abf6 fedb 0c09 e4b7 ffd0 4ce8 1ad1 3ee6
00000040: 0bf4 f806 e6e7 1b25 16e4 d9da 1431 f347
00000050: fb3f 25bb 0ff2 fcf5 abfe 05f8 1018 b31c
00000060: e50f d7c4 17e4 f3fc f6be 2cbc feb0 52dd
00000070: 18d6 2c98 0139 ea10 0f25 1e05 24cc 16f1
00000080: deee f906 10eb feb6 a8aa 3aeb df00 fcfc
00000090: f120 d00f cb11 400e e9be dfd2 0fb6 09d1
000000a0: 240a 2a1e 1eff de4d 02c0 e60f 65d0 3db9
000000b0: 2ce1 f912 5334 28db 20c4 c512 312b 0210
000000c0: b515 de32 c816 d7f4 5024 d8c8 b7d6 f4e1
000000d0: 0bff 2803 0c14 4e08 d50c 0eb1 cd2e 5ee1
000000e0: 55cc 46bb e527 5533 3cd2 28b9 cd19 1329
000000f0: 0737 b33b d04f ab2a b620 0b1a e9e1 f9bb
0.039941393 -0.23465568 0.034948718 -0.31953114 -0.11483151 -0.31453848 -0.1747436 -0.11982418
0.08487546 -0.12481685 0.1947143 -0.12980953 0.3295165 0.10484616 0.2546264 -0.23964836
-0.009985348 0.14978023 -0.20969231 -0.044934068 0.26461172 0.28458244 0.20969231 -0.069897436
0.09486081 -0.29956046 0.22467034 -0.039941393 -0.24464104 -0.009985348 0.23964836 0.11982418
0.029956045 -0.27459708 0.014978022 -0.26461172 -0.1747436 -0.23465568 0.28458244 -0.024963371
-0.25961906 -0.21967766 -0.2696044 0.029956045 -0.214685 0.33950183 -0.3644652 0.12481685
-0.4243773 -0.049926743 -0.009985348 -0.18472894 0.05991209 0.044934068 -0.13979487 -0.3644652
-0.004992674 -0.23964836 0.37944323 -0.11982418 0.12980953 -0.23465568 0.3095458 -0.12980953
0.054919414 -0.05991209 -0.039941393 0.029956045 -0.12980953 -0.12481685 0.1348022 0.18472894
0.10983883 -0.13979487 -0.1947143 -0.18972161 0.099853486 0.24464104 -0.064904764 0.35447985
-0.024963371 0.31453848 0.18472894 -0.34449452 0.074890114 -0.069897436 -0.019970696 -0.054919414
-0.4243773 -0.009985348 0.024963371 -0.039941393 0.079882786 0.11982418 -0.3844359 0.13979487
-0.1348022 0.074890114 -0.20469964 -0.29956046 0.11483151 -0.13979487 -0.064904764 -0.019970696
-0.049926743 -0.3295165 0.21967766 -0.33950183 -0.009985348 -0.39941394 0.40939927 -0.1747436
0.11982418 -0.20969231 0.21967766 -0.5192381 0.004992674 0.28458244 -0.10983883 0.079882786
0.074890114 0.18472894 0.14978023 0.024963371 0.17973627 -0.25961906 0.10983883 -0.074890114
-0.16975091 -0.089868136 -0.034948718 0.029956045 0.079882786 -0.10484616 -0.009985348 -0.36945787
-0.4393553 -0.42937 0.2895751 -0.10484616 -0.16475825 0.0 -0.019970696 -0.019970696
-0.074890114 0.15976557 -0.23964836 0.074890114 -0.26461172 0.08487546 0.31953114 0.069897436
-0.11483151 -0.3295165 -0.16475825 -0.22966301 0.074890114 -0.36945787 0.044934068 -0.23465568
0.17973627 0.049926743 0.20969231 0.14978023 0.14978023 -0.004992674 -0.16975091 0.3844359
0.009985348 -0.31953114 -0.12980953 0.074890114 0.50426006 -0.23964836 0.30455312 -0.35447985
0.21967766 -0.1547729 -0.034948718 0.089868136 0.41439196 0.25961906 0.19970697 -0.18472894
0.15976557 -0.29956046 -0.29456776 0.089868136 0.24464104 0.214685 0.009985348 0.079882786
-0.37445056 0.10484616 -0.16975091 0.2496337 -0.27958974 0.10983883 -0.20469964 -0.05991209
0.39941394 0.17973627 -0.19970697 -0.27958974 -0.3644652 -0.20969231 -0.05991209 -0.1547729
0.054919414 -0.004992674 0.19970697 0.014978022 0.05991209 0.099853486 0.3894286 0.039941393
-0.214685 0.05991209 0.069897436 -0.39442125 -0.2546264 0.22966301 0.46931136 -0.1547729
0.4243773 -0.25961906 0.3494872 -0.34449452 -0.1348022 0.1947143 0.4243773 0.2546264
0.29956046 -0.22966301 0.19970697 -0.35447985 -0.2546264 0.12481685 0.09486081 0.20469964
0.034948718 0.27459708 -0.3844359 0.29456776 -0.23964836 0.39442125 -0.4243773 0.20969231
-0.36945787 0.15976557 0.054919414 0.12980953 -0.11483151 -0.1547729 -0.034948718 -0.34449452
