GRU-main/model/keypoint_classifier/LSTM_model_both_aug.tflite (tflite, 102304 bytes, 10 tensors)

sequential_1/lstm/Read_2/ReadVariableOp f4 [200]
000000 45 0a 33 3e bc 35 d6 3e b0 61 0c 3f 35 ba 6b 3f
       0.17484386 0.4183787 0.5483656 0.92081004
000010 d4 71 60 3f b7 6a 86 3e 9c 82 fe 3d 19 45 ea 3e
       0.8767369 0.26253292 0.124272555 0.45755842
000020 44 9d 17 3f 82 23 be 3d 12 9a 22 3f 13 ce aa 3f
       0.59224343 0.09284116 0.6351634 1.3344139
000030 17 f2 ef 3d fa 1b f6 3e aa 36 17 3f c6 73 77 3f
       0.11716097 0.4806822 0.59067786 0.9666103
000040 c8 4d 17 3f 9c a1 4d 3f 47 f6 46 3f 73 ec 86 3f
       0.5910306 0.8032472 0.7771954 1.0540909
000050 32 8a c5 3e fe d0 f4 bd e7 1a fd 3e 92 d8 01 3f
       0.38581997 -0.119539246 0.49434587 0.50721085
000060 79 c9 db 3e 7f 86 30 3f 43 bf af 3e b2 4d 9f 3e
       0.4292715 0.68955225 0.3432561 0.31113964
000070 de 8a 75 3d 05 58 3a 3f 2c 04 ab be 0c f6 bb 3e
       0.059946887 0.7279056 -0.3340162 0.36711156
000080 88 63 fd 3e 5c 48 40 3f fe a4 9d bc c8 be 01 3f
       0.4949 0.7511041 -0.019243713 0.50681734
000090 53 3c 6f 3f 38 6b 6e 3e 2d c1 9d 3e d7 8a 28 3f
       0.9345142 0.23283088 0.30811444 0.6583685
0000a0 54 07 9f 3e db 1d b3 3d ae cf 5b 3f e1 78 12 3f
       0.31060278 0.08745929 0.8586377 0.57215697
0000b0 ae d3 f8 3e f2 1a ca 3e fc d7 97 3d a6 0f 23 3f
       0.48599 0.39473683 0.074142426 0.6369575
0000c0 5d c2 ab 3e 68 7c a2 3e 00 00 80 3f 00 00 80 3f
       0.33546725 0.3173554 1.0 1.0
0000d0 00 00 80 3f 00 00 80 3f 00 00 80 3f 00 00 80 3f
       1.0 1.0 1.0 1.0
0000e0 00 00 80 3f 00 00 80 3f 00 00 80 3f 00 00 80 3f
       1.0 1.0 1.0 1.0
0000f0 00 00 80 3f 00 00 80 3f 00 00 80 3f 00 00 80 3f
       1.0 1.0 1.0 1.0
000100 00 00 80 3f 00 00 80 3f 00 00 80 3f 00 00 80 3f
       1.0 1.0 1.0 1.0
000110 00 00 80 3f 00 00 80 3f 00 00 80 3f 00 00 80 3f
       1.0 1.0 1.0 1.0
000120 00 00 80 3f 00 00 80 3f 00 00 80 3f 00 00 80 3f
       1.0 1.0 1.0 1.0
000130 00 00 80 3f 00 00 80 3f 00 00 80 3f 00 00 80 3f
       1.0 1.0 1.0 1.0
000140 00 00 80 3f 00 00 80 3f 00 00 80 3f 00 00 80 3f
       1.0 1.0 1.0 1.0
000150 00 00 80 3f 00 00 80 3f 00 00 80 3f 00 00 80 3f
       1.0 1.0 1.0 1.0
000160 00 00 80 3f 00 00 80 3f 00 00 80 3f 00 00 80 3f
       1.0 1.0 1.0 1.0
000170 00 00 80 3f 00 00 80 3f 00 00 80 3f 00 00 80 3f
       1.0 1.0 1.0 1.0
000180 00 00 80 3f 00 00 80 3f 00 00 80 3f 00 00 80 3f
       1.0 1.0 1.0 1.0
000190 fa 77 95 bd 7e 3b f9 bb 53 74 a1 be ad 58 5d 3d
       -0.07298274 -0.007605969 -0.3153406 0.054039646
0001a0 c7 04 d1 3c 24 06 b9 3d a5 ce 8f bd 62 48 85 bd
       0.025514973 0.09034374 -0.07021836 -0.065079466
0001b0 d2 21 3e 3e 9e 43 d0 3d 5b 54 33 bd ea bb 2c 3e
       0.18567589 0.10169147 -0.04378162 0.16868559
0001c0 05 ab 1d 3e 5b f4 50 3d ab 7a fa be 48 79 79 bd
       0.1539727 0.051014286 -0.48921713 -0.06090668
0001d0 bf 2d de 3d af d5 e6 bd 75 14 ca 3d c4 d9 e6 3c
       0.10848569 -0.11271226 0.09867183 0.02818001
0001e0 73 c2 45 3e d0 16 e8 3e 87 9c cf bb 91 d2 8c 3c
       0.19312458 0.45329905 -0.006335798 0.01719025
0001f0 42 3c db 3c 24 dc 41 be 7a d7 0d bd 40 ca 42 bd
       0.026762132 -0.18931633 -0.034629323 -0.047556162
000200 00 99 6c 3e a8 01 6b ba d9 04 91 3d 19 79 63 3e
       0.2310524 -0.00089647854 0.07081003 0.22214164
000210 46 5d e3 3c 5b dc d1 3e c6 cc 83 3e 53 07 2f 3e
       0.027754437 0.4098843 0.25742167 0.17092638
000220 78 57 0d be 49 7c ac 3c 18 6f 8c bd b5 77 ec bd
       -0.13802898 0.021055358 -0.06857127 -0.1154627
000230 02 fd fd 3c 47 be 0e be c7 31 d2 bd 15 3e f7 bd
       0.031004433 -0.13939773 -0.102634005 -0.12072388
000240 3d 25 bf 3d 7b 3c ee 3d 62 74 f5 bd 23 c6 15 3e
       0.093332745 0.116326295 -0.11985089 0.14626364
000250 9b 4e 97 3e 99 5a 44 be 2a ec 47 3e 15 02 f4 3e
       0.2955216 -0.19175185 0.19523683 0.47657838
000260 9f 75 d3 3e 1a 29 6f 3f 83 11 5a 3f 3e af ea 3e
       0.41300675 0.9342209 0.8518297 0.45836824
000270 96 85 4c 3e dc bd 0d 3f a1 c1 03 3f 1d ae 5f bc
       0.19972834 0.5536783 0.5146733 -0.013652352
000280 f9 31 5a 3f 41 21 a9 3f ac 0d b8 3e 25 cc 26 3f
       0.852325 1.3213273 0.3594793 0.6515525
000290 bb d9 1a 3f e0 26 62 3f cd 2b 29 3f a4 77 60 3f
       0.6048848 0.8834057 0.6608246 0.8768256
0002a0 0c 37 9b 3f 44 b9 94 3f f2 10 cf 3e bb 0a a0 bd
       1.2126174 1.1619039 0.40442616 -0.07814547
0002b0 09 40 15 3f b3 3b 01 3f b9 d1 29 3f 48 ad 41 3f
       0.58300835 0.5048172 0.66335636 0.7565503
0002c0 ff 5f fd 3e 1a 12 64 3e 4d 6d 23 3e 7a 05 30 3f
       0.49487302 0.2227253 0.15959664 0.68758357
0002d0 36 44 6b be 6a 5c b8 3e cc 0c 0a 3f a2 40 45 3f
       -0.22975239 0.36008006 0.53925776 0.77051747
0002e0 5d 9e 31 be 48 11 16 3f 0c 03 4d 3f 2e 77 8d 3e
       -0.17345567 0.5862012 0.80082774 0.2762999
0002f0 97 1d 0c 3e 90 4d 39 3e 61 52 d7 3e d7 94 06 3e
       0.13683163 0.18095994 0.42055038 0.13142715
000300 05 43 70 3f 4e d1 5b 3f 31 8d 09 3f 43 5a 00 3f
       0.93852264 0.8586625 0.53731066 0.5013773
000310 a6 e3 9d bd 11 c3 60 3f 82 b8 1f be a1 58 b9 3e
       -0.07709436 0.8779765 -0.15597728 0.3620043

sequential_1/lstm_1/Read_2/ReadVariableOp f4 [400]
000000 be 85 1f 3e 09 60 ef 3e 53 41 ee bd 33 22 07 3f
       0.15578362 0.46752957 -0.11633553 0.5278656
000010 ad e4 fe 3e 2c df 09 3f 14 f9 39 3f 00 07 a2 3e
       0.4978384 0.5385616 0.7264569 0.31645966
000020 df 06 46 3f c7 8c 7c 3e f6 eb 3a 3f be 02 b4 3e
       0.77354234 0.24663077 0.730163 0.35158342
000030 87 99 89 3e 3e e0 1e 3f 33 a9 68 3e bf a1 c2 3f
       0.26874945 0.62060916 0.22720794 1.5205611
000040 4b 13 db 3d 0d 3a 28 3f 81 bd e7 3e ff c4 36 3f
       0.10697039 0.6571358 0.45261768 0.7139434
000050 d1 49 f8 3e f8 8b 11 3f f6 c8 ec 3e e0 8a eb 3e
       0.48493817 0.568542 0.4624707 0.4600439
000060 5e 82 69 3f 7e 5f 4c 3f b6 3e 29 3f 16 f7 6f 3e
       0.9121455 0.7983321 0.66111314 0.234341
000070 77 7c 49 3f 5f c5 00 3f 76 5a dd 3d 0a f4 eb 3e
       0.78705543 0.50301164 0.1080827 0.46084625
000080 40 bd 06 3f 08 da 42 be f9 4b 77 3e ef 03 ee 3e
       0.5263252 -0.19028485 0.24150075 0.46487376
000090 e5 6a 39 3f 06 59 55 bc ed 5e 04 3f d5 f0 a6 3e
       0.72428733 -0.013021713 0.51707345 0.32605615
0000a0 ae 2e 1f 3f 80 52 ea 3e ae 97 14 3f 51 ea 2d 3f
       0.621806 0.45766068 0.58043945 0.67935663
0000b0 b8 cf 70 3e 78 68 b3 3e a1 44 b5 3e d5 a0 9a 3f
       0.23516738 0.3504064 0.35403922 1.2080332
0000c0 1d 0f ce 3e 63 7e 20 3f cb ca 9c 3e ee b8 2d 3f
       0.40245906 0.6269285 0.3062347 0.67860305
0000d0 1c 63 9c 3e 79 a6 f8 3e b8 a0 38 3f 61 a1 52 3e
       0.30544364 0.4856451 0.7212024 0.20569374
0000e0 5f 55 1a 3f 4c 55 03 3f 50 ca 3c 3f e2 4a 87 3e
       0.60286516 0.5130203 0.73746204 0.2642432
0000f0 5a d9 e3 3e 7d 6a 50 3f ec 48 b5 3e dc bb 7e 3e
       0.44501764 0.8141249 0.35407197 0.2487635
000100 0b c9 40 3e 94 d5 59 3f 7c 5e 9a 3f a3 57 4e bd
       0.18826692 0.8509152 1.2060084 -0.050376546
000110 9a 3e a2 3f 6b 4e 8b 3e f4 8f d8 3d 76 7d f7 3e
       1.2675354 0.27208266 0.10574332 0.48337907
000120 b0 53 6c 3e 70 98 76 3d 65 ee 9d 3e 52 76 24 3f
       0.23078799 0.06020397 0.30845943 0.6424304
000130 f1 1f 96 3e 14 d9 4c 3f 18 5e 38 3f cd 67 81 3f
       0.29321244 0.80018735 0.72018576 1.0109802
000140 0d 60 03 3f bd 13 9f 3c 4f 85 c3 3e 06 49 1b 3e
       0.51318437 0.019418592 0.38187644 0.15164575
000150 7a 9c b3 3e 1a b0 3c 3e 96 35 b2 3e ec f6 c0 3e
       0.3508032 0.18426552 0.34806508 0.37688386
000160 b0 35 91 3e 82 27 4c 3f 53 e6 93 bd 7a 1d e0 3e
       0.28361273 0.79747784 -0.07221665 0.4377249
000170 41 b8 9a 3e ec 60 30 3f 5a dc 07 3f 3b ab 7d 3f
       0.302187 0.6889789 0.53070605 0.990894
000180 80 21 80 3e 28 2c 8f 3f 84 f8 48 3e 47 c0 9a 3e
       0.25025558 1.118535 0.19626051 0.3022482
000190 00 00 80 3f 00 00 80 3f 00 00 80 3f 00 00 80 3f
       1.0 1.0 1.0 1.0
0001a0 00 00 80 3f 00 00 80 3f 00 00 80 3f 00 00 80 3f
       1.0 1.0 1.0 1.0
0001b0 00 00 80 3f 00 00 80 3f 00 00 80 3f 00 00 80 3f
       1.0 1.0 1.0 1.0
0001c0 00 00 80 3f 00 00 80 3f 00 00 80 3f 00 00 80 3f
       1.0 1.0 1.0 1.0
0001d0 00 00 80 3f 00 00 80 3f 00 00 80 3f 00 00 80 3f
       1.0 1.0 1.0 1.0
0001e0 00 00 80 3f 00 00 80 3f 00 00 80 3f 00 00 80 3f
       1.0 1.0 1.0 1.0
0001f0 00 00 80 3f 00 00 80 3f 00 00 80 3f 00 00 80 3f
       1.0 1.0 1.0 1.0
000200 00 00 80 3f 00 00 80 3f 00 00 80 3f 00 00 80 3f
       1.0 1.0 1.0 1.0
000210 00 00 80 3f 00 00 80 3f 00 00 80 3f 00 00 80 3f
       1.0 1.0 1.0 1.0
000220 00 00 80 3f 00 00 80 3f 00 00 80 3f 00 00 80 3f
       1.0 1.0 1.0 1.0
000230 00 00 80 3f 00 00 80 3f 00 00 80 3f 00 00 80 3f
       1.0 1.0 1.0 1.0
000240 00 00 80 3f 00 00 80 3f 00 00 80 3f 00 00 80 3f
       1.0 1.0 1.0 1.0
000250 00 00 80 3f 00 00 80 3f 00 00 80 3f 00 00 80 3f
       1.0 1.0 1.0 1.0
000260 00 00 80 3f 00 00 80 3f 00 00 80 3f 00 00 80 3f
       1.0 1.0 1.0 1.0
000270 00 00 80 3f 00 00 80 3f 00 00 80 3f 00 00 80 3f
       1.0 1.0 1.0 1.0
000280 00 00 80 3f 00 00 80 3f 00 00 80 3f 00 00 80 3f
       1.0 1.0 1.0 1.0
000290 00 00 80 3f 00 00 80 3f 00 00 80 3f 00 00 80 3f
       1.0 1.0 1.0 1.0
0002a0 00 00 80 3f 00 00 80 3f 00 00 80 3f 00 00 80 3f
       1.0 1.0 1.0 1.0
0002b0 00 00 80 3f 00 00 80 3f 00 00 80 3f 00 00 80 3f
       1.0 1.0 1.0 1.0
0002c0 00 00 80 3f 00 00 80 3f 00 00 80 3f 00 00 80 3f
       1.0 1.0 1.0 1.0
0002d0 00 00 80 3f 00 00 80 3f 00 00 80 3f 00 00 80 3f
       1.0 1.0 1.0 1.0
0002e0 00 00 80 3f 00 00 80 3f 00 00 80 3f 00 00 80 3f
       1.0 1.0 1.0 1.0
0002f0 00 00 80 3f 00 00 80 3f 00 00 80 3f 00 00 80 3f
       1.0 1.0 1.0 1.0
000300 00 00 80 3f 00 00 80 3f 00 00 80 3f 00 00 80 3f
       1.0 1.0 1.0 1.0
000310 00 00 80 3f 00 00 80 3f 00 00 80 3f 00 00 80 3f
       1.0 1.0 1.0 1.0
000320 7a 47 b4 3d dd aa 44 3e e7 4f 76 bd c8 fb 69 3e
       0.088026956 0.19205804 -0.060134795 0.22849953
000330 23 04 25 be 76 1f 0e be fc 39 c6 3d 85 68 28 be
       -0.1611486 -0.13879189 0.096790284 -0.16446121
000340 57 4d 80 be 39 54 19 3e 79 78 76 3e 37 7f 8e 3e
       -0.25059006 0.14973535 0.24069394 0.27831432
000350 32 e7 6d 3e 5a ff 07 be 7c 47 05 bd 56 3a b5 be
       0.23232725 -0.13281003 -0.032538876 -0.3539607
000360 44 4e 5e bd 48 fe 0d be 3c 4d d4 bd df ab 4a 3d
       -0.05427386 -0.13866532 -0.10366294 0.049480315
000370 df 82 99 3d 69 09 bb bc 6c 9d 9e 3e aa fe ef bd
       0.07495665 -0.022831636 0.30979478 -0.11718495
000380 ab 62 30 3e 88 79 00 3e b0 8f a1 bd 96 53 91 3c
       0.17225139 0.1254636 -0.07888734 0.017740052
000390 8f 8f a2 be ec 3c a5 3d 3f 0d 3a bd 3e e6 94 be
       -0.31750152 0.080682606 -0.04542279 -0.2908191
0003a0 f7 5e f7 3d 04 67 7e 3e b9 3e 65 3e 72 ea b9 bd
       0.1207866 0.24843985 0.22387208 -0.0907792
0003b0 bf 59 c0 bd 96 eb 4b be 92 85 ef bd 7b 91 20 3e
       -0.09392118 -0.19914088 -0.116953984 0.15680496
0003c0 01 b1 67 3e 54 33 d0 be d8 e8 9c bd 6b 14 95 3b
       0.22626115 -0.4066416 -0.07661599 0.004549553
0003d0 a0 8b c6 3e 1e af f2 3b 91 d9 04 be 8a 4e 90 3d
       0.387784 0.0074061295 -0.1297362 0.0704623
0003e0 44 64 f3 bd 93 75 24 3e a1 8d 43 be 00 95 8b 3d
       -0.118843585 0.16060476 -0.19096996 0.06815529
0003f0 e3 7e 83 3e a6 bf 88 bd 22 41 9f 3d 90 63 94 3e
       0.25682744 -0.06677179 0.07776095 0.2898221

sequential_1/dense_1/BiasAdd/ReadVariableOp f4 [25]
000000 84 e8 ea bd 3d 6f a7 be f5 a5 a0 be f5 8c b0 bc
       -0.1147013 -0.32702056 -0.31376615 -0.021551589
000010 2c e1 aa bd d9 a2 3d 3e c2 92 45 3e 58 18 c9 3d
       -0.083437294 0.18519153 0.19294265 0.09819096
000020 19 95 54 3e 28 5b a9 3d 3f 24 4a bd c6 44 a8 be
       0.20760001 0.0826934 -0.049350973 -0.3286497
000030 bc 94 a1 be 8f 65 80 3c be 4f f0 be d1 8b 4b 3e
       -0.31558788 0.015673427 -0.46935838 0.19877554
000040 d5 8c 74 bd a7 f2 49 3c 5b 81 9b 3d 04 9d b5 3e
       -0.05970462 0.012325919 0.07593032 0.35471356
000050 87 a2 b7 3d af 77 c5 be 30 24 1d bd f1 76 87 be
       0.089665465 -0.38567874 -0.03836459 -0.26457933
000060 61 23 f5 3d
       0.119696386

sequential_1/dense_1/MatMul i1 [25, 100] scale=0.012809988 zero_point=0
000000 f1 c0 0a eb ea 13 da e9 08 e5 10 36 fb 21 ff c4
       -0.19214982 -0.81983924 0.12809989 -0.26900974 -0.28181973 0.24338977 -0.48677954 -0.29462972 0.102479905 -0.3458697 0.20495981 0.6917394 -0.064049944 0.4227296 -0.012809988 -0.7685993
000010 cd e9 cc 34 ee fe e8 d6 23 1c 07 15 0a fa 21 d9
       -0.6533094 -0.29462972 -0.6661194 0.6661194 -0.2305798 -0.025619976 -0.3074397 -0.5380195 0.4483496 0.35867965 0.08966991 0.26900974 0.12809989 -0.07685993 0.4227296 -0.49958953
000020 ea f0 e2 ea f3 18 fe f8 e4 e1 06 1e e5 09 d4 15
       -0.28181973 -0.20495981 -0.38429964 -0.28181973 -0.16652985 0.3074397 -0.025619976 -0.102479905 -0.35867965 -0.39710963 0.07685993 0.38429964 -0.3458697 0.1152899 -0.56363946 0.26900974
000030 c8 de 22 e5 20 02 1f e0 e5 38 e7 23 fa 1b 23 de
       -0.7173593 -0.4355396 0.4355396 -0.3458697 0.40991962 0.025619976 0.39710963 -0.40991962 -0.3458697 0.7173593 -0.3202497 0.4483496 -0.07685993 0.3458697 0.4483496 -0.4355396
000040 22 eb 23 f3 01 fa 09 08 0e f4 0f 20 1e 0b d6 cd
       0.4355396 -0.26900974 0.4483496 -0.16652985 0.012809988 -0.07685993 0.1152899 0.102479905 0.17933983 -0.15371986 0.19214982 0.40991962 0.38429964 0.14090987 -0.5380195 -0.6533094
000050 00 e2 03 2e 1d 17 0b 2f 2e 1f eb 01 cd 04 f0 c7
       0.0 -0.38429964 0.038429964 0.58925945 0.37148964 0.29462972 0.14090987 0.60206944 0.58925945 0.39710963 -0.26900974 0.012809988 -0.6533094 0.051239952 -0.20495981 -0.7301693
000060 d9 24 20 13 41 e3 e4 05 fa c0 06 f9 f1 07 06 f0
       -0.49958953 0.4611596 0.40991962 0.24338977 0.83264923 -0.37148964 -0.35867965 0.064049944 -0.07685993 -0.81983924 0.07685993 -0.08966991 -0.19214982 0.08966991 0.07685993 -0.20495981
000070 dd 11 ff 26 0f e8 0d b2 14 1b 2d 29 db e4 c3 05
       -0.4483496 0.2177698 -0.012809988 0.48677954 0.19214982 -0.3074397 0.16652985 -0.99917907 0.25619978 0.3458697 0.57644945 0.5252095 -0.47396955 -0.35867965 -0.78140926 0.064049944
000080 d8 bd 15 11 fb 11 00 0b 43 f0 01 3f fc 24 00 f5
       -0.51239955 -0.8582692 0.26900974 0.2177698 -0.064049944 0.2177698 0.0 0.14090987 0.8582692 -0.20495981 0.012809988 0.80702925 -0.051239952 0.4611596 0.0 -0.14090987
000090 0e 00 55 a7 08 0b 07 0a f8 30 d5 4c 11 0a 27 f0
       0.17933983 0.0 1.088849 -1.1400889 0.102479905 0.14090987 0.08966991 0.12809989 -0.102479905 0.6148794 -0.55082947 0.9735591 0.2177698 0.12809989 0.49958953 -0.20495981
0000a0 fe ad ff 12 fd df e8 e4 0b 22 ef 1c 28 f9 08 26
       -0.025619976 -1.063229 -0.012809988 0.2305798 -0.038429964 -0.4227296 -0.3074397 -0.35867965 0.14090987 0.4355396 -0.2177698 0.35867965 0.51239955 -0.08966991 0.102479905 0.48677954
0000b0 dc c0 d1 ba 0b fa 1b e0 e7 31 d4 11 ae f5 f6 d5
       -0.4611596 -0.81983924 -0.60206944 -0.8966992 0.14090987 -0.07685993 0.3458697 -0.40991962 -0.3202497 0.6276894 -0.56363946 0.2177698 -1.050419 -0.14090987 -0.12809989 -0.55082947
0000c0 02 09 af fd e7 f9 ef 3d f2 fa 4e 0d 27 05 f8 31
       0.025619976 0.1152899 -1.037609 -0.038429964 -0.3202497 -0.08966991 -0.2177698 0.78140926 -0.17933983 -0.07685993 0.99917907 0.16652985 0.49958953 0.064049944 -0.102479905 0.6276894
0000d0 02 d7 ba ec c3 e3 15 2d d1 65 da f2 f8 19 02 e3
       0.025619976 -0.5252095 -0.8966992 -0.25619978 -0.78140926 -0.37148964 0.26900974 0.57644945 -0.60206944 1.2938088 -0.48677954 -0.17933983 -0.102479905 0.3202497 0.025619976 -0.37148964
0000e0 24 f2 03 fe 22 f6 e2 f8 26 f8 d9 2b d6 d7 1b b8
       0.4611596 -0.17933983 0.038429964 -0.025619976 0.4355396 -0.12809989 -0.38429964 -0.102479905 0.48677954 -0.102479905 -0.49958953 0.55082947 -0.5380195 -0.5252095 0.3458697 -0.9223192
0000f0 c1 f2 18 1e c9 da 1d 05 ce fa e2 f9 bd ef 0f 11
       -0.80702925 -0.17933983 0.3074397 0.38429964 -0.7045494 -0.48677954 0.37148964 0.064049944 -0.6404994 -0.07685993 -0.38429964 -0.08966991 -0.8582692 -0.2177698 0.19214982 0.2177698

sequential_1/lstm/Read_2/ReadVariableOp1 f4 [200]
000000 45 0a 33 3e bc 35 d6 3e b0 61 0c 3f 35 ba 6b 3f
       0.17484386 0.4183787 0.5483656 0.92081004
000010 d4 71 60 3f b7 6a 86 3e 9c 82 fe 3d 19 45 ea 3e
       0.8767369 0.26253292 0.124272555 0.45755842
000020 44 9d 17 3f 82 23 be 3d 12 9a 22 3f 13 ce aa 3f
       0.59224343 0.09284116 0.6351634 1.3344139
000030 17 f2 ef 3d fa 1b f6 3e aa 36 17 3f c6 73 77 3f
       0.11716097 0.4806822 0.59067786 0.9666103
000040 c8 4d 17 3f 9c a1 4d 3f 47 f6 46 3f 73 ec 86 3f
       0.5910306 0.8032472 0.7771954 1.0540909
000050 32 8a c5 3e fe d0 f4 bd e7 1a fd 3e 92 d8 01 3f
       0.38581997 -0.119539246 0.49434587 0.50721085
000060 79 c9 db 3e 7f 86 30 3f 43 bf af 3e b2 4d 9f 3e
       0.4292715 0.68955225 0.3432561 0.31113964
000070 de 8a 75 3d 05 58 3a 3f 2c 04 ab be 0c f6 bb 3e
       0.059946887 0.7279056 -0.3340162 0.36711156
000080 88 63 fd 3e 5c 48 40 3f fe a4 9d bc c8 be 01 3f
       0.4949 0.7511041 -0.019243713 0.50681734
000090 53 3c 6f 3f 38 6b 6e 3e 2d c1 9d 3e d7 8a 28 3f
       0.9345142 0.23283088 0.30811444 0.6583685
0000a0 54 07 9f 3e db 1d b3 3d ae cf 5b 3f e1 78 12 3f
       0.31060278 0.08745929 0.8586377 0.57215697
0000b0 ae d3 f8 3e f2 1a ca 3e fc d7 97 3d a6 0f 23 3f
       0.48599 0.39473683 0.074142426 0.6369575
0000c0 5d c2 ab 3e 68 7c a2 3e 00 00 80 3f 00 00 80 3f
       0.33546725 0.3173554 1.0 1.0
0000d0 00 00 80 3f 00 00 80 3f 00 00 80 3f 00 00 80 3f
       1.0 1.0 1.0 1.0
0000e0 00 00 80 3f 00 00 80 3f 00 00 80 3f 00 00 80 3f
       1.0 1.0 1.0 1.0
0000f0 00 00 80 3f 00 00 80 3f 00 00 80 3f 00 00 80 3f
       1.0 1.0 1.0 1.0
000100 00 00 80 3f 00 00 80 3f 00 00 80 3f 00 00 80 3f
       1.0 1.0 1.0 1.0
000110 00 00 80 3f 00 00 80 3f 00 00 80 3f 00 00 80 3f
       1.0 1.0 1.0 1.0
000120 00 00 80 3f 00 00 80 3f 00 00 80 3f 00 00 80 3f
       1.0 1.0 1.0 1.0
000130 00 00 80 3f 00 00 80 3f 00 00 80 3f 00 00 80 3f
       1.0 1.0 1.0 1.0
000140 00 00 80 3f 00 00 80 3f 00 00 80 3f 00 00 80 3f
       1.0 1.0 1.0 1.0
000150 00 00 80 3f 00 00 80 3f 00 00 80 3f 00 00 80 3f
       1.0 1.0 1.0 1.0
000160 00 00 80 3f 00 00 80 3f 00 00 80 3f 00 00 80 3f
       1.0 1.0 1.0 1.0
000170 00 00 80 3f 00 00 80 3f 00 00 80 3f 00 00 80 3f
       1.0 1.0 1.0 1.0
000180 00 00 80 3f 00 00 80 3f 00 00 80 3f 00 00 80 3f
       1.0 1.0 1.0 1.0
000190 fa 77 95 bd 7e 3b f9 bb 53 74 a1 be ad 58 5d 3d
       -0.07298274 -0.007605969 -0.3153406 0.054039646
0001a0 c7 04 d1 3c 24 06 b9 3d a5 ce 8f bd 62 48 85 bd
       0.025514973 0.09034374 -0.07021836 -0.065079466
0001b0 d2 21 3e 3e 9e 43 d0 3d 5b 54 33 bd ea bb 2c 3e
       0.18567589 0.10169147 -0.04378162 0.16868559
0001c0 05 ab 1d 3e 5b f4 50 3d ab 7a fa be 48 79 79 bd
       0.1539727 0.051014286 -0.48921713 -0.06090668
0001d0 bf 2d de 3d af d5 e6 bd 75 14 ca 3d c4 d9 e6 3c
       0.10848569 -0.11271226 0.09867183 0.02818001
0001e0 73 c2 45 3e d0 16 e8 3e 87 9c cf bb 91 d2 8c 3c
       0.19312458 0.45329905 -0.006335798 0.01719025
0001f0 42 3c db 3c 24 dc 41 be 7a d7 0d bd 40 ca 42 bd
       0.026762132 -0.18931633 -0.034629323 -0.047556162
000200 00 99 6c 3e a8 01 6b ba d9 04 91 3d 19 79 63 3e
       0.2310524 -0.00089647854 0.07081003 0.22214164
000210 46 5d e3 3c 5b dc d1 3e c6 cc 83 3e 53 07 2f 3e
       0.027754437 0.4098843 0.25742167 0.17092638
000220 78 57 0d be 49 7c ac 3c 18 6f 8c bd b5 77 ec bd
       -0.13802898 0.021055358 -0.06857127 -0.1154627
000230 02 fd fd 3c 47 be 0e be c7 31 d2 bd 15 3e f7 bd
       0.031004433 -0.13939773 -0.102634005 -0.12072388
000240 3d 25 bf 3d 7b 3c ee 3d 62 74 f5 bd 23 c6 15 3e
       0.093332745 0.116326295 -0.11985089 0.14626364
000250 9b 4e 97 3e 99 5a 44 be 2a ec 47 3e 15 02 f4 3e
       0.2955216 -0.19175185 0.19523683 0.47657838
000260 9f 75 d3 3e 1a 29 6f 3f 83 11 5a 3f 3e af ea 3e
       0.41300675 0.9342209 0.8518297 0.45836824
000270 96 85 4c 3e dc bd 0d 3f a1 c1 03 3f 1d ae 5f bc
       0.19972834 0.5536783 0.5146733 -0.013652352
000280 f9 31 5a 3f 41 21 a9 3f ac 0d b8 3e 25 cc 26 3f
       0.852325 1.3213273 0.3594793 0.6515525
000290 bb d9 1a 3f e0 26 62 3f cd 2b 29 3f a4 77 60 3f
       0.6048848 0.8834057 0.6608246 0.8768256
0002a0 0c 37 9b 3f 44 b9 94 3f f2 10 cf 3e bb 0a a0 bd
       1.2126174 1.1619039 0.40442616 -0.07814547
0002b0 09 40 15 3f b3 3b 01 3f b9 d1 29 3f 48 ad 41 3f
       0.58300835 0.5048172 0.66335636 0.7565503
0002c0 ff 5f fd 3e 1a 12 64 3e 4d 6d 23 3e 7a 05 30 3f
       0.49487302 0.2227253 0.15959664 0.68758357
0002d0 36 44 6b be 6a 5c b8 3e cc 0c 0a 3f a2 40 45 3f
       -0.22975239 0.36008006 0.53925776 0.77051747
0002e0 5d 9e 31 be 48 11 16 3f 0c 03 4d 3f 2e 77 8d 3e
       -0.17345567 0.5862012 0.80082774 0.2762999
0002f0 97 1d 0c 3e 90 4d 39 3e 61 52 d7 3e d7 94 06 3e
       0.13683163 0.18095994 0.42055038 0.13142715
000300 05 43 70 3f 4e d1 5b 3f 31 8d 09 3f 43 5a 00 3f
       0.93852264 0.8586625 0.53731066 0.5013773
000310 a6 e3 9d bd 11 c3 60 3f 82 b8 1f be a1 58 b9 3e
       -0.07709436 0.8779765 -0.15597728 0.3620043

while/MatMul_11 i1 [200, 50] scale=0.002020377 zero_point=0
000000 b9 e8 fd 57 1a c2 c2 f2 0b d6 0d f3 fa 16 19 cc
       -0.14344676 -0.04848905 -0.006061131 0.1757728 0.0525298 -0.12526338 -0.12526338 -0.028285278 0.022224147 -0.08485583 0.0262649 -0.0262649 -0.012122262 0.044448294 0.050509423 -0.1050596
000010 0a ec 18 e5 2a 1a 1a 2c 2f 03 05 02 15 10 f6 eb
       0.02020377 -0.04040754 0.04848905 -0.05455018 0.08485583 0.0525298 0.0525298 0.08889659 0.09495772 0.006061131 0.010101885 0.004040754 0.042427916 0.03232603 -0.02020377 -0.042427916
000020 f5 06 d4 03 41 10 1e 2f b7 da 41 c6 e5 fc e1 12
       -0.022224147 0.012122262 -0.08889659 0.006061131 0.1313245 0.03232603 0.060611308 0.09495772 -0.14748752 -0.07677432 0.1313245 -0.11718187 -0.05455018 -0.008081508 -0.06263169 0.036366787
000030 2a eb e8 1e e4 11 14 da f1 27 fa e9 e6 0e e8 fc
       0.08485583 -0.042427916 -0.04848905 0.060611308 -0.056570556 0.03434641 0.04040754 -0.07677432 -0.030305654 0.0787947 -0.012122262 -0.04646867 -0.0525298 0.028285278 -0.04848905 -0.008081508
000040 37 db 05 fe fe fc ff 09 2f 07 16 e5 f2 f3 db 06
       0.11112073 -0.07475395 0.010101885 -0.004040754 -0.004040754 -0.008081508 -0.002020377 0.018183393 0.09495772 0.014142639 0.044448294 -0.05455018 -0.028285278 -0.0262649 -0.07475395 0.012122262
000050 23 fa 15 06 0d 1c 2b 28 e8 f6 21 fe dd fe f7 d9
       0.07071319 -0.012122262 0.042427916 0.012122262 0.0262649 0.056570556 0.086876206 0.08081508 -0.04848905 -0.02020377 0.06667244 -0.004040754 -0.07071319 -0.004040754 -0.018183393 -0.0787947
000060 52 b1 41 d6 f8 28 31 03 f7 08 cc 23 d5 dc ec f5
       0.16567092 -0.15960978 0.1313245 -0.08485583 -0.016163016 0.08081508 0.09899847 0.006061131 -0.018183393 0.016163016 -0.1050596 0.07071319 -0.086876206 -0.07273357 -0.04040754 -0.022224147
000070 08 ff f5 14 e8 4d d7 0b 17 3d fc 04 1e 22 1a 21
       0.016163016 -0.002020377 -0.022224147 0.04040754 -0.04848905 0.15556903 -0.08283546 0.022224147 0.04646867 0.123243 -0.008081508 0.008081508 0.060611308 0.06869282 0.0525298 0.06667244
000080 1f fd fa 30 de cf bf 21 15 d2 d2 11 e5 1f e6 df
       0.06263169 -0.006061131 -0.012122262 0.0969781 -0.06869282 -0.09899847 -0.1313245 0.06667244 0.042427916 -0.09293734 -0.09293734 0.03434641 -0.05455018 0.06263169 -0.0525298 -0.06667244
000090 f2 fb 11 d6 17 ee 26 fd 25 d1 ef f4 f9 0e f3 d2
       -0.028285278 -0.010101885 0.03434641 -0.08485583 0.04646867 -0.036366787 0.07677432 -0.006061131 0.07475395 -0.09495772 -0.03434641 -0.024244525 -0.014142639 0.028285278 -0.0262649 -0.09293734
0000a0 01 38 f2 e7 f6 90 f2 f1 28 08 ec 13 1d 08 f7 3d
       0.002020377 0.11314111 -0.028285278 -0.050509423 -0.02020377 -0.22628222 -0.028285278 -0.030305654 0.08081508 0.016163016 -0.04040754 0.03838716 0.058590934 0.016163016 -0.018183393 0.123243
0000b0 1c 30 0b e5 fb e4 1b 1d 0e ea 1e bb 23 4e f2 f4
       0.056570556 0.0969781 0.022224147 -0.05455018 -0.010101885 -0.056570556 0.05455018 0.058590934 0.028285278 -0.044448294 0.060611308 -0.13940601 0.07071319 0.1575894 -0.028285278 -0.024244525
0000c0 db 3f ff 18 e6 d3 11 2b fe 09 f5 04 25 3b 14 23
       -0.07475395 0.12728375 -0.002020377 0.04848905 -0.0525298 -0.09091696 0.03434641 0.086876206 -0.004040754 0.018183393 -0.022224147 0.008081508 0.07475395 0.11920224 0.04040754 0.07071319
0000d0 ef 0e e6 ba 34 f3 f7 e2 12 0c e0 08 59 00 45 fe
       -0.03434641 0.028285278 -0.0525298 -0.14142638 0.1050596 -0.0262649 -0.018183393 -0.060611308 0.036366787 0.024244525 -0.06465206 0.016163016 0.17981355 0.0 0.13940601 -0.004040754
0000e0 f6 f2 f2 18 c4 ec 19 26 e3 3a fd c9 0f fe 15 f2
       -0.02020377 -0.028285278 -0.028285278 0.04848905 -0.121222615 -0.04040754 0.050509423 0.07677432 -0.058590934 0.11718187 -0.006061131 -0.11112073 0.030305654 -0.004040754 0.042427916 -0.028285278
0000f0 e6 1d ba fd f6 e0 57 fe f5 fe fa 39 18 2a 11 ee
       -0.0525298 0.058590934 -0.14142638 -0.006061131 -0.02020377 -0.06465206 0.1757728 -0.004040754 -0.022224147 -0.004040754 -0.012122262 0.115161486 0.04848905 0.08485583 0.03434641 -0.036366787

while/MatMul i1 [200, 42] scale=0.022583744 zero_point=0
000000 03 05 00 ef 08 f1 0b ec 0a f5 02 e9 fa f0 fc f3
       0.06775123 0.11291872 0.0 -0.38392365 0.18066995 -0.33875614 0.24842118 -0.45167488 0.22583744 -0.24842118 0.045167487 -0.5194261 -0.13550246 -0.3613399 -0.090334974 -0.29358867
000010 f8 ed fc ea f5 f2 f7 e7 f0 df fb e8 ff f0 fb e9
       -0.18066995 -0.42909113 -0.090334974 -0.49684235 -0.24842118 -0.31617242 -0.20325369 -0.5645936 -0.3613399 -0.7452635 -0.11291872 -0.54200983 -0.022583744 -0.3613399 -0.11291872 -0.5194261
000020 f3 db f2 e6 fc e9 fd e8 fe de fa ff 32 f9 2f fd
       -0.29358867 -0.8355985 -0.31617242 -0.58717734 -0.090334974 -0.5194261 -0.06775123 -0.54200983 -0.045167487 -0.7678473 -0.13550246 -0.022583744 1.1291872 -0.15808621 1.0614359 -0.06775123
000030 3d 00 54 00 28 ed 2f ef 24 f8 2f fc 18 ea 35 f7
       1.3776083 0.0 1.8970344 0.0 0.90334976 -0.42909113 1.0614359 -0.38392365 0.81301475 -0.18066995 1.0614359 -0.090334974 0.54200983 -0.49684235 1.1969384 -0.20325369
000040 36 00 41 13 01 f8 41 00 5f f3 77 fc f3 fa 2e f7
       1.2195221 0.0 1.4679433 0.42909113 0.022583744 -0.18066995 1.4679433 0.0 2.1454556 -0.29358867 2.6874654 -0.090334974 -0.29358867 -0.13550246 1.0388522 -0.20325369
000050 3e f8 51 fa 04 00 fe e6 fb e4 03 df 02 d6 fb e6
       1.4001921 -0.18066995 1.8292832 -0.13550246 0.090334974 0.0 -0.045167487 -0.58717734 -0.11291872 -0.63234484 0.06775123 -0.7452635 0.045167487 -0.9485172 -0.11291872 -0.58717734
000060 fc e7 fa e1 00 e7 f2 f2 02 ea 07 d5 03 d3 01 f3
       -0.090334974 -0.5645936 -0.13550246 -0.7000961 0.0 -0.5645936 -0.31617242 -0.31617242 0.045167487 -0.49684235 0.15808621 -0.971101 0.06775123 -1.0162685 0.022583744 -0.29358867
000070 00 f0 f7 e0 f3 de 02 fb 07 f2 03 f2 f5 ef 05 fe
       0.0 -0.3613399 -0.20325369 -0.7226798 -0.29358867 -0.7678473 0.045167487 -0.11291872 0.15808621 -0.31617242 0.06775123 -0.31617242 -0.24842118 -0.38392365 0.11291872 -0.045167487
000080 05 d2 ff d9 08 e9 06 f4 02 eb 0d f1 02 ea 0a ea
       0.11291872 -1.0388522 -0.022583744 -0.880766 0.18066995 -0.5194261 0.13550246 -0.27100492 0.045167487 -0.4742586 0.29358867 -0.33875614 0.045167487 -0.49684235 0.22583744 -0.49684235
000090 0a e9 fd f6 02 00 01 fb fc f7 fb 05 ff 1a 05 15
       0.22583744 -0.5194261 -0.06775123 -0.22583744 0.045167487 0.0 0.022583744 -0.11291872 -0.090334974 -0.20325369 -0.11291872 0.11291872 -0.022583744 0.58717734 0.11291872 0.4742586
0000a0 f9 09 fc 0b f9 1d f2 14 02 fe de fe ea fd f2 fb
       -0.15808621 0.20325369 -0.090334974 0.24842118 -0.15808621 0.65492857 -0.31617242 0.45167488 0.045167487 -0.045167487 -0.7678473 -0.045167487 -0.49684235 -0.06775123 -0.31617242 -0.11291872
0000b0 05 01 d7 eb ea ea f1 f5 f0 f6 cf ea f1 f2 da 08
       0.11291872 0.022583744 -0.9259335 -0.4742586 -0.49684235 -0.49684235 -0.33875614 -0.24842118 -0.3613399 -0.22583744 -1.1066034 -0.49684235 -0.33875614 -0.31617242 -0.85818225 0.18066995
0000c0 d3 10 dd ed f7 f2 ed f7 dd f3 f3 e5 04 f4 fa fd
       -1.0162685 0.3613399 -0.790431 -0.42909113 -0.20325369 -0.31617242 -0.42909113 -0.20325369 -0.790431 -0.29358867 -0.29358867 -0.60976106 0.090334974 -0.27100492 -0.13550246 -0.06775123
0000d0 fa f9 06 05 20 e4 1a fd 29 f5 2f f0 18 f4 02 f8
       -0.13550246 -0.15808621 0.13550246 0.11291872 0.7226798 -0.63234484 0.58717734 -0.06775123 0.9259335 -0.24842118 1.0614359 -0.3613399 0.54200983 -0.27100492 0.045167487 -0.18066995
0000e0 0d 09 0c 0a 14 eb 1f f2 18 f2 1a ec f1 f8 11 05
       0.29358867 0.20325369 0.27100492 0.22583744 0.45167488 -0.4742586 0.7000961 -0.31617242 0.54200983 -0.31617242 0.58717734 -0.45167488 -0.33875614 -0.18066995 0.38392365 0.11291872
0000f0 20 fa 1f ec e5 ec 00 ff 0d 00 21 00 fc fc c5 fc
       0.7226798 -0.13550246 0.7000961 -0.45167488 -0.60976106 -0.45167488 0.0 -0.022583744 0.29358867 0.0 0.7452635 0.0 -0.090334974 -0.090334974 -1.3324409 -0.090334974

sequential_1/lstm_1/Read_2/ReadVariableOp1 f4 [400]
000000 be 85 1f 3e 09 60 ef 3e 53 41 ee bd 33 22 07 3f
       0.15578362 0.46752957 -0.11633553 0.5278656
000010 ad e4 fe 3e 2c df 09 3f 14 f9 39 3f 00 07 a2 3e
       0.4978384 0.5385616 0.7264569 0.31645966
000020 df 06 46 3f c7 8c 7c 3e f6 eb 3a 3f be 02 b4 3e
       0.77354234 0.24663077 0.730163 0.35158342
000030 87 99 89 3e 3e e0 1e 3f 33 a9 68 3e bf a1 c2 3f
       0.26874945 0.62060916 0.22720794 1.5205611
000040 4b 13 db 3d 0d 3a 28 3f 81 bd e7 3e ff c4 36 3f
       0.10697039 0.6571358 0.45261768 0.7139434
000050 d1 49 f8 3e f8 8b 11 3f f6 c8 ec 3e e0 8a eb 3e
       0.48493817 0.568542 0.4624707 0.4600439
000060 5e 82 69 3f 7e 5f 4c 3f b6 3e 29 3f 16 f7 6f 3e
       0.9121455 0.7983321 0.66111314 0.234341
000070 77 7c 49 3f 5f c5 00 3f 76 5a dd 3d 0a f4 eb 3e
       0.78705543 0.50301164 0.1080827 0.46084625
000080 40 bd 06 3f 08 da 42 be f9 4b 77 3e ef 03 ee 3e
       0.5263252 -0.19028485 0.24150075 0.46487376
000090 e5 6a 39 3f 06 59 55 bc ed 5e 04 3f d5 f0 a6 3e
       0.72428733 -0.013021713 0.51707345 0.32605615
0000a0 ae 2e 1f 3f 80 52 ea 3e ae 97 14 3f 51 ea 2d 3f
       0.621806 0.45766068 0.58043945 0.67935663
0000b0 b8 cf 70 3e 78 68 b3 3e a1 44 b5 3e d5 a0 9a 3f
       0.23516738 0.3504064 0.35403922 1.2080332
0000c0 1d 0f ce 3e 63 7e 20 3f cb ca 9c 3e ee b8 2d 3f
       0.40245906 0.6269285 0.3062347 0.67860305
0000d0 1c 63 9c 3e 79 a6 f8 3e b8 a0 38 3f 61 a1 52 3e
       0.30544364 0.4856451 0.7212024 0.20569374
0000e0 5f 55 1a 3f 4c 55 03 3f 50 ca 3c 3f e2 4a 87 3e
       0.60286516 0.5130203 0.73746204 0.2642432
0000f0 5a d9 e3 3e 7d 6a 50 3f ec 48 b5 3e dc bb 7e 3e
       0.44501764 0.8141249 0.35407197 0.2487635
000100 0b c9 40 3e 94 d5 59 3f 7c 5e 9a 3f a3 57 4e bd
       0.18826692 0.8509152 1.2060084 -0.050376546
000110 9a 3e a2 3f 6b 4e 8b 3e f4 8f d8 3d 76 7d f7 3e
       1.2675354 0.27208266 0.10574332 0.48337907
000120 b0 53 6c 3e 70 98 76 3d 65 ee 9d 3e 52 76 24 3f
       0.23078799 0.06020397 0.30845943 0.6424304
000130 f1 1f 96 3e 14 d9 4c 3f 18 5e 38 3f cd 67 81 3f
       0.29321244 0.80018735 0.72018576 1.0109802
000140 0d 60 03 3f bd 13 9f 3c 4f 85 c3 3e 06 49 1b 3e
       0.51318437 0.019418592 0.38187644 0.15164575
000150 7a 9c b3 3e 1a b0 3c 3e 96 35 b2 3e ec f6 c0 3e
       0.3508032 0.18426552 0.34806508 0.37688386
000160 b0 35 91 3e 82 27 4c 3f 53 e6 93 bd 7a 1d e0 3e
       0.28361273 0.79747784 -0.07221665 0.4377249
000170 41 b8 9a 3e ec 60 30 3f 5a dc 07 3f 3b ab 7d 3f
       0.302187 0.6889789 0.53070605 0.990894
000180 80 21 80 3e 28 2c 8f 3f 84 f8 48 3e 47 c0 9a 3e
       0.25025558 1.118535 0.19626051 0.3022482
000190 00 00 80 3f 00 00 80 3f 00 00 80 3f 00 00 80 3f
       1.0 1.0 1.0 1.0
0001a0 00 00 80 3f 00 00 80 3f 00 00 80 3f 00 00 80 3f
       1.0 1.0 1.0 1.0
0001b0 00 00 80 3f 00 00 80 3f 00 00 80 3f 00 00 80 3f
       1.0 1.0 1.0 1.0
0001c0 00 00 80 3f 00 00 80 3f 00 00 80 3f 00 00 80 3f
       1.0 1.0 1.0 1.0
0001d0 00 00 80 3f 00 00 80 3f 00 00 80 3f 00 00 80 3f
       1.0 1.0 1.0 1.0
0001e0 00 00 80 3f 00 00 80 3f 00 00 80 3f 00 00 80 3f
       1.0 1.0 1.0 1.0
0001f0 00 00 80 3f 00 00 80 3f 00 00 80 3f 00 00 80 3f
       1.0 1.0 1.0 1.0
000200 00 00 80 3f 00 00 80 3f 00 00 80 3f 00 00 80 3f
       1.0 1.0 1.0 1.0
000210 00 00 80 3f 00 00 80 3f 00 00 80 3f 00 00 80 3f
       1.0 1.0 1.0 1.0
000220 00 00 80 3f 00 00 80 3f 00 00 80 3f 00 00 80 3f
       1.0 1.0 1.0 1.0
000230 00 00 80 3f 00 00 80 3f 00 00 80 3f 00 00 80 3f
       1.0 1.0 1.0 1.0
000240 00 00 80 3f 00 00 80 3f 00 00 80 3f 00 00 80 3f
       1.0 1.0 1.0 1.0
000250 00 00 80 3f 00 00 80 3f 00 00 80 3f 00 00 80 3f
       1.0 1.0 1.0 1.0
000260 00 00 80 3f 00 00 80 3f 00 00 80 3f 00 00 80 3f
       1.0 1.0 1.0 1.0
000270 00 00 80 3f 00 00 80 3f 00 00 80 3f 00 00 80 3f
       1.0 1.0 1.0 1.0
000280 00 00 80 3f 00 00 80 3f 00 00 80 3f 00 00 80 3f
       1.0 1.0 1.0 1.0
000290 00 00 80 3f 00 00 80 3f 00 00 80 3f 00 00 80 3f
       1.0 1.0 1.0 1.0
0002a0 00 00 80 3f 00 00 80 3f 00 00 80 3f 00 00 80 3f
       1.0 1.0 1.0 1.0
0002b0 00 00 80 3f 00 00 80 3f 00 00 80 3f 00 00 80 3f
       1.0 1.0 1.0 1.0
0002c0 00 00 80 3f 00 00 80 3f 00 00 80 3f 00 00 80 3f
       1.0 1.0 1.0 1.0
0002d0 00 00 80 3f 00 00 80 3f 00 00 80 3f 00 00 80 3f
       1.0 1.0 1.0 1.0
0002e0 00 00 80 3f 00 00 80 3f 00 00 80 3f 00 00 80 3f
       1.0 1.0 1.0 1.0
0002f0 00 00 80 3f 00 00 80 3f 00 00 80 3f 00 00 80 3f
       1.0 1.0 1.0 1.0
000300 00 00 80 3f 00 00 80 3f 00 00 80 3f 00 00 80 3f
       1.0 1.0 1.0 1.0
000310 00 00 80 3f 00 00 80 3f 00 00 80 3f 00 00 80 3f
       1.0 1.0 1.0 1.0
000320 7a 47 b4 3d dd aa 44 3e e7 4f 76 bd c8 fb 69 3e
       0.088026956 0.19205804 -0.060134795 0.22849953
000330 23 04 25 be 76 1f 0e be fc 39 c6 3d 85 68 28 be
       -0.1611486 -0.13879189 0.096790284 -0.16446121
000340 57 4d 80 be 39 54 19 3e 79 78 76 3e 37 7f 8e 3e
       -0.25059006 0.14973535 0.24069394 0.27831432
000350 32 e7 6d 3e 5a ff 07 be 7c 47 05 bd 56 3a b5 be
       0.23232725 -0.13281003 -0.032538876 -0.3539607
000360 44 4e 5e bd 48 fe 0d be 3c 4d d4 bd df ab 4a 3d
       -0.05427386 -0.13866532 -0.10366294 0.049480315
000370 df 82 99 3d 69 09 bb bc 6c 9d 9e 3e aa fe ef bd
       0.07495665 -0.022831636 0.30979478 -0.11718495
000380 ab 62 30 3e 88 79 00 3e b0 8f a1 bd 96 53 91 3c
       0.17225139 0.1254636 -0.07888734 0.017740052
000390 8f 8f a2 be ec 3c a5 3d 3f 0d 3a bd 3e e6 94 be
       -0.31750152 0.080682606 -0.04542279 -0.2908191
0003a0 f7 5e f7 3d 04 67 7e 3e b9 3e 65 3e 72 ea b9 bd
       0.1207866 0.24843985 0.22387208 -0.0907792
0003b0 bf 59 c0 bd 96 eb 4b be 92 85 ef bd 7b 91 20 3e
       -0.09392118 -0.19914088 -0.116953984 0.15680496
0003c0 01 b1 67 3e 54 33 d0 be d8 e8 9c bd 6b 14 95 3b
       0.22626115 -0.4066416 -0.07661599 0.004549553
0003d0 a0 8b c6 3e 1e af f2 3b 91 d9 04 be 8a 4e 90 3d
       0.387784 0.0074061295 -0.1297362 0.0704623
0003e0 44 64 f3 bd 93 75 24 3e a1 8d 43 be 00 95 8b 3d
       -0.118843585 0.16060476 -0.19096996 0.06815529
0003f0 e3 7e 83 3e a6 bf 88 bd 22 41 9f 3d 90 63 94 3e
       0.25682744 -0.06677179 0.07776095 0.2898221

while/MatMul_14 i1 [400, 100] scale=0.0017343955 zero_point=0
000000 d0 03 ea ef f8 f3 e9 01 e7 de e5 e2 0d de 28 fa
       -0.083250985 0.0052031865 -0.038156703 -0.029484723 -0.013875164 -0.02254714 -0.039891098 0.0017343955 -0.043359887 -0.058969446 -0.04682868 -0.052031867 0.02254714 -0.058969446 0.06937582 -0.010406373
000010 22 0e 21 e3 17 f7 36 21 13 0c fe 0c fa ed 02 04
       0.058969446 0.024281537 0.05723505 -0.05029747 0.039891098 -0.01560956 0.09365736 0.05723505 0.032953516 0.020812746 -0.003468791 0.020812746 -0.010406373 -0.032953516 0.003468791 0.006937582
000020 16 dc 30 0e 27 ea 00 eb ed ef 3b ed fe 00 ee 0d
       0.038156703 -0.06243824 0.083250985 0.024281537 0.06764142 -0.038156703 0.0 -0.036422305 -0.032953516 -0.029484723 0.102329336 -0.032953516 -0.003468791 0.0 -0.03121912 0.02254714
000030 12 27 e0 cf 1c f7 21 df 1a eb f5 01 e8 f1 45 db
       0.03121912 0.06764142 -0.055500656 -0.08498538 0.048563074 -0.01560956 0.05723505 -0.05723505 0.04509428 -0.036422305 -0.019078352 0.0017343955 -0.041625492 -0.026015934 0.11967329 -0.06417263
000040 27 14 1f 1a 14 0e 19 0d 0f 19 ef d6 2a 21 e1 fc
       0.06764142 0.03468791 0.05376626 0.04509428 0.03468791 0.024281537 0.043359887 0.02254714 0.026015934 0.043359887 -0.029484723 -0.07284461 0.07284461 0.05723505 -0.05376626 -0.006937582
000050 11 17 e4 bd e9 0f f4 16 02 18 26 f5 f2 37 e4 03
       0.029484723 0.039891098 -0.048563074 -0.1162045 -0.039891098 0.026015934 -0.020812746 0.038156703 0.003468791 0.041625492 0.06590703 -0.019078352 -0.024281537 0.09539175 -0.048563074 0.0052031865
000060 df f2 de 1a fb f7 ed f9 01 1c ea 07 1a 1a e7 0a
       -0.05723505 -0.024281537 -0.058969446 0.04509428 -0.008671978 -0.01560956 -0.032953516 -0.012140769 0.0017343955 0.048563074 -0.038156703 0.012140769 0.04509428 0.04509428 -0.043359887 0.017343955
000070 04 19 3a 01 41 c2 e2 e1 eb 02 1c 1d 13 38 c8 ed
       0.006937582 0.043359887 0.10059494 0.0017343955 0.11273571 -0.10753252 -0.052031867 -0.05376626 -0.036422305 0.003468791 0.048563074 0.05029747 0.032953516 0.09712615 -0.09712615 -0.032953516
000080 da f3 f0 f2 20 e7 03 fa 18 12 fc dd 01 d7 e8 02
       -0.06590703 -0.02254714 -0.027750328 -0.024281537 0.055500656 -0.043359887 0.0052031865 -0.010406373 0.041625492 0.03121912 -0.006937582 -0.060703844 0.0017343955 -0.07111022 -0.041625492 0.003468791
000090 09 f5 e5 15 dc 0b ff 06 f8 18 36 07 d4 fa f5 13
       0.01560956 -0.019078352 -0.04682868 0.036422305 -0.06243824 0.019078352 -0.0017343955 0.010406373 -0.013875164 0.041625492 0.09365736 0.012140769 -0.076313406 -0.010406373 -0.019078352 0.032953516
0000a0 1a e2 01 29 d8 41 da 18 f9 0f 09 d9 36 d9 08 07
       0.04509428 -0.052031867 0.0017343955 0.07111022 -0.06937582 0.11273571 -0.06590703 0.041625492 -0.012140769 0.026015934 0.01560956 -0.06764142 0.09365736 -0.06764142 0.013875164 0.012140769
0000b0 d6 23 1f dc 03 0d fc 1b 05 f7 08 fe c9 fd 36 1d
       -0.07284461 0.060703844 0.05376626 -0.06243824 0.0052031865 0.02254714 -0.006937582 0.04682868 0.008671978 -0.01560956 0.013875164 -0.003468791 -0.09539175 -0.0052031865 0.09365736 0.05029747
0000c0 07 1d f8 cb 4e 09 eb 14 fb f0 f0 f0 1d 0d 23 fb
       0.012140769 0.05029747 -0.013875164 -0.09192296 0.13528284 0.01560956 -0.036422305 0.03468791 -0.008671978 -0.027750328 -0.027750328 -0.027750328 0.05029747 0.02254714 0.060703844 -0.008671978
0000d0 11 e6 05 10 f5 b1 c6 11 06 35 f4 1a 12 eb 04 38
       0.029484723 -0.04509428 0.008671978 0.027750328 -0.019078352 -0.13701725 -0.10059494 0.029484723 0.010406373 0.09192296 -0.020812746 0.04509428 0.03121912 -0.036422305 0.006937582 0.09712615
0000e0 10 d2 2a c1 ed 0f 20 15 05 25 f5 14 eb 28 07 ea
       0.027750328 -0.079782195 0.07284461 -0.109266914 -0.032953516 0.026015934 0.055500656 0.036422305 0.008671978 0.06417263 -0.019078352 0.03468791 -0.036422305 0.06937582 0.012140769 -0.038156703
0000f0 2a f7 1a 08 e5 30 ec 12 ef 2b e2 04 39 fe e2 d9
       0.07284461 -0.01560956 0.04509428 0.013875164 -0.04682868 0.083250985 -0.03468791 0.03121912 -0.029484723 0.07457901 -0.052031867 0.006937582 0.09886055 -0.003468791 -0.052031867 -0.06764142

while/MatMul2 i1 [400, 50] scale=0.019803813 zero_point=0
000000 0a f0 16 29 12 c7 25 12 f7 f7 e3 dd 21 23 0f 01
       0.19803813 -0.316861 0.43568388 0.81195635 0.35646862 -1.1288173 0.73274106 0.35646862 -0.17823431 -0.17823431 -0.57431054 -0.6931335 0.6535258 0.6931335 0.29705718 0.019803813
000010 d0 e4 e5 0f 0b d6 ea fa 16 11 16 d8 f9 f5 ef e8
       -0.950583 -0.5545068 -0.53470296 0.29705718 0.21784194 -0.8317601 -0.43568388 -0.11882287 0.43568388 0.33666483 0.43568388 -0.7921525 -0.1386267 -0.21784194 -0.33666483 -0.4752915
000020 0b f0 de f9 41 fc 06 0e fd f3 1c ef 01 f5 12 fb
       0.21784194 -0.316861 -0.67332965 -0.1386267 1.2872478 -0.07921525 0.11882287 0.2772534 -0.059411436 -0.25744957 0.5545068 -0.33666483 0.019803813 -0.21784194 0.35646862 -0.099019065
000030 e3 07 15 f2 22 38 18 e0 0c 06 f6 f5 cd e4 2a 10
       -0.57431054 0.1386267 0.41588005 -0.2772534 0.67332965 1.1090136 0.4752915 -0.633722 0.23764575 0.11882287 -0.19803813 -0.21784194 -1.0099945 -0.5545068 0.8317601 0.316861
000040 24 0b d1 c5 e0 08 08 ed 0f f6 02 14 04 d2 03 f9
       0.71293724 0.21784194 -0.9307792 -1.168425 -0.633722 0.1584305 0.1584305 -0.37627244 0.29705718 -0.19803813 0.039607625 0.39607626 0.07921525 -0.9109754 0.059411436 -0.1386267
000050 f0 e8 18 ea ea fc 34 f7 f8 f2 0b 02 39 f8 eb f9
       -0.316861 -0.4752915 0.4752915 -0.43568388 -0.43568388 -0.07921525 1.0297983 -0.17823431 -0.1584305 -0.2772534 0.21784194 0.039607625 1.1288173 -0.1584305 -0.41588005 -0.1386267
000060 0a ea f6 0d 09 19 f9 27 f8 e1 12 ff fe ec f1 e7
       0.19803813 -0.43568388 -0.19803813 0.25744957 0.17823431 0.4950953 -0.1386267 0.7723487 -0.1584305 -0.6139182 0.35646862 -0.019803813 -0.039607625 -0.39607626 -0.29705718 -0.4950953
000070 0c 25 24 10 d0 ef fb 2a f9 a5 09 f3 0e ec 16 c7
       0.23764575 0.73274106 0.71293724 0.316861 -0.950583 -0.33666483 -0.099019065 0.8317601 -0.1386267 -1.8021469 0.17823431 -0.25744957 0.2772534 -0.39607626 0.43568388 -1.1288173
000080 d2 00 f6 db f7 fe e4 1d 48 24 03 23 fe ff 06 e8
       -0.9109754 0.0 -0.19803813 -0.73274106 -0.17823431 -0.039607625 -0.5545068 0.57431054 1.4258745 0.71293724 0.059411436 0.6931335 -0.039607625 -0.019803813 0.11882287 -0.4752915
000090 fa 11 40 01 e5 d4 2e 30 0a 08 02 2a 0a a2 fc 13
       -0.11882287 0.33666483 1.267444 0.019803813 -0.53470296 -0.87136775 0.9109754 0.950583 0.19803813 0.1584305 0.039607625 0.8317601 0.19803813 -1.8615584 -0.07921525 0.37627244
0000a0 f5 d9 0d 42 04 1a f5 f1 11 21 27 05 00 06 df ea
       -0.21784194 -0.7723487 0.25744957 1.3070517 0.07921525 0.51489913 -0.21784194 -0.29705718 0.33666483 0.6535258 0.7723487 0.099019065 0.0 0.11882287 -0.6535258 -0.43568388
0000b0 1f f9 1c e1 04 fb 06 ed 04 00 00 2f f5 02 47 15
       0.6139182 -0.1386267 0.5545068 -0.6139182 0.07921525 -0.099019065 0.11882287 -0.37627244 0.07921525 0.0 0.0 0.9307792 -0.21784194 0.039607625 1.4060707 0.41588005
0000c0 13 ee ed e6 fe 1f 0d f4 2e d2 05 05 2e 02 18 07
       0.37627244 -0.35646862 -0.37627244 -0.51489913 -0.039607625 0.6139182 0.25744957 -0.23764575 0.9109754 -0.9109754 0.099019065 0.099019065 0.9109754 0.039607625 0.4752915 0.1386267
0000d0 e1 09 f5 ce 0e 12 fe 1a f0 f0 14 39 fc f5 f5 e7
       -0.6139182 0.17823431 -0.21784194 -0.9901906 0.2772534 0.35646862 -0.039607625 0.51489913 -0.316861 -0.316861 0.39607626 1.1288173 -0.07921525 -0.21784194 -0.21784194 -0.4950953
0000e0 e6 ed 36 ee 12 dd fe 13 18 0a f8 db 10 e9 f2 1c
       -0.51489913 -0.37627244 1.0694059 -0.35646862 0.35646862 -0.6931335 -0.039607625 0.37627244 0.4752915 0.19803813 -0.1584305 -0.73274106 0.316861 -0.4554877 -0.2772534 0.5545068
0000f0 e5 1e 14 0d f5 d9 04 fd fc 19 1b f7 f8 19 eb fb
       -0.53470296 0.59411436 0.39607626 0.25744957 -0.21784194 -0.7723487 0.07921525 -0.059411436 -0.07921525 0.4950953 0.53470296 -0.17823431 -0.1584305 0.4950953 -0.41588005 -0.099019065
